data/ip/nn_e_fvC_svI_n1_tmi0_sd777.pt (torch, 280143 bytes, 7 tensors)

weight f4 [512, 2]
-0.025183503 -0.021417027 -0.006084033 -0.011759513 0.00027767837 -0.0001283017 -0.00039211096 -0.0009039662
-7.856608e-05 0.0009774675 -0.00078373 0.0004998936 -0.07470158 -0.08565621 -0.00019277175 0.00071150245
-0.0013622727 9.0034655e-06 -0.0012310086 -0.00049382454 -0.0010265746 -0.0004783634 -0.016454048 -0.025270266
0.0003890289 0.00074882276 -0.0014777625 0.0042486726 0.0002113365 1.42590025e-05 -0.0003225586 -0.00028746753
-0.010793882 -0.010009089 7.838788e-05 -0.00038729797 -0.0014100648 -0.0024769127 -0.03717024 -0.04605976
0.002110414 0.00457261 0.00014749044 0.00016314218 -0.0013871522 0.0019408319 0.00013926296 -0.0007086114
-0.004170199 -0.015993536 0.00019931767 -0.0005172802 -0.0026302235 -0.0015953741 0.0007683536 0.0010062506
0.0034130688 0.0007020566 -2.9418217e-05 0.00022003813 -0.003473533 -0.00714292 -0.006209781 -0.004582261
-5.934169e-05 0.0005877295 -9.165584e-05 6.068737e-05 -0.0025152278 -0.0017820715 0.00035534624 -0.001069104
-1.032986 1.0007424 -0.00020386626 0.00043337702 0.0061737113 0.0035417215 -0.019958826 -0.039439294
0.0025309706 0.00079025375 0.0016438436 0.004500225 -0.812946 0.79247946 -0.000235143 -2.7844275e-05
-5.859728e-05 -0.0012597659 0.00042675287 -0.0025771742 -0.06039325 -0.06462815 -0.00013704176 0.00059546175
-0.00013654119 -0.00071987516 9.257465e-05 0.0003260684 0.00010489525 -5.342769e-05 0.00067291287 0.000107314634
0.0030997936 0.0034609113 -0.002307028 0.0020887018 -0.0038265195 -0.00039559408 0.00033878832 -9.620504e-05
0.00017933152 0.0005775192 0.0016507026 -0.0016524901 0.000735057 -0.0026030794 -0.0007346173 -0.000449711
0.0033207033 0.0021971106 0.0007618519 -0.0009473484 -0.0002264216 0.00058162626 -1.2040018e-05 -1.6819946e-05
-0.0062750666 -0.017888969 7.0220405e-05 0.00031909332 0.001224142 -0.00079060707 -0.0064059463 -0.020363472
-7.5225675e-05 -0.00028722838 0.0037776425 -0.010331251 0.00044907792 -0.0010793217 0.00065976835 0.0007207059
-0.0042693303 -0.00090928405 -0.0613098 -0.06678061 0.0010798507 -0.0011320782 0.002028884 0.0017219294
-0.01634179 -0.013212844 -0.00016209281 0.00056192407 0.0015680108 0.0020623824 2.5814388e-05 7.858352e-05
0.00017317545 -0.00037633776 0.001105449 0.0021063094 0.0045720935 0.0067760805 -0.0006629582 -0.0022145165
-0.0129114995 -0.013308157 -4.544336e-05 -0.0003898964 7.04741e-05 0.00014399306 -0.0017260599 -0.0025514413
0.00033424777 9.886454e-05 0.00021545526 0.000527536 -0.8877744 0.88025707 -0.00086165464 -0.00014612489
-0.0008360778 0.000506587 0.0015923213 0.0008879395 0.5569952 0.020996515 -0.0017279406 -0.00062758353
0.0013865497 -0.0015034218 0.00015920596 -0.00024306428 0.00062993227 -0.0003589184 0.00413529 0.004303625
-0.00083867385 -0.0025555168 0.0032394952 -0.0002586279 0.00035200748 1.8628065e-05 -0.0015000281 0.0005494438
0.00012856301 0.00026064174 0.00062208966 -0.000343279 -0.00022812784 -0.00041047318 -0.0009691574 -0.0015815966
-0.000372286 -0.0007685504 -0.0037512283 -0.004012931 0.0005070563 -0.001008455 -0.00059720274 0.00018121136
-0.068937145 -0.07439914 -0.00030025444 -0.000871374 -0.0023500386 -0.0008996205 -9.598945e-05 0.00079974986
-0.060606495 -0.06113513 -0.00045307926 0.00023206012 -0.0027498673 0.00062863587 -0.00031519186 -0.0025342973
-7.24852e-05 -0.0010614413 0.0038821527 0.0010289518 -0.00061139563 -5.06145e-05 -0.00049300794 0.00023500026
-0.00072625285 -0.00016905827 0.0003818734 0.00024024709 0.0043882933 0.0041222493 -1.572227e-05 -0.00018130083
00000000: a24d cebc c372 afbc 915c c7bb f9aa 40bc
00000010: 5c95 9139 ba88 06b9 3e94 cdb9 25f8 6cba
00000020: d8c3 a4b8 5e1e 803a 3b73 4dba 4b0b 033a
00000030: 24fd 98bd 866c afbd c622 4ab9 1f84 3a3a
00000040: 498e b2ba 970d 1737 cb59 a1ba 0174 01ba
00000050: 218e 86ba d9cc fab9 a4ca 86bc 9703 cfbc
00000060: 93f6 cb39 a54c 443a 7bb1 c1ba 7338 8b3b
00000070: 369a 5d39 f339 6f37 151d a9b9 3db7 96b9
00000080: d3d8 30bc 29fd 23bc 2c64 a438 410e cbb9
00000090: ecd1 b8ba b353 22bb d23f 18bd 29a9 3cbd
000000a0: df4e 0a3b d5d5 953b aaa7 1a39 2511 2b39
000000b0: 1bd1 b5ba 8363 fe3a 1e07 1239 1bc2 39ba
000000c0: 2aa6 88bb e004 83bc eeff 5039 169a 07ba
000000d0: d45f 2cbb df1b d1ba 566b 493a 2be4 833a
000000e0: cbad 5f3b 390a 383a 24c7 f6b7 09ba 6639
000000f0: 37a4 63bb 280f eabb 6b7b cbbb cb26 96bb
00000100: a8e5 78b8 dc11 1a3a 5b37 c0b8 918a 7e38
00000110: 85d6 24bb 6694 e9ba c44d ba39 2d21 8cba
00000120: e338 84bf 5418 803f efc4 55b9 e136 e339
00000130: d84c ca3b 3a1c 683b b180 a3bc 198b 21bd
00000140: a4de 253b 0829 4f3a 3d76 d73a a076 933b
00000150: 3b1d 50bf efdf 4a3f b890 76b9 2093 e9b7
00000160: 5ac6 75b8 bb1e a5ba cdbd df39 cfe5 28bb
00000170: ea5e 77bd c35b 84bd deb2 0fb9 c318 1c3a
00000180: 7f2c 0fb9 01b6 3cba a324 c238 29f4 aa39
00000190: 35fb db38 8c17 60b8 6b66 303a 1b0e e138
000001a0: e825 4b3b 75d0 623b 8231 17bb 9ae2 083b
000001b0: 58c6 7abb bd67 cfb9 669f b139 b0c1 c9b8
000001c0: f00a 3c39 a864 173a 635c d83a 5e98 d8ba
000001d0: d7b0 403a 6d98 2abb 5593 40ba 30c7 ebb9
000001e0: 28a0 593b 66fd 0f3b 04b7 473a 7a57 78ba
000001f0: 966b 6db9 4778 183a 7cff 49b7 8f18 8db7
00000200: 139f cdbb e38b 92bc 4b43 9338 fb4b a739
00000210: 6473 a03a be40 4fba f9e8 d1bb 4cd1 a6bc
00000220: 7ac2 9db8 2497 96b9 5392 773b 6844 29bc
00000230: 3872 eb39 0778 8dba 4ef4 2c3a c1ed 3c3a
00000240: bde5 8bbb 055d 6eba fc1f 7bbd 46c4 88bd
00000250: c789 8d3a 3e62 94ba 06f7 043b 5db2 e13a
00000260: 38df 85bc af7a 58bc 75f7 29b9 164e 133a
00000270: b685 cd3a 0929 073b fa8b d837 35cd a438
00000280: 6e96 3539 334f c5b9 b7e4 903a 020a 0a3b
00000290: 80d1 953b e209 de3b 5fca 2dba 6c21 11bb
000002a0: c18a 53bc 750a 5abc 709a 3eb8 026b ccb9
000002b0: 7fcb 9338 d8fc 1639 f63c e2ba 1536 27bb
000002c0: fa3d af39 7f55 cf38 d5eb 6139 574a 0a3a
000002d0: 2f45 63bf 8758 613f aae0 61ba 1a39 19b9
000002e0: 3b2c 5bba 7acc 043a 70b5 d03a 9cc4 683a
000002f0: 3d97 0e3f e200 ac3c 117c e2ba 6b84 24ba
00000300: e3bc b53a 770e c5ba 86f0 2639 12df 7eb9
00000310: 0a22 253a 362d bcb9 5481 873b 6c05 8d3b
00000320: 73da 5bba 757a 27bb b64d 543b 7398 87b9
00000330: a58d b839 7743 9c37 979c c4ba 8d08 103a
00000340: dfce 0639 bea6 8839 bb13 233a 21fa b3b9
00000350: 9a35 6fb9 c734 d7b9 0d0f 7eba 934d cfba
00000360: 622f c3b9 8b78 49ba 2bd7 75bb e87e 83bb
00000370: f9eb 043a 222e 84ba 998d 1cba 8e03 3e39
00000380: eb2e 8dbd 945e 98bd 786b 9db9 eb6c 64ba
00000390: 1b03 1abb 83d4 6bba f24d c9b8 4ea6 513a
000003a0: 843e 78bd d468 7abd 458b edb9 2a55 7339
000003b0: 1e37 34bb 0acb 243a 5640 a5b9 7416 26bb
000003c0: 3203 98b8 0f20 8bba b76b 7e3b e5dd 863a
000003d0: 1146 20ba e84a 54b8 343d 01ba 676a 7639
000003e0: 0162 3eba 3c45 31b9 2e36 c839 d6ea 7b39
000003f0: accb 8f3b ef13 873b 51e3 83b7 921b 3eb9

weight f4 [128, 512]
-0.00025881914 0.00024936267 0.000636638 0.0003270425 0.0010821476 0.00029464436 0.0006847625 0.0005642739
-0.0008018362 0.0008453206 -0.0008762697 0.0006181999 0.00036759968 -0.00091863575 -0.0002200573 0.0002899986
-1.2723088e-05 0.0006427932 0.0013411413 -0.000693555 -0.0002751338 0.0005710283 0.00068060297 0.00057553715
0.00023434468 -0.0008455263 -0.00021087623 0.0002892959 -0.00022809046 0.000414822 -0.0003684544 0.00039323134
0.000547993 0.0009450144 0.00026068056 -0.00039046785 -0.0004716994 0.00012891635 -0.0003092593 -0.00023004155
0.00041595724 -0.00022072734 -0.0010668687 -0.00029958514 -0.0009609015 0.00026061496 0.0008166307 -0.00024277525
0.00013334388 0.0005454441 0.00038658152 -0.00055610377 0.000765215 -0.00037539913 -0.0005869722 0.0009443907
-0.00012801542 0.00028701956 -0.00055566936 0.00039166046 -0.0009169414 0.00093882484 -0.0005664487 0.00033137616
-0.00036519012 -0.000254833 0.00043131015 -0.0006276511 -0.0008521059 -0.00048636534 -0.0009552339 -0.0005608122
-0.00027382377 -0.0008888934 0.00032985889 -0.00024162639 0.0003363805 0.00038586505 -0.0007949412 -4.9401355e-05
0.00011038395 -0.00037966622 0.00035315249 0.0005418548 -0.0005049098 -0.0002943986 -0.0009473026 -0.00033417324
0.00012955429 0.00029175982 -0.0006087205 -0.00039461823 -0.0003907992 0.00038706366 0.00021465821 0.00029823038
-0.00038584578 -0.00094357674 -0.00021395234 0.0004001685 0.0005660524 0.00094330433 0.00038593265 0.00030062252
-0.00031521366 0.0005666474 0.0014360602 0.00028424143 0.00028705792 0.0005429816 0.00029729656 -0.0002169185
0.0003423469 0.0005628161 0.00037519087 0.00079545466 -0.0010273525 -0.0003852657 -0.0005557653 -0.00033059507
0.0006338676 -0.00035252632 -0.00056159927 0.00077243213 -0.0002050089 0.0008764872 -0.00035346716 0.00029459439
0.0005624648 0.0003296418 -0.00025317515 0.00033425863 0.00025534237 0.0002965974 0.00038590186 0.00032857357
0.00037943432 0.0002312417 0.00034955377 0.0005608442 -0.0009470899 -0.0003840684 -0.00056686223 0.00030787225
0.00037754042 0.00094460504 -0.0010462984 0.00030547564 0.00037806865 0.00033317745 -0.0009468001 0.0003994808
-0.00036695754 0.0002170198 0.00084923406 -0.0005638029 -0.0005599116 -5.6703902e-05 -0.0006186475 3.573592e-05
0.00039048164 -0.00023754509 -0.00094523636 0.00028560194 -8.6084605e-05 -0.00060549454 0.00033851856 0.00093145703
0.0004156663 -0.00042239713 -2.7671005e-05 -0.0005492581 0.00033201784 -0.00056464784 0.00038008898 0.00028032076
0.00038655484 -0.0002969812 -7.68448e-05 -0.0006334172 -0.0005740219 -0.0007198685 -0.00057079486 0.000239798
-0.00056739233 -4.8464168e-05 -0.00012167497 -9.098418e-05 0.00055971695 -0.00024249272 -0.00010440286 0.0003173258
0.0009402447 -0.0009438018 0.00085144467 -0.0005702507 0.0014331534 -0.00018779565 0.00084858557 0.0005701289
0.00021518877 -0.00056836253 -0.000297269 -0.0002285171 -0.0008717199 -0.00028575677 -0.00056504953 -0.0005926473
0.00056721305 -0.0014495542 0.00037451624 -0.00039470836 -0.00017844349 0.0005558291 0.00028940119 -0.00086180755
0.0005766745 -0.0006336534 -0.00027511426 -0.00031882754 -0.00043687096 -0.0002977441 -0.00070264074 9.599027e-05
0.0009368873 0.00056930544 0.000843876 0.0009438062 0.00038327678 0.0010809588 -0.00088184234 -0.00038773735
0.00094403356 -0.00050967623 -0.00029107142 0.000563522 0.00036996475 0.0005737052 0.0003307281 -0.0005802962
0.00039198206 0.0009230534 0.0003368014 -0.0005624511 -0.00023228045 -0.00030765604 -0.0005678727 0.00056369713
-0.0003837505 0.00078501686 -0.0006955509 0.0008431522 0.0009426265 0.00028071055 -0.00022774353 -0.00044512306
00000000: 1eb2 87b9 e4bc 8239 0ee4 263a e776 ab39
00000010: d9d6 8d3a 7f7a 9a39 a281 333a c8eb 133a
00000020: 5132 52ba 8198 5d3a 77b5 65ba b10e 223a
00000030: 65ba c039 9ad0 70ba 2fbf 66b9 f40a 9839
00000040: 3f75 55b7 1f81 283a 3cc9 af3a b0cf 35ba
00000050: d53f 90b9 0fb1 153a 7e6a 323a a5df 163a
00000060: 6cba 7539 4fa6 5dba a81e 5db9 a3ac 9739
00000070: 912b 6fb9 777c d939 1d2d c1b9 9e2a ce39
00000080: 30a7 0f3a d8ba 773a f4ab 8839 b5b7 ccb9
00000090: 6c4e f7b9 b82d 0739 1524 a2b9 4f37 71b9
000000a0: d614 da39 0b73 67b9 2cd6 8bba a311 9db9
000000b0: 02e5 7bba 26a3 8839 2913 563a 7c91 7eb9
000000c0: 3ad2 0b39 22fc 0e3a 18ae ca39 7ec7 11ba
000000d0: b698 483a 38d1 c4b9 0adf 19ba fd90 773a
000000e0: e13b 06b9 1d7b 9639 57aa 11ba c757 cd39
000000f0: e55e 70ba 781b 763a bb7d 14ba 8ebc ad39
00000100: fd76 bfb9 1b9b 85b9 7821 e239 f488 24ba
00000110: dc5f 5fba dafe feb9 a968 7aba 7803 13ba
00000120: 0190 8fb9 a004 69ba e9f0 ac39 175d 7db9
00000130: 3a5c b039 ee4d ca39 9a63 50ba 4d34 4fb8
00000140: ef7d e738 f00d c7b9 5327 b939 430b 0e3a
00000150: ec5b 04ba 8359 9ab9 6754 78ba f933 afb9
00000160: f7d8 0739 57f7 9839 8b92 1fba c3e4 ceb9
00000170: 2ee4 ccb9 ceee ca39 e015 6139 ce5b 9c39
00000180: 584b cab9 5d5a 77ba 6558 60b9 b5cd d139
00000190: 2263 143a 1548 773a 0157 ca39 df9c 9d39
000001a0: 4343 a5b9 108b 143a 2f3a bc3a 3d06 9539
000001b0: 4380 9639 e156 0e3a 78de 9b39 9e74 63b9
000001c0: 067d b339 f389 133a 44b5 c439 0f86 503a
000001d0: 3ba8 86ba 7dfd c9b9 c7b0 11ba b853 adb9
000001e0: 222a 263a 48d3 b8b9 4a38 13ba 0b7d 4a3a
000001f0: a8f7 56b9 0fc4 653a 8f51 b9b9 ca73 9a39
00000200: 6072 133a c6d3 ac39 98bc 84b9 6f3f af39
00000210: 79df 8539 a180 9b39 df52 ca39 6644 ac39
00000220: d0ee c639 7979 7239 5044 b739 9e05 133a
00000230: 2146 78ba ca5c c9b9 7b99 14ba ea69 a139
00000240: 9ef0 c539 5f9f 773a f323 89ba 3f28 a039
00000250: 8437 c639 52ae ae39 ae32 78ba 6871 d139
00000260: 3564 c0b9 cf8f 6339 229f 5e3a 2ccc 13ba
00000270: 08c7 12ba 5ad5 6db8 bb2c 22ba 27e3 1538
00000280: 8fb9 cc39 8615 79b9 bdc9 77ba d8bc 9539
00000290: 5288 b4b8 0dba 1eba 317b b139 062d 743a
000002a0: c9ed d939 2f75 ddb9 081f e8b7 16fc 0fba
000002b0: ae12 ae39 e004 14ba ae46 c739 04f8 9239
000002c0: 83aa ca39 24b4 9bb9 bd27 a1b8 e90b 26ba
000002d0: f579 16ba 8fb5 3cba 65a1 15ba 4972 7b39
000002e0: 0ebd 14ba 0146 4bb8 c12b ffb8 c2ce beb8
000002f0: f8b9 123a a545 7eb9 dcf2 dab8 bf5e a639
00000300: c17a 763a 7769 77ba 7c33 5f3a e07c 15ba
00000310: a6d8 bb3a 03eb 44b9 9d73 5e3a b474 153a
00000320: 4ca4 6139 2afe 14ba c5da 9bb9 189e 6fb9
00000330: 2284 64ba a0d1 95b9 d51f 14ba e35b 1bba
00000340: 06b1 143a f8fe bdba b85a c439 dcf0 ceb9
00000350: 8f1c 3bb9 0fb5 113a c5ba 9739 edea 61ba
00000360: f82b 173a c31b 26ba 363d 90b9 4f28 a7b9
00000370: d40b e5b9 891a 9cb9 6c31 38ba 624e c938
00000380: 7199 753a 713d 153a 8f37 5d3a c369 773a
00000390: 8af2 c839 f5ae 8d3a 702b 67ba 3a49 cbb9
000003a0: 0579 773a cb9b 05ba f29a 98b9 52b9 133a
000003b0: d4f7 c139 b464 163a 9365 ad39 051f 18ba
000003c0: f182 cd39 11f9 713a b894 b039 7471 13ba
000003d0: 4f90 73b9 e54c a1b9 4bdd 14ba 13c5 133a
000003e0: 1f32 c9b9 97c9 4d3a a155 36ba fc06 5d3a
000003f0: 981a 773a 552c 9339 70ce 6eb9 685f e9b9

weight f4 [8, 128]
0.00022326817 -0.18147597 0.00011352505 0.000786527 6.677287e-05 0.0002503942 0.06020963 0.00018416341
-0.23420644 3.4840992e-05 -2.9156907e-05 -0.0002734591 8.406272e-05 -8.872562e-05 -0.06897163 -0.033758573
0.00014598678 -0.00029032896 0.10682791 -2.3862642e-05 -0.00013351838 -1.5510914e-05 -4.516078e-05 -0.09197203
0.00029328503 0.00029004784 -0.00020914129 0.000332467 0.00041670623 -0.00050868164 -0.0003550626 -0.014611951
0.00033164123 0.0005957337 -7.331406e-05 -1.4147999e-05 0.00035324896 0.00033885485 -0.00021701715 0.15307516
1.35486725e-05 0.00037234108 -0.0043727676 -0.00035103524 0.10131874 -0.0004732651 -0.00026310995 0.0041590435
-0.2504731 -0.01218718 0.00068128743 0.00016597919 -0.052198976 6.4345215e-05 -4.121327e-05 -0.08110254
0.059094504 -0.00019856196 -0.00025764428 0.16254908 6.3656415e-05 -0.0001003243 0.00022262838 -0.00022276022
0.000402337 -9.441811e-05 0.00049657054 -0.00010329003 0.000106910746 0.035818808 -0.0420247 -0.077215366
4.9576916e-05 -6.537462e-05 -0.00035598569 0.06197344 0.00015386254 0.00012389218 -0.00023238327 3.0699724e-05
-0.0002028264 -3.4196415e-05 -0.016648434 0.005114111 0.0010704873 0.0011353272 -0.00066772744 -0.00018496028
0.00018164844 -1.6157348e-05 0.001085078 0.00020856585 -2.1822474e-05 0.0002896579 0.17518523 0.04796994
-3.2416374e-05 -4.4043834e-05 0.000377244 -0.00050415035 -0.0003078497 0.00094329054 -7.817677e-05 0.000116236195
-2.8619934e-05 -2.8992637e-05 0.00046308452 0.029794203 0.00073654007 -5.1288927e-05 -0.0001074411 -0.010204607
0.00037784097 0.0067331833 -0.028010447 0.0014867419 -0.0002749346 0.00023514937 6.802109e-05 -0.00016770289
-0.000113484304 0.0004885198 0.09112816 -4.352102e-05 0.00017928501 0.00038577148 -0.00049117446 0.0020185523
0.0002885017 -0.010438012 0.0003251395 0.0007999515 -0.00011930439 -0.00037097698 2.5813855e-05 2.5901172e-05
0.8440726 -0.00023267484 5.427563e-05 0.00010402831 0.00024836042 -0.00022290641 -0.0010761018 -0.048789788
0.0007706219 0.0005846372 -1.0400596 -9.226974e-05 -0.00062322745 0.0002302099 0.0006094848 -0.00064100226
0.00058451993 -0.0003519254 0.00025820738 -4.7353496e-05 0.0007033817 0.00022084439 0.00096660445 4.530197e-05
-3.570949e-05 -8.43757e-05 -9.754922e-05 -5.543709e-05 -0.00013069069 -0.00081350637 -0.0011728947 -1.6999348
5.7092857e-05 8.344326e-05 4.0010316e-05 -7.6486205e-05 0.000112069945 0.0013240018 2.6772648e-07 0.0011177359
0.8019872 0.0007662781 -8.457039e-05 -3.856636e-05 -0.04030685 0.0007924948 0.00022246713 0.0042108675
-0.0007847502 -0.00039504026 8.3566716e-05 -1.5365875 0.00016948117 0.00015838665 -0.00086004543 0.00057974795
0.00022654835 0.00012504608 -0.00016691104 -0.0009346962 2.1126583e-05 -0.00050128106 0.000117099415 -0.036518414
-0.0003833357 -0.0007869042 -0.00023306557 0.003793175 -0.0007724344 -0.0005419512 0.0002522848 4.199134e-05
-2.8783406e-05 1.7622366e-05 0.0016359498 0.00091396034 0.0015757015 -0.0005549091 -4.8243102e-05 -0.0003663127
0.00010663904 0.00031971972 0.0008038083 -3.028945e-05 -2.3611192e-05 0.0007939893 -2.2095542 0.006306915
0.00011724974 -0.000105527935 0.00015956745 -0.00082248566 0.000294209 -0.00091723725 -0.00072073896 0.00021873698
-0.0006442512 0.00024779842 0.00093890267 0.008538281 -2.9184437e-05 0.00078610907 0.00043338552 -0.0015198083
-0.00039612158 0.00019651248 -0.0008920343 0.0025993143 9.59683e-05 -0.0007864743 -0.0003968892 -0.0007135726
0.000636436 -0.000109312656 0.0014890695 0.00012794432 -0.00093228125 0.00078162295 0.0002805716 9.1979365e-07
00000000: 181d 6a39 d6d4 39be 4c14 ee38 ef2e 4e3a
00000010: 6908 8c38 5747 8339 5f9e 763d fd1b 4139
00000020: d0d3 6fbe 3b22 1238 fb95 f4b7 0f5f 8fb9
00000030: d44a b038 3412 bab8 ff40 8dbd 6e46 0abd
00000040: 0714 1939 4b37 98b9 97c8 da3d a22c c8b7
00000050: 1101 0cb9 6f1d 82b7 056b 3db8 d55b bcbd
00000060: 0dc4 9939 9011 9839 f04c 5bb9 f74e ae39
00000070: 5d79 da39 0c59 05ba b227 bab9 f766 6fbc
00000080: 22e0 ad39 032b 1c3a 30c0 99b8 315d 6db7
00000090: 4634 b939 54a8 b139 198f 63b9 bcbf 1c3e
000000a0: 1b4f 6337 c636 c339 6f49 8fbb 270b b8b9
000000b0: 3380 cf3d 9120 f8b9 05f2 89b9 9648 883b
000000c0: 033e 80be bdac 47bc 6d98 323a b30a 2e39
000000d0: 98ce 55bd 13f1 8638 69dc 2cb8 1719 a6bd
000000e0: 140d 723d 1235 50b9 6e14 87b9 4473 263e
000000f0: 477f 8538 3365 d2b8 5a71 6939 be94 69b9
00000100: c2f0 d239 5602 c6b8 492c 023a 6a9d d8b8
00000110: 4535 e038 beb6 123d 1822 2cbd 1723 9ebd
00000120: cff0 4f38 bb19 89b8 97a3 bab9 ddd7 7d3d
00000130: 2956 2139 0ee9 0139 e9ab 73b9 94c3 0038
00000140: ccad 54b9 1f6e 0fb8 4c62 88bc 4694 a73b
00000150: 984f 8c3a 42cf 943a 6e0a 2fba e6f1 41b9
00000160: e278 3e39 a489 87b7 2d39 8e3a 78b2 5a39
00000170: 680f b7b7 3add 9739 c263 333e 217c 443d
00000180: d1f6 07b8 b5bb 38b8 d5c8 c539 f528 04ba
00000190: e366 a1b9 2847 773a d5f2 a3b8 d5c3 f338
000001a0: d714 f0b7 3735 f3b7 27ca f239 f912 f43c
000001b0: 5e14 413a 111f 57b8 0052 e1b8 3931 27bc
000001c0: f518 c639 09a2 dc3b 2a76 e5bc c8de c23a
000001d0: 1925 90b9 6e92 7639 8ba6 8e38 67d9 2fb9
000001e0: 6cfe edb8 0210 003a 67a1 ba3d 578a 36b8
000001f0: 74fe 3b39 5f41 ca39 29c2 00ba b049 043b
00000200: 0b42 9739 3204 2bbc 7c77 aa39 d6b3 513a
00000210: 0f33 fab8 b07f c2b9 d58a d837 5846 d937
00000220: 2415 583f 2dfa 73b9 04a6 6338 c629 da38
00000230: 5f36 8239 fcbb 69b9 fc0b 8dba cdd7 47bd
00000240: 8f03 4a3a 5742 193a ac20 85bf f180 c1b8
00000250: 1660 23ba 8064 7139 d5c5 1f3a ef08 28ba
00000260: 783a 193a a182 b8b9 0260 8739 6e9d 46b8
00000270: 2663 383a 7792 6739 ba63 7d3a 9f02 3e38
00000280: c6c6 15b8 dcf2 b0b8 5793 ccb8 1f85 68b8
00000290: 040a 09b9 7d41 55ba d1bb 99ba 7797 d9bf
000002a0: fd76 6f38 42fe ae38 c0d0 2738 3867 a0b8
000002b0: 1807 eb38 218a ad3a 0cbc 8f34 fe80 923a
000002c0: 084f 4d3f 0ee0 483a 625b b1b8 50c2 21b8
000002d0: cc18 25bd 6dbf 4f3a 1146 6939 51fb 893b
000002e0: b2b7 4dba 681d cfb9 8a40 af38 e6ae c4bf
000002f0: c1b6 3139 9814 2639 ac74 61ba 3afa 173a
00000300: 9c8d 6d39 cd1e 0339 d704 2fb9 6606 75ba
00000310: fe38 b137 6768 03ba 4593 f538 5594 15bd
00000320: 72fa c8b9 3f48 4eba 1063 74b9 eb96 783b
00000330: 327d 4aba bb11 0eba 1845 8439 dc1f 3038
00000340: e573 f1b7 bed3 9337 5e6d d63a d796 6f3a
00000350: c587 ce3a 5277 11ba a358 4ab8 a90d c0b9
00000360: 66a3 df38 0ea0 a739 a9b6 523a 1916 feb7
00000370: a610 c6b7 b823 503a 5669 0dc0 3daa ce3b
00000380: fae3 f538 e14e ddb8 9051 2739 149c 57ba
00000390: 1040 9a39 c072 70ba f9ef 3cba c35c 6539
000003a0: f7e2 28ba f1ea 8139 b120 763a 25e4 0b3c
000003b0: 1ad1 f4b7 e312 4e3a 0538 e339 4e34 c7ba
000003c0: 8aae cfb9 eb0e 4e39 69d7 69ba 4259 2a3b
000003d0: 9742 c938 662b 4eba 9115 d0b9 0c0f 3bba
000003e0: 7fd6 263a c93e e5b8 e22c c33a cb28 0639
000003f0: 5664 74ba d4e5 4c3a af19 9339 bde7 7635

bias f4 [8]
0.02214506 1.3591858 1.3128692 -0.10327719 1.8993073 0.022789244 -0.13005243 -0.08355899
00000000: 8f69 b53c cdf9 ad3f 190c a83f fe82 d3bd
00000010: 801c f33f 82b0 ba3c 772c 05be fa20 abbd

weight f4 [128, 10]
-0.24046712 -0.16098838 -0.0017039408 -0.07911837 0.10387481 -0.00084961695 0.03336155 0.016461706
-2.1784394e-05 -0.00038699433 -0.2622134 -0.13199393 5.1293442e-05 -0.045657475 0.07363519 -0.00039370096
0.0052979486 0.015617386 -0.0001991656 -0.00046818133 -0.09566064 -0.013171234 0.0016340296 0.00035826484
0.016625686 5.081421e-05 0.01087771 0.0090795485 -0.00038698345 0.0005679343 -0.20812917 -0.120177746
0.0018515186 -0.03799098 0.063185446 -0.0020786074 0.009607053 0.005658463 -0.00056482304 0.0018695825
-0.19205758 -0.12851849 0.005275165 -0.030176964 0.03915336 -0.00071057724 0.0039987923 0.01295986
-0.00028247747 0.00033116687 -0.15170841 -0.059815567 0.0014465508 0.0035517018 -0.0022924875 -0.0009442869
-0.0008582492 0.0044645746 -0.00056482194 0.0008496171 -0.15266389 -0.07345527 0.0026036245 -0.0009558687
0.023030778 -0.0009442864 0.0070529017 0.009850553 0.00056482264 0.00056482456 -0.27858526 -0.16829571
-0.00030340443 -0.047509763 0.039981704 -0.0006355127 0.009999936 0.012662717 -0.00036242744 9.882161e-05
-0.1440157 -0.09757752 0.0012507893 0.00470762 -0.00021437307 -0.00056482374 0.0055807475 0.0050345194
0.00052781304 0.00054617395 -0.093540184 -0.055473693 0.00031810245 -0.0034340064 0.00691367 -9.851479e-05
0.0018904544 0.0012430777 0.00046818174 0.0008496173 0.017086 -0.15570715 -0.034371026 -1.5035524
-0.5322664 0.001081135 1.2937533 0.27797794 0.00038699078 -0.00084961636 -0.0005648234 -9.882161e-05
-0.00084961636 -0.00084961666 0.00023923219 0.00038698572 0.00029167323 -0.00071057794 -0.000579956 -0.0008778493
-0.23097199 -0.13984361 -0.0061054663 -0.07046242 0.11089428 0.00072391005 0.024572646 0.016384047
-9.851491e-05 -0.00029166928 -0.16674526 -0.122282326 0.003964574 -0.003837372 0.031229474 -0.00038699148
0.004307815 0.01633408 -0.0007740964 5.0814175e-05 -0.1196265 -0.1622719 -0.07066544 -0.9951414
0.16979016 -0.0003869871 0.37908408 -0.0078036557 -0.00019916648 -0.00029166404 -0.120467655 -0.037291616
-0.00046766837 0.0055732843 0.0041844887 -0.00029166468 0.005416761 0.0014559332 0.00038699224 -0.00032254367
-0.16496302 -0.06334308 -0.0016045764 0.0035472333 0.0003545414 -0.0008496177 -0.0017824905 0.0011434599
0.00071057753 -0.0022132595 -0.1040198 -0.021436559 0.00076079456 0.006775177 -4.4955657e-05 0.0003225432
0.0038773564 0.0009953433 -0.0010691164 0.00056482333 -0.11403641 -0.039283637 0.0011002591 -0.004001133
0.019754322 -0.00094428624 0.011751422 0.006012111 0.00084961706 -0.0008496172 -0.089733444 -0.019597549
-0.0007622868 0.00606659 0.012716068 0.00038698956 0.012017539 0.002401169 0.0009442866 0.00056482054
0.028780414 -0.15377259 -0.07339573 -1.4400334 0.43053782 -0.00084961625 0.576461 -0.18495895
0.00039370055 -0.0010468201 -0.14167158 -0.06426005 0.001457526 0.002253427 0.008538962 0.00054617325
0.0036710156 0.0018045543 -0.00029166846 -0.00029166363 -0.14173314 -0.059642933 -0.00045996162 0.00012788858
-0.0024890155 5.7773053e-05 0.0023042315 0.0008531854 0.00019916578 -0.00038699177 -0.12442665 -0.047656722
0.0050674025 0.0042599854 0.0033834756 0.0005648199 0.0045172526 0.0074846866 0.00056793424 0.0005648198
-0.21867615 -0.13405208 0.0023328837 -0.012268721 0.035095774 0.00028247666 -0.00046852257 0.011182815
-0.00038698118 -0.0002916683 -0.26007244 -0.1760141 0.001856389 -0.09902763 0.065172575 0.0007105772
00000000: 033d 76be 23da 24be c456 dfba d008 a2bd
00000010: 51bc d43d d4b8 5eba 1fa6 083d b3da 863c
00000020: a1bd b6b7 80e5 cab9 d640 86be 6b29 07be
00000030: ea23 5738 5503 3bbd 0cce 963d a669 ceb9
00000040: 6a9a ad3b 11e0 7f3c 1cd7 50b9 3c76 f5b9
00000050: bae9 c3bd 29cc 57bc ef2c d63a 7ed5 bb39
00000060: 9732 883c 5821 5538 6c38 323c 63c2 143c
00000070: 0ae4 cab9 6de1 143a d01f 55be c01f f6bd
00000080: a8ae f23a 6e9c 1bbd 5f67 813d 3f39 08bb
00000090: e766 1d3c a16a b93b a210 14ba c70c f53a
000000a0: beaa 44be 5a9a 03be 4bdb ac3b ae35 f7bc
000000b0: 465f 203d 0846 3aba 4d08 833b 9855 543c
000000c0: 7c19 94b9 77a0 ad39 7359 1bbe 2b01 75bd
000000d0: 319a bd3a abc3 683b 8f3d 16bb 058a 77ba
000000e0: 21fc 60ba 914b 923b 8f10 14ba d7b8 5e3a
000000f0: ec53 1cbe b76f 96bd 92a1 2a3b 4393 7aba
00000100: 0bab bc3c fd89 77ba 071c e73b 3764 213c
00000110: 9b10 143a bc10 143a baa2 8ebe b655 2cbe
00000120: 4112 9fb9 9999 42bd dbc3 233d 8998 26ba
00000130: c6d6 233c 4977 4f3c 3004 beb9 733e cf38
00000140: da78 13be b9d6 c7bd 86f1 a33a 6142 9a3b
00000150: 55c9 60b9 ae10 14ba b4de b63b 9cf8 a43b
00000160: ef5c 0a3a 1d2d 0f3a ff91 bfbd 6238 63bd
00000170: fdc6 a639 110d 61bb 118c e23b ba99 ceb8
00000180: 20c9 f73a c4ee a23a 4a76 f539 dab8 5e3a
00000190: f0f7 8b3c b271 1fbe a2c8 0cbd 6874 c0bf
000001a0: 9c42 08bf dfb4 8d3a b599 a53f 2053 8e3e
000001b0: 06e5 ca39 cab8 5eba a810 14ba 733e cfb8
000001c0: cab8 5eba cfb8 5eba 67da 7a39 58e4 ca39
000001d0: b8eb 9839 1446 3aba 3008 18ba 781f 66ba
000001e0: ec83 6cbe 2a33 0fbe 5d10 c8bb 9a4e 90bd
000001f0: 8a1c e33d c8c4 3d3a 934c c93c d637 863c
00000200: ca99 ceb8 30eb 98b9 45bf 2abe 286f fabd
00000210: 42e9 813b 6b7c 7bbb f4d4 ff3c 1ee5 cab9
00000220: 9228 8d3b 0ccf 853c bbec 4aba 4e21 5538
00000230: bdfe f4bd 9b2a 26be 0bb9 90bd 96c1 7ebf
00000240: 79dd 2d3e 88e4 cab9 4f17 c23e cfb5 ffbb
00000250: 58d7 50b9 7cea 98b9 bfb7 f6bd 18bf 18bd
00000260: 6331 f5b9 19a0 b63b 091e 893b 92ea 98b9
00000270: 167f b13b 03d5 be3a 38e5 ca39 141b a9b9
00000280: 11ec 28be 04ba 81bd a650 d2ba b378 683b
00000290: bee1 b939 e1b8 5eba 75a2 e9ba 26e0 953a
000002a0: 0d46 3a3a 550c 11bb 5508 d5bd b99b afbc
000002b0: 0f70 473a 4e02 de3b c58e 3cb8 041b a939
000002c0: 3f1b 7e3b 2e76 823a 9821 8cba a710 143a
000002d0: ec8b e9bd e1e7 20bd 9236 903a f01b 83bb
000002e0: d1d3 a13c fa89 77ba 0989 403c 3e01 c53b
000002f0: d6b8 5e3a d8b8 5eba 2bc6 b7bd 0a8b a0bc
00000300: 34d4 47ba 3fca c63b 0e57 503c dce4 ca39
00000310: 36e5 443c ee5c 1d3b 008a 773a 7710 143a
00000320: e7c4 eb3c 9076 1dbe 8050 96bd 0453 b8bf
00000330: 746f dc3e c8b8 5eba f392 133f e165 3dbe
00000340: 9869 ce39 7435 89ba 5b12 11be c69a 83bd
00000350: 750a bf3a 3bae 133b 01e7 0b3c 112d 0f3a
00000360: 6c95 703b cb86 ec3a 14eb 98b9 6eea 98b9
00000370: 7e22 11be 264c 74bd 0127 f1b9 d419 0639
00000380: c01e 23bb 5851 7238 9702 173b 4ea8 5f3a
00000390: 28d7 5039 28e5 cab9 66d3 febd b233 43bd
000003a0: 740c a63b 5997 8b3b 4dbd 5d3b 6c10 143a
000003b0: 7605 943b 1a42 f53b 6ce1 143a 6a10 143a
000003c0: a4ec 5fbe f344 09be 4be3 183b bf02 49bc
000003d0: 96c0 0f3d 6019 9439 09a4 f5b9 2038 373c
000003e0: bce3 cab9 0eeb 98b9 3728 85be 0a3d 34be
000003f0: 1452 f33a 00cf cabd 3379 853d 0746 3a3a

bias f4 [128]
2.121577 2.2463007 2.0743527 2.1391487 1.995336 2.3515215 2.2785084 2.2115693
2.2460568 2.2885113 0.35678372 -0.01744239 2.1409404 2.192824 1.1489694 2.4171147
2.3607523 2.3020685 2.122442 2.2622402 0.3779556 2.3006382 2.179919 2.3127332
2.1273491 2.1516352 -0.7216059 2.1253521 -1.4648334 2.391887 1.9627534 2.1745071
2.1006804 2.347218 2.3009098 2.3983936 2.0714896 -0.32895666 2.2190714 1.3463221
2.2459235 -0.16986106 2.2787251 2.2642803 1.2605792 2.2375832 2.1879776 -0.00874051
2.054585 -0.2777919 2.3830965 2.2214212 2.2432096 2.5022092 2.1870885 2.062933
2.20807 2.4535606 2.142765 2.2876348 -0.18810986 -0.69927603 2.2566295 -0.50323635
-0.9823346 2.3149815 2.3919792 2.505805 2.1443315 2.346525 -0.065344974 2.3837588
2.310804 2.3348057 2.2273815 1.0403128 2.2211874 2.1621723 -0.0526363 -0.4170512
2.32823 2.4204078 2.2738552 1.2369099 -0.9803571 2.2467732 2.367863 2.238505
0.9465485 2.2427278 2.291994 -3.587649 2.3431685 2.2958384 -2.02106 2.403988
1.1689148 -0.7508571 2.1216702 -0.2133698 0.99287105 2.30859 2.4989178 2.2834287
-0.24225013 -0.016149038 2.2186213 -0.479793 -0.12589777 -0.22258495 2.150675 1.4657037
2.297168 2.3669248 2.2773204 2.4057636 2.1176376 -0.31322724 2.1911664 2.2955751
2.1855247 -0.08658281 -2.1357381 2.4256213 2.4192379 2.1017878 2.1303968 2.2912755
00000000: ebc7 0740 64c3 0f40 32c2 0440 d0e7 0840
00000010: 2c67 ff3f 547f 1640 15d3 1140 5a8a 0d40
00000020: 65bf 0f40 f876 1240 5bac b63e 58e3 8ebc
00000030: 2b05 0940 3a57 0c40 6e11 933f 02b2 1a40
00000040: 9116 1740 1755 1340 17d6 0740 8bc8 1040
00000050: 6583 c13e a83d 1340 cb83 0b40 d203 1440
00000060: 7d26 0840 64b4 0940 2abb 38bf c505 0840
00000070: a97f bbbf ad14 1940 813b fb3f 202b 0b40
00000080: 8c71 0640 d238 1640 1b42 1340 487f 1940
00000090: 4993 0440 026d a8be 4405 0e40 4854 ac3f
000000a0: 36bd 0f40 0ff0 2dbe a2d6 1140 f8e9 1040
000000b0: a95a a13f 9034 0f40 d307 0c40 5b34 0fbc
000000c0: 527e 0340 bd3a 8ebe a784 1840 c42b 0e40
000000d0: bf90 0f40 3224 2040 42f9 0b40 1807 0440
000000e0: 0551 0d40 2307 1d40 1023 0940 9c68 1240
000000f0: df9f 40be c103 33bf 9e6c 1040 19d4 00bf
00000100: 487a 7bbf a828 1440 3016 1940 1c5f 2040
00000110: ba3c 0940 772d 1640 96d3 85bd 818f 1840
00000120: 36e4 1340 756d 1540 6b8d 0e40 f828 853f
00000130: ef27 0e40 0861 0a40 2999 57bd bc87 d5be
00000140: b801 1540 f6e7 1a40 d886 1140 1053 9e3f
00000150: aff8 7abf 22cb 0f40 118b 1740 aa43 0f40
00000160: 0151 723f da88 0f40 08b0 1240 0b9c 65c0
00000170: 79f6 1540 04ef 1240 0c59 01c0 f0da 1940
00000180: 009f 953f 2c38 40bf 72c9 0740 9d7d 5abe
00000190: cc2c 7e3f f0bf 1340 45ee 1f40 b223 1240
000001a0: 6b10 78be fd4a 84bc e4fd 0d40 6ea7 f5be
000001b0: 58eb 00be 4fed 63be a9a4 0940 2e9c bb3f
000001c0: cd04 1340 b27b 1740 9ebf 1140 08f8 1940
000001d0: 6087 0740 525f a0be 123c 0c40 b4ea 1240
000001e0: a3df 0b40 5452 b1bd efaf 08c0 613d 1b40
000001f0: cbd4 1a40 b183 0640 6c58 0840 42a4 1240

weight f4 [1, 128]
-0.3015422 -0.28542534 -0.1833472 -0.26033413 -0.21571319 -0.14717878 -0.20584834 -0.3021379
-0.16774182 -0.17284879 -1.9868093 0.00019916642 -0.306277 -0.21602772 -0.9281817 -0.17530039
-0.17377542 -0.15162261 -0.19019674 -0.17935874 -1.4708515 -0.16801272 -0.19366774 -0.1821159
-0.24379183 -0.29881445 -0.0007922036 -0.3165187 0.70790285 -0.15577218 -0.14157453 -0.2863063
-0.22018825 -0.16650875 -0.17007525 -0.16584913 -0.2901076 -0.0008496166 -0.1409304 -0.71104765
-0.18465148 1.6042634 -0.4792207 -0.18422015 -0.7476534 -0.15432265 -0.14451927 -0.0002152858
-0.3155888 -0.00038698147 -0.17634256 -0.14229776 -0.17291984 -0.16027397 -0.24130407 -0.27142572
-0.13675454 -0.2218867 -0.29699433 -0.16948502 -0.0009442861 -0.00038699323 -0.4884232 -0.00061343296
-3.454852e-05 -0.19345042 -0.504086 -0.178191 -0.15836453 -0.46571404 3.454856e-05 -0.48558986
-0.46749675 -0.17390086 -0.1821055 1.5572186 -0.28123537 -0.2678228 0.00038698496 0.0003937008
-0.14452097 -0.18072373 -0.15939327 -0.69392085 -0.0006848804 -0.18026134 -0.47374505 -0.19174351
0.8882666 -0.16308561 -0.17233683 0.91627264 -0.1551545 -0.16536887 0.4681359 -0.20858677
-0.7252709 -0.00026357808 -0.2599831 -0.0008778486 1.1420285 -0.17935742 -0.15729752 -0.16530727
-0.0005679348 -0.0005648257 -0.16023158 0.00021633586 -0.0004951846 -0.0005648277 -0.24987523 -0.46478704
-0.16928658 -0.18180606 -0.1915621 -0.1949457 -0.2877396 0.0006848802 -0.16815186 -0.19950086
-0.16208802 0.0005648219 0.7529396 -0.15454961 -0.16156363 -0.17617266 -0.2700429 -0.17110074
00000000: bd63 9abe 4523 92be 5ebf 3bbe 844a 85be
00000010: ebe3 5cbe 09b6 16be e8c9 52be d2b1 9abe
00000020: 83c4 2bbe 46ff 30be c44f febf 54d7 5039
00000030: 57d0 9cbe 5f36 5dbe 519d 6dbf f281 33be
00000040: 2ff2 31be f542 1bbe efc2 42be d1a9 37be
00000050: dd44 bcbf 870b 2cbe d650 46be 977c 3abe
00000060: 91a4 79be 35fe 98be e2ab 4fba bd0e a2be
00000070: 1f39 353f be82 1fbe eaf8 10be bd96 92be
00000080: 0779 61be 4581 2abe 3528 2ebe 5bd4 29be
00000090: fc88 94be ceb8 5eba 0f50 10be 3807 36bf
000000a0: 4715 3dbe 8158 cd3f 6a5c f5be 35a4 3cbe
000000b0: 3766 3fbf c206 1ebe dcfc 13be 58be 61b9
000000c0: db94 a1be c6e3 cab9 2593 34be 81b6 11be
000000d0: e611 31be dc1e 24be 6a18 77be 50f8 8abe
000000e0: 6209 0cbe 4436 63be a40f 98be 7b8d 2dbe
000000f0: f889 77ba 5ae5 cab9 9b12 fabe cace 20ba
00000100: 31e8 10b8 de17 46be c80b 01bf b477 36be
00000110: 502a 22be 1272 eebe 3ce8 1038 3c9f f8be
00000120: bc5b efbe 1113 32be dd79 3abe f052 c73f
00000130: 15fe 8fbe 1220 89be 3ee4 ca39 a069 ce39
00000140: 4efd 13be a40f 39be fd37 23be cca4 31bf
00000150: 8c89 33ba 6e96 38be b68e f2be 6958 44be
00000160: 7165 633f eaff 26be 1179 30be d890 6a3f
00000170: d2e0 1ebe 7556 29be 82af ef3e c597 55be
00000180: 5bab 39bf da30 8ab9 811c 85be 6c1f 66ba
00000190: fd2d 923f 79a9 37be 9a12 21be 4f46 29be
000001a0: 76e1 14ba d010 14ba bf13 24be 37d8 6239
000001b0: 47cf 01ba f210 14ba 4bdf 7fbe 91f8 edbe
000001c0: 7659 2dbe 5e2b 3abe db28 44be d89f 47be
000001d0: 9b52 93be 8889 333a 0030 2cbe f449 4cbe
000001e0: 67fa 25be 8e10 143a a6c0 403f 4142 1ebe
000001f0: f070 25be 9b66 34be 1043 8abe 0835 2fbe
