data/ip/nn_e_fvC_svI_n1_tmi1_sd777.pt (torch, 280143 bytes, 7 tensors)

weight f4 [512, 2]
000000 cb 64 f1 39 df 64 15 ba c9 9f ab bc fc b9 cf bc
       0.000460422 -0.000569893 -0.020950215 -0.025357239
000010 d2 e3 4d b8 12 a7 1c 39 23 0f 02 b9 4e 9a f3 b7
       -4.9087983e-05 0.00014939558 -0.00012403405 -2.9039711e-05
000020 99 e5 62 b9 f2 c5 b7 b8 98 69 84 ba bc 77 41 b9
       -0.00021638571 -8.76299e-05 -0.001010227 -0.00018450519
000030 f7 9d c8 39 e1 b7 2e ba ff 11 09 ba 56 45 61 ba
       0.00038264666 -0.00066649733 -0.0005228817 -0.00085934007
000040 48 db 8b b9 24 a1 1f ba 22 db 96 ba 96 ee c7 b8
       -0.00026675523 -0.00060893805 -0.0011509398 -9.5334995e-05
000050 c4 4d f2 b9 e6 99 40 39 6a 36 b6 b9 a7 6b 14 b9
       -0.00046215777 0.00018367879 -0.00034754287 -0.00014154484
000060 a5 04 00 36 fb fa af b6 7e eb 74 ba 01 5e b7 ba
       1.907619e-06 -5.2446244e-06 -0.00093429524 -0.0013989807
000070 9d a1 27 ba 22 f1 5d b9 c2 bc fd b9 58 fd b2 39
       -0.00063946267 -0.00021166031 -0.00048396556 0.00034139561
000080 b3 79 11 3a 4a 9f a4 38 20 1b e2 b9 10 bc ba 39
       0.00055494456 7.849799e-05 -0.0004312629 0.00035616802
000090 1e b8 5a 3a b1 eb 30 ba 87 6e a3 39 e0 a9 84 37
       0.00083434756 -0.0006748988 0.00031172132 1.581473e-05
0000a0 c1 df d7 b8 38 60 fb 39 57 b1 c7 b8 6d c1 04 b9
       -0.00010293676 0.0004794614 -9.5220916e-05 -0.00012660558
0000b0 62 99 40 3b 48 8f 38 bc bf e5 83 b9 65 03 49 39
       0.0029388298 -0.01126463 -0.0002515744 0.00019170118
0000c0 27 51 59 ba c2 e9 1d 3a e3 79 5b 39 2f f3 26 b9
       -0.00082899857 0.00060239073 0.00020930874 -0.00015921587
0000d0 e2 5c 3c bb 53 62 8f bb e8 45 08 3a a1 2c 63 3a
       -0.0028741886 -0.004375735 0.0005198405 0.0008666013
0000e0 ab 23 35 b9 0f 0e ae ba 48 a2 1c ba aa fc 61 b9
       -0.00017274792 -0.0013279336 -0.00059751095 -0.00021551797
0000f0 42 84 bd b9 3a 44 ed 38 cf c7 c3 b9 e5 fe e6 b9
       -0.0003614743 0.00011313749 -0.00037342167 -0.0004405893
000100 69 f1 a8 bb cb 90 a9 bb bd 54 65 b9 cd 84 d5 38
       -0.0051557315 -0.0051747314 -0.0002187071 0.000101813675
000110 56 13 ed 39 74 64 f6 b9 09 ae 60 38 41 ac bb b9
       0.0004521857 -0.0004699562 5.3567845e-05 -0.0003579576
000120 88 d1 7a bf 52 81 7c 3f 79 31 98 b9 69 44 b5 3a
       -0.9797597 0.9863483 -0.0002902856 0.0013829592
000130 ec 27 1d 3a 4f bf d2 b9 ee 83 82 39 4a ec 0d 39
       0.00059950235 -0.00040196857 0.00024893828 0.00013534832
000140 b0 58 b5 3a f4 f5 ae 3a 97 a8 37 ba cf ae 6a ba
       0.0013835635 0.0013348446 -0.0007006018 -0.000895244
000150 ea 45 3d bf 57 7d 4f 3f 17 bc c1 b8 2b 8d c0 3a
       -0.73934805 0.8105063 -9.2379916e-05 0.0014690509
000160 0a 47 d8 39 46 87 23 3a d7 4d 3a ba d5 ef 23 39
       0.0004125166 0.0006238114 -0.0007106936 0.00015634236
000170 23 ab b1 bc 65 d5 88 bc eb e0 3f bb 65 b2 45 ba
       -0.02168805 -0.016703317 -0.0029278349 -0.00075415365
000180 7f 6b f9 b9 aa 41 09 3a ba 3d 11 39 af ed 85 ba
       -0.00047573072 0.000523592 0.00013851273 -0.001021793
000190 f9 d7 11 ba e0 a5 49 39 91 15 80 b9 17 86 b6 b8
       -0.00055634935 0.00019230647 -0.0002443013 -8.7034125e-05
0001a0 11 d5 c3 bc c1 2d d0 bc d3 7b c3 39 7a bd 90 ba
       -0.023905309 -0.025412442 0.00037285555 -0.0011042797
0001b0 1a bd c3 ba 0d 9c b7 ba 47 e4 2c 3a 15 f0 cb b8
       -0.0014933676 -0.0014008299 0.0006595295 -9.724513e-05
0001c0 0c a2 e3 3a 49 ee 47 3b b0 e5 07 3f 29 45 04 3d
       0.0017367019 0.003050702 0.5308485 0.03229252
0001d0 31 d8 ef 39 9b ac 2d ba 8e b9 d9 38 c0 12 b2 39
       0.00045746707 -0.00066251465 0.000103819286 0.00033964776
0001e0 91 ba a7 38 a5 df 2a 38 34 52 c4 b9 a3 e4 63 b8
       7.997931e-05 4.0739444e-05 -0.0003744528 -5.4333952e-05
0001f0 35 5b c9 bb 44 c7 05 bc 62 a4 91 b9 ea 5b 83 3a
       -0.006144906 -0.008165184 -0.0002777903 0.0010021899
000200 0f 95 2f b8 b7 95 3a 39 c9 a5 13 39 4d f8 04 ba
       -4.1862073e-05 0.00017794115 0.00014080772 -0.00050724
000210 13 6a d7 38 55 98 11 39 8b 4d b1 bb f7 d6 83 bb
       0.00010271757 0.00013885026 -0.005410855 -0.0040234285
000220 d6 eb 0e ba 86 43 cc 39 fc 71 0b b9 fa 2d 01 b9
       -0.00054520124 0.0003896022 -0.00013298535 -0.00012319526
000230 54 16 32 bf 57 7f 3d 3f 45 52 1c ba 82 61 d0 39
       -0.6956532 0.7402243 -0.0005963187 0.000397455
000240 11 a6 70 ba f3 13 06 3b 35 5a 0f ba 10 28 15 b8
       -0.0009180019 0.0020458668 -0.0005468459 -3.556168e-05
000250 6d 5b a0 3a 8c 30 9b 3a d5 60 f9 ba 06 ff fd 3b
       0.0012234278 0.001184003 -0.001902605 0.0077513484
000260 ed ab 7b 39 de a9 ef 37 27 c5 09 ba 78 42 30 39
       0.00024001273 2.857012e-05 -0.0005255513 0.0001680943
000270 c0 11 cf b7 2e d7 a5 38 b9 dc ce b8 34 18 5a b9
       -2.4684588e-05 7.9078935e-05 -9.863958e-05 -0.00020799116
000280 66 eb 14 b8 6d 1a 0b 3a c8 ba 76 b9 e4 f0 3e 37
       -3.550518e-05 0.0005306367 -0.0002352997 1.1380969e-05
000290 5f c5 8b 39 a5 6b c1 3a 6a bf 53 b8 6e d3 42 39
       0.000266592 0.0014756812 -5.048459e-05 0.00018580045
0002a0 1b 54 29 b9 0d 2c 28 ba 53 b8 14 38 68 21 46 ba
       -0.00016148428 -0.00064152555 3.5457615e-05 -0.00075580785
0002b0 08 51 20 3f 42 54 0a 3d 45 92 bb ba c5 ab 5e 3a
       0.62623644 0.03377176 -0.001431056 0.00084942236
0002c0 15 ca 3b ba 40 7a d8 ba aa 5c 9b 38 2c 72 22 ba
       -0.00071635965 -0.0016515926 7.408236e-05 -0.00061968225
0002d0 81 fe 67 bf 47 79 6a 3f 04 ba b6 ba fe a1 60 3a
       -0.9062272 0.91591305 -0.0013940935 0.00085690606
0002e0 27 92 a3 3a e9 8a c9 b9 28 9b 01 ba 27 3d 5a b7
       0.001247947 -0.00038441204 -0.00049440796 -1.3008051e-05
0002f0 c4 d0 22 3f c9 20 40 3d 9b 18 47 39 c1 bb be 39
       0.635998 0.046906266 0.00018987285 0.00036379512
000300 c7 cc 9c b9 60 ec dd b8 6a 17 24 3b 0a 04 25 bb
       -0.0002990721 -0.000105821295 0.002503837 -0.002517941
000310 72 e0 f4 b9 6b 47 ee b7 12 0c 3b ba d0 a1 cd b9
       -0.0004670653 -2.8405067e-05 -0.00071352825 -0.00039221207
000320 a5 a8 03 38 1d ed fd b8 c3 bf 14 ba 0f 2d b6 39
       3.1389896e-05 -0.00012108146 -0.00056743267 0.00034747316
000330 7e 38 8b 3a 6c 06 d7 b9 82 6c 42 ba e7 9d a2 3a
       0.0010621694 -0.0004101278 -0.00074166816 0.0012406678
000340 89 92 c0 39 62 fc 80 39 28 23 86 38 c5 3f b0 36
       0.0003673027 0.00024602102 6.396166e-05 5.2526325e-06
000350 5d 79 bb 39 da d9 49 37 31 b5 7d ba 8f 34 a6 3a
       0.00035757842 1.2031256e-05 -0.00096781837 0.0012680459
000360 b9 4c ac b9 c5 65 9b 38 86 be d8 39 fe 05 2d 3b
       -0.0003286356 7.409932e-05 0.00041340681 0.0026401277
000370 d7 8d d8 39 ed 55 6f 3a e1 ad d2 b8 0e 5d 57 39
       0.0004130441 0.00091299304 -0.00010045968 0.00020538663
000380 9e 48 90 ba 91 55 12 38 fc 5f 99 b7 b3 1c 33 39
       -0.001100797 3.4888802e-05 -1.8283718e-05 0.00017081462
000390 e0 44 ee b9 2f 49 13 3a 42 83 32 38 5b 09 1c ba
       -0.00045446213 0.000561851 4.256075e-05 -0.0005952322
0003a0 a7 97 77 ba 25 75 97 38 8d bb 4f 39 21 12 3a b9
       -0.00094449 7.222061e-05 0.00019810926 -0.00017745096
0003b0 5f 4e 09 b7 78 2e 79 b8 ca 63 1e 3a 6d 28 c9 3a
       -8.1840835e-06 -5.9409504e-05 0.00060420914 0.0015347131
0003c0 c3 79 96 ba 5d 81 6a ba 2a 09 69 3a 6b 35 04 39
       -0.001148038 -0.0008945668 0.000888961 0.000126084
0003d0 eb 29 b1 b7 1e 9f dd b8 9d 09 d9 b7 71 ef 6e 36
       -2.1119564e-05 -0.00010567739 -2.5872892e-05 3.5604137e-06
0003e0 09 3c 66 3a d9 96 7e b9 02 58 bc 3a a3 02 a5 3a
       0.00087827496 -0.00024279523 0.001436949 0.0012589287
0003f0 80 de ba b8 5e 2e 0c ba 84 d0 e8 35 28 81 cd b9
       -8.910615e-05 -0.00053474854 1.7346033e-06 -0.00039196876

weight f4 [128, 512]
000000 0f 23 50 b9 72 4f b3 39 39 ea 06 b9 3f 7f 5d 3a
       -0.00019849486 0.00034200732 -0.0001286649 0.0008449442
000010 ac b2 4c 39 d4 d8 9b b6 b9 ea 04 b9 2f a8 5e ba
       0.00019521517 -4.644602e-06 -0.00012675942 -0.0008493689
000020 24 59 cb b9 ca 27 4e 38 e8 e9 00 b9 79 bd 25 ba
       -0.00038785592 4.9151284e-05 -0.00012294168 -0.0006322484
000030 2d 4d 4a 39 fe 8a 02 3a b9 ef 7b b9 57 a3 09 3a
       0.00019292971 0.0004979818 -0.00024026529 0.0005250475
000040 ee a7 5c 39 e5 e9 7b b9 38 e4 53 b9 d8 5d e7 38
       0.00021043394 -0.00024024358 -0.00020207546 0.00011032418
000050 f0 0a d3 b6 ba 28 1f ba 74 dc f8 b8 73 79 1f ba
       -6.2895633e-06 -0.00060714374 -0.00011866624 -0.0006083466
000060 37 4d 89 b9 2f 64 93 39 db 9a b4 b9 73 ae 30 39
       -0.00026188206 0.00028112667 -0.00034447652 0.00016849655
000070 1b 97 95 39 1b f1 a2 b9 01 84 0e 3a 94 8e 22 3a
       0.00028532077 -0.00031078685 0.000543654 0.00062010554
000080 e4 41 91 b5 fe 41 76 3a 7b 47 bf b9 ee 9c 9d 39
       -1.0822519e-06 0.0009393989 -0.00036483616 0.00030062295
000090 16 00 d0 39 ac 0a 17 ba ba d2 d7 39 29 9e b8 b9
       0.00039672916 -0.0005761783 0.00041165 -0.00035213053
0000a0 b8 51 0c 3a ea d3 09 b9 d3 bb 04 3a 14 0f 13 3a
       0.0005352753 -0.00013144282 0.00050633884 0.0005609852
0000b0 1a 02 54 3a f1 10 4b 39 e3 0a c1 39 5a 42 82 ba
       0.00080874714 0.000193659 0.0003681994 -0.0009937987
0000c0 6f 5e 8b 39 ba 35 d2 b9 b8 bd 8a b9 5a fe 7f b9
       0.00026582505 -0.0004009435 -0.00026462763 -0.00024413448
0000d0 01 36 ff b9 b1 19 da 38 e1 d5 b1 b9 d6 de 72 3a
       -0.00048677626 0.000103998354 -0.00033919423 0.00092647725
0000e0 d7 f3 84 39 3f 3f 06 38 9f de 09 3a 84 cb 9b b9
       0.00025358677 3.2006992e-05 0.00052593084 -0.00029715535
0000f0 d1 6e 8d 3a ad 40 e6 b9 6c 4d 8b b9 ab f2 3b 38
       0.0010790472 -0.00043917206 -0.0002656983 4.4810276e-05
000100 f6 53 bb 3a 4f c4 77 ba 40 9e 72 39 5e b4 d4 35
       0.001429199 -0.00094515545 0.00023137871 1.5847725e-06
000110 d8 19 9b 39 0c d3 e2 b9 a0 0f 8b 39 9d 57 36 b9
       0.0002958316 -0.0004326332 0.00026523788 -0.00017389511
000120 9d 99 0d 3a 62 a7 a1 b9 60 4b 05 b9 46 34 00 ba
       0.00054016133 -0.00030833023 -0.00012711948 -0.0004890602
000130 17 69 99 b9 a8 84 42 b9 30 40 16 ba 5f 9b 91 b8
       -0.00029260732 -0.000185507 -0.00057316106 -6.943079e-05
000140 64 81 82 39 3f 91 02 3a a4 fc 11 ba aa a5 8b 3a
       0.00024891936 0.000498075 -0.00055689574 0.001065423
000150 8d 78 8e 39 39 c1 52 39 43 a6 16 b9 83 22 92 ba
       0.00027174168 0.00020099142 -0.00014367052 -0.0011149201
000160 4b c2 11 3a fe c8 e9 38 d8 26 ea 38 52 b1 80 b9
       0.0005560263 0.000111477435 0.00011165225 -0.00024546176
000170 c4 70 1e 3a 8c c1 e4 b9 f2 4f df b8 80 bd 9f 39
       0.0006044025 -0.00043631752 -0.000106483596 0.00030468032
000180 e9 e1 da 37 f2 26 d6 b8 42 38 b4 b9 3e 4d 15 3a
       2.6092823e-05 -0.00010211569 -0.0003437419 0.0005695409
000190 25 ec 16 3a 58 9b db b6 20 f3 84 b9 90 4c 99 39
       0.0005757234 -6.544793e-06 -0.00025358144 0.00029239478
0001a0 1f 06 3b 39 52 45 a1 b9 1f 0a e1 38 0e c9 1f ba
       0.0001783599 -0.0003075996 0.00010730721 -0.0006095328
0001b0 ef 1c 5d 3a 1b df 30 ba ef 00 8e 39 d7 b6 16 ba
       0.00084347924 -0.00067471125 0.00027085046 -0.0005749291
0001c0 ee 75 90 39 b9 6d 11 3a ce c3 0e 3a 0a de 1b ba
       0.00027553685 0.0005547661 0.0005446047 -0.0005945867
0001d0 cf 70 c1 ba 5c f2 96 39 4f e4 be 39 fa 58 0c 3a
       -0.0014758351 0.000287908 0.00036409727 0.0005353835
0001e0 5e e0 0f 3a 3f 8a 00 ba 27 dc f7 39 39 5e 41 ba
       0.00054884504 -0.0004903413 0.00047275538 -0.0007376406
0001f0 68 bf a3 b9 09 34 f5 39 68 a5 33 39 43 67 83 b9
       -0.00031232391 0.0004676881 0.00017132389 -0.00025063203
000200 b8 e1 cc b9 38 98 c5 39 7a 28 c0 39 0d eb a1 39
       -0.00039078086 0.0003768818 0.0003665125 0.0003088344
000210 ac 76 f7 38 04 39 8b 3a 78 37 12 3a 3a bb 84 b9
       0.00011799982 0.001062185 0.00055777235 -0.00025316497
000220 77 48 e7 b9 63 63 ff b9 a8 1e 0d 3a 3e a6 c3 b9
       -0.00044113744 -0.0004871144 0.0005383291 -0.00037317158
000230 48 fa b2 b9 58 82 a3 b9 b5 7a 70 3a e7 40 7d ba
       -0.0003413728 -0.00031186896 0.0009173558 -0.0009660855
000240 22 c4 80 b9 89 c8 7a 39 3c 39 86 39 a8 b7 60 ba
       -0.00024560193 0.00023916563 0.00025601115 -0.0008572289
000250 4c 12 9b ba c2 1a 45 38 a9 42 79 39 4d 16 5a ba
       -0.0011831014 4.699338e-05 0.00023771323 -0.0008319363
000260 06 97 3e b8 e2 0d d8 36 22 63 8f b8 5b 58 18 ba
       -4.544018e-05 6.438918e-06 -6.837236e-05 -0.0005811506
000270 8c 1b 14 3a 3c 55 1f ba ee 6d 60 ba f4 5b 84 b8
       0.0005649857 -0.00060780696 -0.00085613027 -6.311378e-05
000280 5a 67 1c ba 7a 4e 86 39 96 8f 80 39 2e bc 59 39
       -0.00059663283 0.0002561694 0.00024521042 0.00020764835
000290 b4 bc 4c 39 22 ad 19 ba a5 27 13 ba 0c 1e 8e b7
       0.00019525253 -0.00058622856 -0.00056135125 -1.694171e-05
0002a0 7c 0a 23 ba d4 6b a9 b9 0e df 7d b9 73 07 59 3a
       -0.0006219519 -0.0003231453 -0.00024211055 0.0008279003
0002b0 ba 27 0d 3a 02 bc f2 39 bf 26 47 3a 80 54 0d b8
       0.0005384643 0.00046297914 0.0007597021 -3.3695716e-05
0002c0 61 96 1c ba 06 07 16 3a 06 84 12 ba 36 7d 56 b9
       -0.0005973336 0.00057230925 -0.0005589131 -0.00020455275
0002d0 f9 f1 b1 b9 cb 11 8c ba 7d ab 8f 39 56 23 bb 39
       -0.00033940354 -0.0010686455 0.00027402854 0.00035693747
0002e0 46 ff 11 3a 4a 38 14 b9 6f da bb b8 05 10 76 3a
       0.000556935 -0.00014135349 -8.957541e-05 0.00093865424
0002f0 1a ac 0f b9 bc 7c 21 39 bc bf 67 ba 8a 01 1b ba
       -0.00013701656 0.00015400624 -0.00088405213 -0.000591301
000300 26 06 62 ba d8 99 a5 b9 e6 9d 04 39 5a 30 74 39
       -0.0008622132 -0.00031585875 0.00012647323 0.00023287666
000310 f4 aa f0 b9 92 c6 41 b7 48 ff 08 ba ed d9 19 ba
       -0.00045903737 -1.154993e-05 -0.0005226028 -0.000586896
000320 08 c6 96 39 1c 8b 0d 3a b7 6b ae 39 0e 46 98 39
       0.00028757774 0.0005399452 0.0003326812 0.00029043894
000330 79 b5 8c 3a 94 cd a9 b9 0e d2 c5 39 21 23 7a ba
       0.0010735235 -0.0003238736 0.0003773127 -0.0009541978
000340 fe a7 10 3a 35 b3 47 3a e6 d0 92 b9 37 e0 93 ba
       0.0005518197 0.00076179515 -0.00028002932 -0.0011282031
000350 9d 49 0a 3a 76 8a 0f 3a 9c e5 96 39 d7 c9 a8 b9
       0.00052752515 0.00054756494 0.00028781302 -0.0003219384
000360 9f e2 16 3a ec a2 a8 3a ae e8 d1 b9 7a 05 10 b8
       0.0005755815 0.0012865937 -0.00040036946 -3.4337376e-05
000370 3c 4b 8f b9 c6 d2 40 39 69 79 e2 b9 3f 6d 72 3a
       -0.0002733114 0.00018389066 -0.00043196537 0.00092478463
000380 3c 31 01 ba fe be 52 ba 6a 5b 5b ba 23 02 74 b9
       -0.0004928296 -0.00080393243 -0.0008367809 -0.0002327045
000390 24 23 f4 39 f9 e5 9b b9 17 01 06 3a ae 63 8a 39
       0.00046565488 -0.00029735247 0.0005111857 0.00026395678
0003a0 27 5c 17 3a 0d 7f 8a 39 0a 4d 63 ba b2 34 25 39
       0.00057739246 0.0002641607 -0.00086708425 0.00015755257
0003b0 25 5c 25 ba 53 26 1c 39 62 68 cd b9 20 e1 e3 b8
       -0.0006307981 0.00014891596 -0.00039178418 -0.00010866136
0003c0 a0 11 cb b8 61 0b c5 38 16 68 4b 39 86 0a d1 39
       -9.683077e-05 9.3958115e-05 0.00019398364 0.00039871427
0003d0 0d 50 0b 3a e7 e5 7d b5 29 b7 ff b9 28 59 49 3a
       0.00053143577 -9.4584396e-07 -0.00048773855 0.0007680827
0003e0 e6 4f 8f 39 9b 5c 0f 3a 55 32 b2 b9 19 36 a7 ba
       0.00027334614 0.00054688164 -0.00033988306 -0.0012757211
0003f0 3c 91 0b 3a 98 6f 62 39 32 ae 7e ba 01 05 0e b9
       0.0005324071 0.00021594611 -0.0009715288 -0.0001354404

weight f4 [8, 128]
000000 e7 e3 67 b7 e6 09 05 b9 96 ee 59 b9 ab 99 f3 b8
       -1.3821736e-05 -0.00012687556 -0.00020783613 -0.00011615766
000010 ae c4 9e 37 64 6b 78 39 c7 fb 14 39 f4 6f 27 b9
       1.8926654e-05 0.00023691129 0.00014208174 -0.00015968067
000020 9c de 15 ba 53 95 ac 3c 87 fe 81 37 cc 40 49 b8
       -0.00057170703 0.021067297 1.5496522e-05 -4.798248e-05
000030 df 34 0d b7 a3 04 d7 b8 48 69 83 39 eb 8c 31 37
       -8.416565e-06 -0.000102528626 0.00025064708 1.0582832e-05
000040 07 cc 4f 39 92 b0 62 b9 3f e3 ba bb d1 a9 53 b8
       0.00019817064 -0.00021618817 -0.0057033594 -5.0464474e-05
000050 46 43 16 3a 47 53 d1 3b 26 e6 ed b8 4b 60 13 3a
       0.00057320704 0.0063881013 -0.00011343909 0.0005621954
000060 e0 7a 48 b8 2b b4 91 39 a0 8e b8 b9 29 59 f2 b7
       -4.7798152e-05 0.0002779079 -0.0003520148 -2.8890167e-05
000070 21 7d 84 b8 f6 b6 5e 39 f7 d1 36 b8 91 2f 81 39
       -6.3175576e-05 0.00021239728 -4.3587726e-05 0.00024640237
000080 16 ae 09 38 9c a8 19 3a 85 b0 b9 b8 21 f3 79 ba
       3.2825476e-05 0.00058616116 -8.854367e-05 -0.0009534825
000090 19 3e bf b9 b1 df 3f be f7 0c b5 b9 93 99 ea 3d
       -0.00036476625 -0.18737675 -0.0003453267 0.11455073
0000a0 91 1b 86 39 29 d9 9d b9 cf fb d1 b6 f1 be 48 b8
       0.0002557901 -0.0003010717 -6.2579998e-06 -4.7861544e-05
0000b0 49 44 32 b9 01 40 b6 b9 96 4e b1 b7 54 18 9c 39
       -0.00017000841 -0.00034761432 -2.1136639e-05 0.00029772765
0000c0 dc 9d 43 be 62 b6 0c 3a 30 7c d3 b9 85 07 d7 39
       -0.19103187 0.00053677533 -0.00040337583 0.00041013598
0000d0 29 3e ed b7 50 b6 47 39 11 c8 17 ba 34 c2 06 ba
       -2.8281547e-05 0.00019046036 -0.0005790005 -0.0005140633
0000e0 20 ac 3e b8 ec 61 48 38 6e c9 c6 b9 40 00 09 3e
       -4.5459834e-05 4.7774913e-05 -0.0003791558 0.13379002
0000f0 d1 15 2a ba 1d 69 78 b9 5c bb 20 3a 90 aa 84 39
       -0.0006488236 -0.00023690281 0.00061314343 0.0002530408
000100 fa 83 b1 38 a0 97 80 bd cb 4a 8b b6 9b 7a 36 b9
       8.4646e-05 -0.0627892 -4.15123e-06 -0.00017402547
000110 4d 3b 0c ba a9 3a 13 ba ad de a8 b9 6b fd 93 38
       -0.00053494127 -0.0005616346 -0.00032209363 7.056709e-05
000120 75 aa eb 37 2a 27 21 39 03 dc 6b b5 1c 0f 25 37
       2.8093558e-05 0.00015368746 -8.786448e-07 9.838284e-06
000130 c2 49 a0 38 4f bd e6 b8 1d a6 5f b9 c5 bf 0c b9
       7.643133e-05 -0.00011002516 -0.0002132882 -0.0001342288
000140 6b c2 3f b9 46 cd 3a 37 0d 5e 4d 3d fb 60 ff 39
       -0.00018287606 1.1134258e-05 0.050138522 0.00048709646
000150 98 55 c6 38 64 ef de 3d bd 63 9d b8 c1 31 27 3c
       9.457319e-05 0.10885504 -7.504921e-05 0.010204733
000160 07 af a8 39 ce fc 70 b8 9a 08 f4 3a bd c5 51 b8
       0.00032173863 -5.74559e-05 0.0018618286 -5.001364e-05
000170 50 fd b8 39 9b c5 b5 3d d0 ad 5c b9 1a be 14 b9
       0.00035283947 0.08875581 -0.00021045585 -0.00014185198
000180 2e 65 75 38 71 50 e6 3d 2f 91 b5 b9 05 95 67 38
       5.8506783e-05 0.11245812 -0.0003463118 5.5213477e-05
000190 5c 14 b3 37 bb 69 3f b8 9d 88 7e 38 e6 ce 84 b9
       2.1347943e-05 -4.5636418e-05 6.068555e-05 -0.00025331153
0001a0 1f 3a 2c b9 72 60 96 b9 d2 f0 44 3a 4c e3 2c be
       -0.0001642485 -0.00028682087 0.00075126917 -0.16883582
0001b0 d0 8d 70 b9 63 33 aa b7 cf 6e 4c 37 f9 bc 9f b9
       -0.00022941013 -2.0289508e-05 1.2185147e-05 -0.0003046764
0001c0 7d 8e 71 b9 b0 7f 22 b9 14 55 0a 39 f3 05 07 ba
       -0.00023036632 -0.00015497091 0.000131924 -0.0005150728
0001d0 69 ba 9e b7 7c be de 38 d9 b2 a9 b9 77 69 1c 3b
       -1.8921872e-05 0.000106212654 -0.00032367444 0.0023866573
0001e0 cc eb fc 3d 88 ef 40 b9 51 81 1b b9 c4 27 9a ba
       0.12349662 -0.00018399779 -0.00014830126 -0.0011761119
0001f0 2a 09 d2 38 1d 1e e7 3d 73 de 21 ba 19 fc d0 36
       0.00010015287 0.112850405 -0.000617481 6.228231e-06
000200 59 f7 0c 38 72 43 a7 38 05 67 18 38 a4 10 7f 38
       3.360896e-05 7.975743e-05 3.633557e-05 6.0812235e-05
000210 39 c2 85 38 a0 3f 6a b8 c5 c4 b0 b7 98 4a 98 39
       6.378111e-05 -5.5849203e-05 -2.1072463e-05 0.00029047276
000220 63 4c eb 37 e2 f1 47 bc dd 35 48 39 d0 bf a4 b9
       2.8049753e-05 -0.012203665 0.00019093552 -0.0003142343
000230 8f 1f 62 38 de e8 71 b8 f5 74 07 38 79 06 b4 37
       5.391199e-05 -5.7675752e-05 3.2295433e-05 2.1460686e-05
000240 a3 c4 e3 38 01 27 9e 37 1b d1 b7 3d 8c 91 32 3a
       0.0001086083 1.885323e-05 0.089754306 0.00068118493
000250 eb 27 25 38 ec c8 8d ba 04 48 5b 37 a6 32 d7 ba
       3.9376242e-05 -0.0010817326 1.3070185e-05 -0.0016418293
000260 a6 2a 81 3a da 81 5b b9 78 97 2d 39 29 84 e1 3a
       0.0009854629 -0.00020933841 0.00016554992 0.0017205524
000270 0c a9 1d b9 ea 10 7a b8 7a c1 72 39 55 02 2f b9
       -0.00015035662 -5.9620397e-05 0.00023150994 -0.0001669017
000280 49 50 e6 38 af 59 d4 39 59 5e 00 3a 15 36 5e 3a
       0.00010982209 0.0004050261 0.00048968714 0.0008476687
000290 67 b1 fb b8 34 63 26 bf 1e 2e ba b9 22 c4 72 3e
       -0.000120016564 -0.6499512 -0.00035511045 0.23707631
0002a0 68 c2 f4 37 73 a1 0b 3a fd 19 31 38 56 40 68 b8
       2.9177594e-05 0.0005326487 4.2224292e-05 -5.5373028e-05
0002b0 10 c4 7e b8 70 40 e5 37 21 8a fb 38 ed 25 14 3a
       -6.0740917e-05 2.7328933e-05 0.00011994341 0.00056514033
0002c0 d3 db 29 bf 5b e5 22 37 8c 00 0f b8 d8 e7 d5 39
       -0.6635105 9.709353e-06 -3.4094366e-05 0.00040799263
0002d0 cd 66 74 39 fc aa cc 39 c3 6a fc 38 aa 9b b1 38
       0.0002330795 0.00039037305 0.00012036182 8.4690124e-05
0002e0 57 71 2b 39 0d 3e af b8 18 c3 62 ba 15 24 52 3e
       0.00016350053 -8.356208e-05 -0.0008650287 0.20521577
0002f0 80 d5 36 3a 1d 4e 16 39 54 bb d9 38 63 00 5f b8
       0.0006974563 0.00014334214 0.00010382259 -5.3167703e-05
000300 73 c7 9a b9 79 23 0e bd 17 9e 4a 39 27 a4 81 37
       -0.0002952177 -0.034701798 0.00019323114 1.5454438e-05
000310 f6 e7 18 b9 75 84 d9 39 0e f4 6f 38 85 75 96 b9
       -0.00014582262 0.00041488154 5.7209334e-05 -0.00028697788
000320 02 db 2b 39 52 ed 04 b6 c7 61 4a 37 12 d9 86 37
       0.00016389418 -1.9807671e-06 1.2062904e-05 1.6075126e-05
000330 d4 2a 58 38 34 af 18 39 7b 73 a4 b8 87 98 7c b8
       5.15383e-05 0.00014561118 -7.841639e-05 -6.0223534e-05
000340 08 fa 9b b8 eb 3a e7 38 c8 75 66 ba 78 4e 64 39
       -7.437548e-05 0.00011025913 -0.00087913545 0.00021773006
000350 f7 51 61 38 14 c6 77 3e dc b5 35 39 73 69 54 39
       5.3720516e-05 0.24196655 0.00017329253 0.00020257178
000360 32 b0 9b b8 d7 d5 0e b9 fc 3e de ba 11 37 bd 37
       -7.423795e-05 -0.00013621837 -0.0016956027 2.2556198e-05
000370 c6 65 8a 38 23 2c 14 3b 13 16 0d 39 0c ad 48 38
       6.5993096e-05 0.0022609315 0.00013455031 4.784488e-05
000380 d6 8b ad 39 8b c1 22 3e a0 49 63 ba b6 5d 43 39
       0.00033101317 0.15894143 -0.0008670334 0.00018631559
000390 83 34 67 37 57 fb be b8 0f 0e 02 b9 44 bd 7b 39
       1.3780899e-05 -9.106722e-05 -0.00012403003 0.00024007732
0003a0 e6 55 f9 b8 c3 ba 70 3a 27 57 33 37 7a ad 26 bf
       -0.00011889245 0.0009183103 1.0689523e-05 -0.65108454
0003b0 ab 69 2a 38 3e 94 e4 b9 3d ee d5 39 73 5b 3a ba
       4.062957e-05 -0.00043597998 0.00040804027 -0.0007108964
0003c0 a6 bc c1 37 5f f9 74 39 da fb 54 39 94 5a 0d b9
       2.309524e-05 0.00023362551 0.00020311718 -0.00013480551
0003d0 7e 41 70 39 1f 4c d1 b9 a0 96 1b 39 14 60 5b bc
       0.00022912581 -0.000399203 0.00014838064 -0.013389606
0003e0 23 a0 7a 3e f7 98 27 b9 84 80 34 b9 92 2c a2 ba
       0.2447515 -0.00015983345 -0.00017214013 -0.0012372902
0003f0 96 f8 d4 36 6a 57 d9 3c 45 ce 1c 39 37 60 3f 37
       6.3470316e-06 0.02653094 0.0001495416 1.1406889e-05

bias f4 [8]
000000 09 30 50 3e ce 98 fc 3e b4 f6 11 40 64 de 2f be
       0.20330824 0.4933533 2.2806826 -0.17174679
000010 36 a4 93 3f e0 b5 94 3e 43 b0 3c bd 22 f0 d4 3f
       1.1534488 0.2904501 -0.046066534 1.6635783

weight f4 [128, 10]
000000 6f 82 b7 be 93 89 7f bd e4 ae 2f bb 06 19 41 3d
       -0.358417 -0.06238706 -0.0026807124 0.047143005
000010 a4 e5 1a 3e 2a b9 5e ba b0 ff a9 3d 1b 92 61 3b
       0.15126663 -0.00084962195 0.08300722 0.003441936
000020 e0 30 8a b9 c7 0b 38 bc 56 df a9 be cd 8c 1e bd
       -0.00026357826 -0.011233277 -0.33178204 -0.038708497
000030 34 bf cb 3a fa 76 fe 3c 3b 31 17 3e bc 89 77 3a
       0.0015544654 0.031062592 0.14764874 0.0009442826
000040 e3 7c 9f 3c d1 48 b7 3a 74 e5 85 b9 cc 5a 09 bc
       0.01946873 0.0013983493 -0.00025538693 -0.008383464
000050 76 a4 fa 3e a5 2c 90 be 0f 48 42 3d d2 6a 4c be
       0.489536 -0.2815906 0.047432 -0.19962624
000060 23 29 49 bd 5c e1 14 3a 3a 00 6b bd 7a 3c d8 bc
       -0.049111497 0.0005679333 -0.057373263 -0.026396025
000070 e0 ab 4f 3a 92 26 8a 3f e0 a0 c3 be 8d ad dc bc
       0.0007922035 1.0793021 -0.38208675 -0.026938224
000080 fc a7 e7 bb 13 1d 0e 3d 4d ec 6e 3e be 89 77 3a
       -0.007069586 0.034695696 0.23332329 0.00094428274
000090 76 99 2a 3e 16 85 37 3d e8 10 14 ba ed 6a 15 be
       0.16660103 0.044804655 -0.0005648271 -0.1459157
0000a0 f9 14 9f be 11 b7 b6 bc b7 b9 44 3b 56 f7 1e 3d
       -0.31070688 -0.02230409 0.0030017921 0.038810097
0000b0 73 6d 2b 3e 62 3e cf b8 76 d4 82 3d f6 04 50 3c
       0.1674097 -9.882149e-05 0.0638818 0.012696495
0000c0 92 3d 67 3a 39 60 e9 bc e0 70 40 be 2e 32 5b 3a
       0.00088211254 -0.028488265 -0.18793058 0.00083616644
0000d0 7d 61 64 bb 14 61 2e 3c b8 81 24 3d f9 89 77 3a
       -0.0034848147 0.010643262 0.040162772 0.0009442862
0000e0 ba 67 d4 3c 10 7d b6 3a af 10 14 ba 1a 70 4a bb
       0.025928367 0.001392277 -0.0005648238 -0.0030889572
0000f0 98 6e 7e be 19 f6 8d bc 61 9e c1 39 ca b9 15 3c
       -0.24846876 -0.017329263 0.0003692983 0.009138534
000100 0c db 8b 3d 5a 1f 7e 39 67 b6 5d 3c 62 55 41 3b
       0.06828889 0.00024235007 0.013532258 0.0029500355
000110 23 d8 62 b9 41 86 d4 ba 48 0d 93 be da da fb bc
       -0.00021633557 -0.0016214327 -0.2872107 -0.030744005
000120 f8 ed cb 3a d2 bd f7 3c 1e df 27 3e be ce 73 38
       0.0015558591 0.03024188 0.16393706 5.812826e-05
000130 74 28 42 3d ec 14 fe 3b 00 8a 77 3a 25 e1 1a bc
       0.04740186 0.007753959 0.0009442866 -0.009453093
000140 92 1a 83 be 43 57 36 bc 68 59 91 bb 37 8c 99 3b
       -0.2560621 -0.011129203 -0.004435707 0.0046859044
000150 24 40 28 3d 70 8b 8a 3a 72 84 2d 3b 77 0f 88 3a
       0.041076794 0.001057012 0.0026476649 0.0010380585
000160 79 10 14 3a 29 4c 07 bc 64 8c a5 be 15 d9 fa bc
       0.00056482066 -0.008257904 -0.32333672 -0.03062109
000170 86 d9 0a bb 73 75 9a 3c 0f bb 1d 3e e0 30 8a b9
       -0.0021186783 0.018854832 0.15403388 -0.00026357826
000180 81 2a a1 3b 7a 4d a2 3b 13 11 14 ba f8 ac 08 bc
       0.004918397 0.0049530836 -0.0005648296 -0.00834202
000190 65 0e 7f be 86 05 c2 bc 27 11 74 3b 08 27 84 3c
       -0.24907835 -0.023684274 0.003724167 0.016131893
0001a0 fc 50 3a 3d b7 eb 98 39 03 09 86 3c bc 3a ac 3b
       0.04548739 0.0002916732 0.016361719 0.005256025
0001b0 31 04 be b9 46 ac c6 bb 86 10 14 ba bc e4 ca b9
       -0.00036242747 -0.006063017 -0.0005648214 -0.00038698863
0001c0 ce b8 5e ba c0 e3 ca 39 92 1b bd 3a a4 89 33 3a
       -0.0008496166 0.0003869813 0.0014427772 0.0006848818
0001d0 0c eb 98 39 6a e1 14 3a 74 e1 14 ba cf e8 10 b8
       0.00029166823 0.0005679341 -0.0005679347 -3.4549095e-05
0001e0 ce e9 ac be fd 3d 2d bd fe 74 ad bb 96 12 09 3c
       -0.3377213 -0.042295445 -0.0052934876 0.008366248
0001f0 01 22 fb 3d ba 10 14 ba 05 b1 c5 3c 3e 6c e1 3a
       0.12262345 -0.00056482444 0.024132261 0.0017198396
000200 8b 98 26 3a 7a 51 e3 bb b9 fd a1 be 39 76 8c bd
       0.0006355128 -0.006937203 -0.31638888 -0.06858487
000210 ff a5 0d 3b 1e d1 d6 3c e0 eb 24 3e 0c be 61 39
       0.0021613834 0.026222762 0.16105604 0.0002152847
000220 7f 44 46 3c 79 65 cb 3b e1 69 94 39 4a ea ff bb
       0.012101292 0.006207165 0.00028307646 -0.007809912
000230 b4 1a 52 3b f1 01 92 be af a8 14 3c 16 e9 5c bb
       0.0032059373 -0.28517106 0.00907342 -0.0033708266
000240 30 f1 2c bd 34 b9 5e ba fc fb 1a 3f 86 87 aa 3d
       -0.0422222 -0.00084962253 0.6054075 0.0832663
000250 8f 1b bd ba 0f da 31 bf 98 be 51 be 12 20 16 bd
       -0.0014427769 -0.69473356 -0.20482862 -0.03665168
000260 17 93 83 3b ac 0d 91 3b cb d7 61 3b 5e 9f b2 ba
       0.004015337 0.0044266786 0.0034460898 -0.0013627817
000270 e8 27 30 39 bb 90 88 3b 3e cf 01 ba d1 97 91 bb
       0.00016799534 0.004167644 -0.0004951841 -0.0044431468
000280 5b 58 7f be 14 b5 c5 bc eb fc 2e 3a 0d 41 98 3b
       -0.24936049 -0.024134196 0.0006675261 0.0046464265
000290 5a bb 93 3c bb 10 14 ba 07 6b 25 bb c1 43 18 3b
       0.018033672 -0.0005648245 -0.0025240795 0.0023233744
0002a0 8c 89 33 3a f8 1a e2 bb cc 11 43 be 24 50 24 3b
       0.0006848804 -0.0069001876 -0.19049758 0.0025072182
0002b0 5b c6 29 3b 04 f8 13 3c d4 62 51 3d e3 b4 8d ba
       0.0025905583 0.0090312995 0.05111964 -0.0010811355
0002c0 2e 1c c4 3b fa 91 90 3b e5 b8 5e 3a 4c 84 05 bc
       0.0059848046 0.004411933 0.00084961794 -0.008149218
0002d0 be 7f 88 be 4b 05 41 bd d5 a3 d3 bb 42 37 53 3c
       -0.2665996 -0.04712419 -0.0064587393 0.012891592
0002e0 63 9d f8 3d 1c 38 28 b9 6b b8 13 3c 0c c5 2e 3b
       0.12139394 -0.00016042631 0.009016137 0.0026667742
0002f0 1c 2d 0f 3a aa 74 df bb 91 45 92 be 19 0c 92 bc
       0.0005461739 -0.0068193274 -0.285687 -0.017828034
000300 24 70 17 ba 36 ef 59 3c 32 da 8f 3d 2c 08 18 ba
       -0.0005776903 0.013301661 0.07024039 -0.00057995575
000310 d6 1d 0d 3b ab 84 d3 3b 1c 2d 0f ba ab 7f ff bb
       0.0021532676 0.0064550242 -0.0005461739 -0.0077972016
000320 00 9e a6 be d0 b7 f6 bc 44 6e b4 3a ad e5 b7 3b
       -0.3254242 -0.030116946 0.0013765772 0.0056120963
000330 29 5c 1a 3e 5d 8a 77 ba 81 9d 1b 3d 1b 69 16 3b
       0.15074219 -0.000944292 0.037992004 0.0022950831
000340 8b 98 26 ba 3a 9b e0 bb 62 83 4f be 66 bb 30 bc
       -0.0006355128 -0.006854442 -0.20264962 -0.010786867
000350 b3 f8 c1 ba 13 81 70 3a 12 08 78 3d a3 d2 b4 39
       -0.001479885 0.0009174507 0.06055457 0.00034489212
000360 f0 34 c2 ba 3d 46 21 ba e4 30 8a b9 5c 05 1d bc
       -0.0014816802 -0.0006152129 -0.00026357837 -0.009583797
000370 cb 95 64 3c 9c bb b2 bd af cd bb bd 10 b3 85 3e
       0.013951729 -0.0872719 -0.091700904 0.26113176
000380 0d 9c ef be 5e 9f b2 ba 79 9f f8 3f 77 60 25 be
       -0.46798745 -0.0013627817 1.9423667 -0.1615008
000390 64 19 94 b9 3e 31 92 bf 0a fc 56 be ea 3b 07 bd
       -0.00028247677 -1.1421278 -0.20994583 -0.033016123
0003a0 66 18 7c 3b 68 67 1d 3c 25 90 35 3d 96 b8 5e 3a
       0.003846669 0.0096071735 0.04432692 0.00084961334
0003b0 23 86 f3 ba 42 b1 c1 3b 6c e4 ca 39 d1 5d 03 bc
       -0.0018579405 0.0059110234 0.0003869863 -0.008017973
0003c0 75 5a 7e be 51 37 95 bc c7 df 52 ba f3 fb c3 3b
       -0.24839194 -0.018214853 -0.00080442097 0.0059809624
0003d0 ec cc c4 3d 27 11 14 3a f6 8b 2c ba 9f ea 8a 3a
       0.09609398 0.0005648308 -0.0006582135 0.0010598487
0003e0 a4 8c a3 3a d3 d1 fe bb 2f 0b 9c be 91 1b 48 bc
       0.0012477827 -0.007776478 -0.30477282 -0.012213604
0003f0 b6 91 f2 ba b5 78 ee 3c cd 3a 16 3e 2f d8 62 b9
       -0.001850656 0.029110292 0.14670868 -0.00021633574

bias f4 [128]
000000 58 19 0a 40 65 71 08 40 73 59 40 bf 8f 80 e2 3f
       2.1577969 2.131921 -0.7513649 1.7695483
000010 cb a7 fa 3f 5a ab 1a 40 c7 75 11 40 0a c4 05 40
       1.9582456 2.4167085 2.2728136 2.0900903
000020 73 ac 0f 40 1c 20 09 40 91 b3 10 40 f6 cf bf be
       2.2449005 2.1425848 2.2609599 -0.3746335
000030 9a ae 03 40 a9 4e 07 40 f7 87 92 3f 0d b2 15 40
       2.0575318 2.114176 1.1447743 2.3389924
000040 02 c6 18 40 73 d9 11 40 44 07 0f 40 c4 8a 0e 40
       2.3870854 2.278897 2.2348185 2.2272196
000050 42 59 08 40 41 dc 13 40 77 c7 08 3f 87 3e 13 40
       2.1304479 2.3103182 0.5342936 2.3006914
000060 58 52 0c 40 f0 77 04 40 21 5d 05 bf e3 c4 3a be
       2.1925259 2.0698204 -0.5209523 -0.18239169
000070 82 35 23 c0 f0 3b 1a 40 33 51 cb 3f 7d 1c f5 3f
       -2.5501409 2.4099083 1.5884155 1.9149319
000080 f8 92 a2 bd ea 41 14 40 e5 42 11 40 c0 ed 15 40
       -0.07938188 2.316523 2.269708 2.342636
000090 48 4c 01 40 24 30 88 bc 56 2b 11 40 8c a3 c3 3f
       2.0202808 -0.016624518 2.26827 1.5284286
0000a0 ff fe 0f 40 e9 cc 43 c0 68 1e 0d 40 d6 99 0e 40
       2.2499387 -3.0593817 2.2049809 2.2281394
0000b0 bb fc c2 3f c9 7f 11 40 7d 7b 11 40 ef 37 0d 3e
       1.5233377 2.2734244 2.2731621 0.13790868
0000c0 a6 29 0b 40 30 90 1c c0 57 0d 18 40 f1 23 11 40
       2.174417 -2.4463005 2.3758142 2.2678187
0000d0 e9 81 0b 40 64 9a 1f 40 4b 01 0c 40 86 c9 00 40
       2.179804 2.4937983 2.187579 2.0123
0000e0 43 30 0e 40 c9 72 1c 40 6a 59 01 40 49 44 13 40
       2.2216957 2.444506 2.0210824 2.3010428
0000f0 ab f2 4b 3f 88 50 52 bf 26 67 0a 40 ae 5e c5 be
       0.79667157 -0.8215413 2.1625457 -0.38548797
000100 74 ed 9a bf ff 16 14 40 9d 46 af bd 32 55 22 40
       -1.2103715 2.3139036 -0.0855839 2.53645
000110 f6 70 08 40 13 cd 13 40 eb ca 4e bd c4 06 19 40
       2.1318946 2.3093917 -0.050486486 2.391038
000120 e1 bf 09 40 96 f3 19 40 70 d9 10 40 30 66 a5 bd
       2.1523364 2.4054923 2.2632713 -0.08076131
000130 a1 2b 12 40 9e ff 06 40 99 ef a4 3f d1 c5 f6 be
       2.283913 2.1093516 1.2885619 -0.48197797
000140 3c 51 14 40 53 d1 19 40 84 3b 17 40 5f d3 00 40
       2.3174582 2.4034011 2.3630075 2.012901
000150 31 b7 4b c0 66 b8 11 40 47 55 17 40 4c da 0d 40
       -3.183056 2.2768798 2.36458 2.2164488
000160 5d cb 38 bf 4b 33 10 40 d5 d6 12 40 ef e6 fd bf
       -0.7218531 2.2531307 2.2943623 -1.98361
000170 26 3a 17 40 30 21 16 40 df 78 ca be fe 5a 1b 40
       2.362924 2.3457756 -0.39545342 2.4274287
000180 a8 85 06 40 e3 e7 66 bf 6c b3 03 40 e4 e1 8f be
       2.1019077 -0.9019758 2.057826 -0.28102028
000190 a3 55 0c 40 41 be 15 40 12 ea 20 40 56 4f 11 40
       2.1927269 2.3397372 2.5142865 2.2704673
0001a0 e5 d9 78 be 19 22 0f 40 d2 6c 0b 40 5c 53 e5 be
       -0.2430187 2.2364562 2.1785169 -0.4479016
0001b0 2d 37 3e bc 03 07 cb bd 38 4d 07 40 94 09 0e 40
       -0.011609835 -0.09913447 2.114088 2.2193346
0001c0 2b 73 13 40 fc 69 15 40 97 2f 11 40 78 5b 18 40
       2.3039043 2.3345938 2.2685297 2.3805828
0001d0 b5 52 0c 40 a3 e8 a4 be 44 d6 0d 40 ea a0 0d 40
       2.192548 -0.32208738 2.2162027 2.2129464
0001e0 1e ca 65 3f 62 74 74 bd d7 61 45 be 57 e4 1d 40
       0.8976153 -0.059681304 -0.19275604 2.4670618
0001f0 4d 40 1c 40 0b 39 0f 40 56 46 d8 3f da 6c 16 40
       2.4414246 2.2378566 1.6896465 2.3503938

weight f4 [1, 128]
000000 d6 e9 97 be 29 80 8e be 3a 02 8c 3f 7d 93 c8 be
       -0.2967059 -0.27832153 1.093818 -0.39175025
000010 8e ec 9e be 8f 7e 3a be 95 8b 5f be 47 e3 91 be
       -0.31039852 -0.18212341 -0.2183059 -0.2849371
000020 dc 69 50 be 30 a9 8b be 88 01 5d be 6a e1 14 ba
       -0.20352882 -0.27277517 -0.21582615 -0.0005679341
000030 4f ec 8f be db 22 8d be 2c d4 3a bf d1 67 27 be
       -0.28109977 -0.27565655 -0.7298 -0.16348197
000040 a6 b1 47 be f9 40 45 be 20 51 6c be 20 f2 62 be
       -0.19501361 -0.19263066 -0.23077822 -0.22162676
000050 9b 1b 8b be 5a d9 48 be e8 f8 06 c0 8d 4c 2c be
       -0.271695 -0.19614163 -2.108942 -0.16826077
000060 35 83 64 be 7b 7b 94 be cd b8 5e ba 44 a4 79 b9
       -0.22315677 -0.29000458 -0.00084961654 -0.00023807684
000070 4d 9c 2f 3f c0 4a 59 be 58 14 ee be 36 2e b8 be
       0.6859787 -0.21219921 -0.46499896 -0.35972756
000080 1e 2d 0f 3a de a7 6c be 12 cd 45 be 2c b2 75 be
       0.000546174 -0.23110911 -0.1931651 -0.23993748
000090 c0 1d 72 be cb b8 5e 3a 53 c0 43 be 44 a9 29 bf
       -0.23644161 0.0008496164 -0.19116335 -0.66273904
0000a0 e0 9c 3e be f4 c3 b4 3f 8c 54 46 be 13 22 4c be
       -0.1861453 1.41223 -0.1936819 -0.19934873
0000b0 d9 2e 34 bf b4 60 50 be 0a 65 3b be 6a 36 b3 3f
       -0.70383984 -0.2034939 -0.18300262 1.4000981
0000c0 ef ba 81 be 64 69 6c 3f 0a 2c 40 be f0 ff 3e be
       -0.25337932 0.92348313 -0.187668 -0.1865232
0000d0 05 0b 5b be 75 0a 6f be 77 6c 72 be a4 07 a8 be
       -0.21390922 -0.23343833 -0.23674189 -0.3281833
0000e0 1a fa 3a be b1 8b 55 be af 43 77 be 3a 48 3c be
       -0.18259469 -0.2085407 -0.24146913 -0.18386927
0000f0 d8 b6 5f bf 54 fb 4d 39 9c a0 8b be 5f a0 ad 39
       -0.8738837 0.0001964395 -0.27270973 0.00033116617
000100 6d 92 b5 3e 31 ff 5d be ba 99 ce 38 70 a0 3b be
       0.35463277 -0.21679379 9.851479e-05 -0.18322921
000110 c2 97 6d be 85 00 d9 be ce b3 a6 b9 93 f8 5f be
       -0.23202422 -0.4238321 -0.00031795952 -0.21872167
000120 b4 28 b6 be c6 62 73 be 0f 28 4e be 17 2d 0f 3a
       -0.3557793 -0.23768148 -0.20132469 0.0005461736
000130 57 3f 6d be 94 98 8e be 8f 8a cd 3f 4c ab 06 ba
       -0.23168693 -0.27850783 1.605791 -0.00051372196
000140 f0 f9 23 be 95 d6 4a be 07 ad 4f be 5f 0d 85 be
       -0.16013312 -0.19808419 -0.20280848 -0.25986764
000150 b8 55 b5 3f bb c6 46 be 98 d9 df be e7 2d 42 be
       1.4166784 -0.19411747 -0.43720698 -0.18962823
000160 6a ea a5 3f 0d cd 44 be 62 56 43 be 03 b9 0c 3f
       1.2962162 -0.19218846 -0.19075921 0.54969805
000170 8d 3d 46 be 12 cc 2e be 14 1b a9 39 bd 6d 50 be
       -0.19359417 -0.17070034 0.00032254367 -0.20354362
000180 5c 23 7e be 51 e8 10 b8 6d c5 7f be a6 21 8c 3a
       -0.24818176 -3.4548637e-05 -0.24977656 0.001069118
000190 cd 5e 2b be e4 3e 45 be c6 56 3f be aa a8 42 be
       -0.16735382 -0.19262272 -0.18685445 -0.19009653
0001a0 c7 bd 61 39 91 40 55 be d9 00 4c be 77 e1 14 3a
       0.0002152837 -0.20825411 -0.19922198 0.0005679349
0001b0 5e eb 98 b9 67 e1 14 3a 97 1b 4a be db 40 67 be
       -0.0002916706 0.00056793395 -0.19737087 -0.22583334
0001c0 c7 e4 3f be 3a 32 44 be be 2f 76 be 00 ac 3e be
       -0.18739615 -0.19159785 -0.2404165 -0.186203
0001d0 2f 37 58 be 60 b7 2a ba 26 61 5b be 06 8a 5b be
       -0.21114801 -0.00065123104 -0.21423778 -0.2143937
0001e0 05 21 26 40 eb 4f 0a 39 32 ea 98 39 7d e6 58 be
       2.5957654 0.00013190477 0.00029166188 -0.21181674
0001f0 e6 3d 29 be 1e 39 56 be eb b2 f8 be 10 c7 62 be
       -0.16527519 -0.20920226 -0.48574004 -0.22146249
