data/ip/nn_e_fvC_svB_n1_tmi0_sd777.pt (torch, 280143 bytes, 7 tensors)

weight f4 [512, 2]
0	0x3a84dd99	0.0010136842
1	0x39ec8f3c	0.00045120146
2	0xb9c8306a	-0.00038183044
3	0x39015dc9	0.00012337336
4	0x3a366fe7	0.0006959424
5	0x3895983b	7.133229e-05
6	0x388dfc28	6.770372e-05
7	0xb97749f4	-0.00023583305
8	0xb9ea93da	-0.00044742116
9	0x3975b7e1	0.00023433521
10	0xba2613b0	-0.0006335331
11	0xb86fbc05	-5.7157147e-05
12	0x3a064a4b	0.0005122765
13	0x39a3eae4	0.0003126479
14	0xba6e492c	-0.0009089883
15	0xb9d74d69	-0.0004106567
16	0xba0d5aee	-0.0005392273
17	0xb9bbd1e4	-0.000358238
18	0xb8ba7066	-8.890107e-05
19	0xb89d0c4d	-7.4886346e-05
20	0x39b5328d	0.00034560674
21	0xb92147fe	-0.00015380976
22	0x39f7d3c7	0.00047269298
23	0xb9ba677c	-0.00035553786
24	0xba28f5d6	-0.0006445324
25	0x38ae82ad	8.321307e-05
26	0xb9a24af6	-0.00030954898
27	0xb9b8b9e9	-0.0003523373
28	0x39b01818	0.00033587287
29	0xba2ef434	-0.00066739623
30	0x39480fc4	0.0001907936
31	0xb9f258aa	-0.00046223897
32	0x39fb03db	0.00047877323
33	0xba4baf07	-0.00077699166
34	0xba0d625e	-0.0005393381
35	0x3a0495c7	0.0005057719
36	0xb9b2e407	-0.000341207
37	0x3a0814f6	0.00051911117
38	0xb916f98d	-0.0001439808
39	0xba0bcd41	-0.00053330144
40	0x3a7c1b6b	0.00096171227
41	0xba0f22c3	-0.0005460197
42	0x38c10aba	9.204955e-05
43	0x3a57e09c	0.00082350685
44	0x3992edb9	0.00028024407
45	0xb9ec7214	-0.00045098423
46	0xba7a5f88	-0.00095509784
47	0xba33e018	-0.00068617007
48	0x38339c3f	4.282244e-05
49	0x39bf38cb	0.00036472673
50	0xbac37870	-0.0014913213
51	0xba235a5f	-0.0006231423
52	0xb9c85267	-0.00038208367
53	0x38079627	3.232635e-05
54	0xb90f342f	-0.00013656983
55	0xba1e61fc	-0.00060418225
56	0x3955a047	0.00020372971
57	0x38d31ae6	0.00010066274
58	0xb8c9a04f	-9.614287e-05
59	0xb6c3324a	-5.8173073e-06
60	0xba4a9eb4	-0.0007729337
61	0xbabef043	-0.0014567453
62	0x3a9b0a79	0.0011828683
63	0x3a53d9cc	0.00080814655
64	0xba6171a7	-0.00086000044
65	0x369375a2	4.3946357e-06
66	0xba7f5df3	-0.00097414776
67	0x398b569f	0.00026576684
68	0x39cde541	0.00039271454
69	0xba0daf6b	-0.00054048625
70	0x3a226484	0.00061947876
71	0xb9cdd5e4	-0.00039260008
72	0xbf6d8c1d	-0.9279192
73	0x3f6a6472	0.9155952
74	0x3a55d7fb	0.0008157489
75	0x3a85590d	0.0010173634
76	0x383f5542	4.561735e-05
77	0x38d6ac56	0.00010236415
78	0x3a106ff8	0.00055098487
79	0xb9b7e8cc	-0.00035077927
80	0x3b84bedf	0.004051074
81	0xba5b5258	-0.0008366457
82	0x3981ba62	0.00024743663
83	0x3942f2ce	0.00018591734
84	0xbf489540	-0.7835274
85	0x3f45cdf9	0.77267414
86	0xb896657f	-7.1714625e-05
87	0x3a35a76d	0.00069295504
88	0xba2919f8	-0.0006450708
89	0xb8fa1596	-0.0001192495
90	0x3c2a24a8	0.010384716
91	0x3c0609f3	0.008181083
92	0x3a525397	0.000802332
93	0xba0ddd34	-0.0005411685
94	0xba4285fa	-0.0007420477
95	0x39ba275f	0.00035506018
96	0xba652fcc	-0.0008742779
97	0x38df4ffc	0.00010648367
98	0x394d15c6	0.00019558435
99	0xba1be0e9	-0.0005946295
100	0x3a035499	0.00050098595
101	0xbaf5a4b3	-0.0018741101
102	0x3998db4d	0.0002915509
103	0xba658371	-0.0008755243
104	0x386c2210	5.6298508e-05
105	0x39246c38	0.00015680573
106	0xba7f6486	-0.0009742457
107	0xbabb5b3a	-0.0014294155
108	0xbb9a068a	-0.0047004865
109	0xba90e1a5	-0.0011053575
110	0xba0045c1	-0.00048932066
111	0x38fb3b30	0.00011979637
112	0x3a711ecc	0.00091980095
113	0xbad3cb83	-0.0016158674
114	0x3e83a2f8	0.25710273
115	0x3e71ae7a	0.23601714
116	0xb9c5d955	-0.00037736693
117	0xb9eb4fe6	-0.00044882222
118	0xba4daca0	-0.00078458525
119	0x39c2a47c	0.00037125114
120	0x39c9c05c	0.00038481026
121	0x39228368	0.00015498477
122	0xba7c31dd	-0.00096204673
123	0xb9e69bf1	-0.00043985204
124	0xb9a51645	-0.00031487845
125	0x39db3bf9	0.00041815618
126	0x38522c87	5.010937e-05
127	0x36ca9cff	6.038346e-06
128	0x3a31baac	0.00067798304
129	0x3a1866b4	0.0005813644
130	0x38d4ba25	0.0001014362
131	0x39e3fe18	0.0004348613
132	0xb938aa5b	-0.0001761107
133	0x3abaace3	0.0014242198
134	0xb6301811	-2.6240052e-06
135	0x39a6eb87	0.0003183747
136	0x384b8dd9	4.8531077e-05
137	0x38e6104f	0.00010970292
138	0xbc56e041	-0.01311499
139	0xbd089520	-0.03334534
140	0xbf274f9a	-0.6535584
141	0x3f271efa	0.6528164
142	0xba0ab4ea	-0.00052912405
143	0x3967801b	0.000220776
144	0xb938c7a9	-0.00017621987
145	0x389fcd31	7.619931e-05
146	0x39e3fb1a	0.000434839
147	0xb936d388	-0.00017435674
148	0x372cc11d	1.0296962e-05
149	0xba102cc5	-0.0005499835
150	0xba14ad71	-0.0005671597
151	0xb9a7f553	-0.00032035503
152	0xb9bb2310	-0.00035693543
153	0x39b1e158	0.00033927965
154	0x3914d13c	0.00014192326
155	0x3982d8c5	0.00024957038
156	0x38b0050e	8.3932755e-05
157	0xba2d1abe	-0.0006603411
158	0x3a8bfdda	0.0010680512
159	0xb8918cc6	-6.94036e-05
160	0x376d2077	1.413386e-05
161	0x3a1e8f78	0.00060486
162	0xb819af97	-3.6641573e-05
163	0xb95ae2f5	-0.00020874648
164	0xba69f0d2	-0.00089241297
165	0x38c54563	9.406616e-05
166	0x39da93c0	0.00041690283
167	0x39c025f1	0.00036649362
168	0x3a231849	0.00062215753
169	0xba39a99e	-0.0007082465
170	0xb9f88b9d	-0.00047406266
171	0xba3b4c66	-0.0007144868
172	0x3e8b02e0	0.2715063
173	0x3e79f42c	0.2440955
174	0x3abd62ea	0.0014449034
175	0x3967debe	0.00022112855
176	0xb90906ec	-0.00013067917
177	0xb930c464	-0.00016857829
178	0xba553dd6	-0.00081345194
179	0xba4c487e	-0.00077927846
180	0xbf520ba6	-0.82049024
181	0x3f4f2466	0.80914915
182	0x3a48c9cc	0.00076594646
183	0x39a70de6	0.00031863077
184	0x3a17e41f	0.00057941856
185	0x38a95072	8.073532e-05
186	0x39516f36	0.00019973223
187	0xb96182fa	-0.00021506465
188	0xba904955	-0.0011008183
189	0xba8ca389	-0.001072989
190	0xb8ac6d81	-8.221996e-05
191	0x38fd631e	0.00012082442
192	0xb9fc1515	-0.00048080893
193	0xb9f1fbfa	-0.0004615484
194	0xb97dc545	-0.00024201449
195	0x39207ab7	0.00015304504
196	0xb8cd452c	-9.788046e-05
197	0x389d7d40	7.509673e-05
198	0xb9ca745c	-0.00038615137
199	0x3a127908	0.0005587493
200	0xba7a7f96	-0.0009555755
201	0xb8c2fc7a	-9.297668e-05
202	0xb92d863c	-0.00016548572
203	0xba7b5c52	-0.0009588647
204	0x3a7fe33f	0.00097613403
205	0xba1503bd	-0.0005684456
206	0x3b0acdf5	0.002117989
207	0x3a4a61da	0.00077202695
208	0xba2cb617	-0.0006588413
209	0x393d4320	0.0001804945
210	0xb9a48cbb	-0.0003138537
211	0x3a91c1b2	0.0011120348
212	0xb9e4838f	-0.00043585568
213	0xb7c328bf	-2.3264785e-05
214	0x39b8a8f5	0.00035221098
215	0xba29f9e0	-0.00064840727
216	0x392fc890	0.00016764016
217	0x3ba7f734	0.0051259045
218	0xba6be4f7	-0.0008998657
219	0x39ff700d	0.00048720874
220	0x3b8edb83	0.004359664
221	0x3b87506a	0.004129459
222	0x3838a6c9	4.402435e-05
223	0xb9a999de	-0.00032348832
224	0x38bb8d1e	8.94314e-05
225	0x39e83192	0.0004428742
226	0xbbc31b41	-0.0059541767
227	0xbc0e835c	-0.008698311
228	0xb9dbe083	-0.0004193821
229	0x390f5465	0.00013668982
230	0xb934f6b0	-0.00017258036
231	0xb7db76bb	-2.6162123e-05
232	0x390847b9	0.0001299669
233	0xba081f09	-0.0005192613
234	0x390480a0	0.00012636418
235	0x3947efb9	0.00019067423
236	0x39fa01c0	0.0004768502
237	0xba1d50a7	-0.0006001093
238	0xb7c8c6b9	-2.3934395e-05
239	0xba0a9bd2	-0.0005287501
240	0xb9eee3cc	-0.0004556462
241	0x389859cd	7.2646515e-05
242	0xba96af3f	-0.0011496319
243	0xbbb4806a	-0.005508472
244	0xba0c33e6	-0.00053483096
245	0x3843db77	4.6696015e-05
246	0x39b85a6d	0.00035162587
247	0x3a1382e2	0.0005627108
248	0xba45e535	-0.0007549108
249	0xb8a27b1f	-7.747695e-05
250	0x3af29de5	0.0018510191
251	0x3b355f03	0.002767504
252	0x3eaff805	0.3436891
253	0x3ea5976f	0.32342097
254	0x38aee222	8.339087e-05
255	0xb9969282	-0.00028719386

weight f4 [128, 512]
0	0x3a5d96fd	0.000845298
1	0xba1327e6	-0.00056135503
2	0x39c98355	0.00038435558
3	0x3a4ec3f0	0.00078874733
4	0xba148e03	-0.00056669133
5	0x39900989	0.00027472925
6	0x3a89454b	0.0010472921
7	0x399aa3b7	0.00029495146
8	0xb9893596	-0.000261706
9	0x397b15b6	0.00023945313
10	0x39d529cc	0.00040657667
11	0xb9d159e7	-0.0003993057
12	0xb977fcd0	-0.00023649936
13	0xb97f1274	-0.0002432557
14	0x3a14989d	0.0005668493
15	0x3a142bf7	0.0005652303
16	0xb997e0d7	-0.00028968483
17	0xba3c6ea6	-0.0007188119
18	0xb9cb4599	-0.00038771032
19	0xb9cb5ee0	-0.00038789865
20	0xb9a8b7a0	-0.00032180268
21	0xba13f6b4	-0.00056443666
22	0xb99793db	-0.00028911125
23	0x39cbe239	0.00038887726
24	0x3998f3bc	0.00029173295
25	0x3999adc6	0.00029311905
26	0xb97bebe9	-0.00024025109
27	0xba77a90a	-0.0009447491
28	0xb9998b13	-0.00029286052
29	0x3999eb15	0.00029357584
30	0x39923a68	0.00027890806
31	0x398e60d8	0.00027156505
32	0x3a607a66	0.00085631607
33	0x39cc662d	0.0003898604
34	0xb9caad09	-0.00038657364
35	0xba3a4875	-0.0007106134
36	0xb93863da	-0.00017584805
37	0x39f84d58	0.00047359872
38	0xba0e205b	-0.00054216915
39	0xba13e387	-0.0005641509
40	0x3a147582	0.0005663262
41	0xb9eda69b	-0.00045328293
42	0x39654db7	0.00021868093
43	0xba142664	-0.00056514726
44	0x3a13c680	0.0005637184
45	0x3961a4b0	0.00021519023
46	0xb9bc4f32	-0.0003591716
47	0x39737e9f	0.00023221456
48	0xb99963b5	-0.00029256722
49	0x39ac90eb	0.0003291437
50	0x3a87b9f0	0.0010355096
51	0x3996c5bd	0.00028757556
52	0x3a3a06ae	0.0007096332
53	0x38d03f7b	9.930037e-05
54	0xb95e4f03	-0.00021201004
55	0xb9f64b3f	-0.0004697684
56	0x392793f4	0.00015981478
57	0xba1bd9c8	-0.00059452327
58	0xba1f25fc	-0.0006071029
59	0x3a5f64cc	0.0008521795
60	0x3a15047f	0.0005684569
61	0x39cb6552	0.00038794667
62	0x3a5e6d0f	0.0008484879
63	0xb95c79a0	-0.00021026144
64	0x39ac9e77	0.00032924462
65	0x39076032	0.00012910439
66	0xba77b788	-0.00094496505
67	0xba141a2c	-0.0005649652
68	0x38dd92c6	0.0001056544
69	0xba1755a5	-0.0005772955
70	0x3a1dfc64	0.0006026684
71	0x396314d7	0.0002165617
72	0x397bc465	0.00024010388
73	0x39999423	0.00029292805
74	0xb99399f8	-0.0002815274
75	0xba5ed0c1	-0.00084997347
76	0x3a5f0681	0.0008507744
77	0x39ad8e0f	0.00033102973
78	0x3998ceb1	0.00029145696
79	0xb9c90c65	-0.00038346942
80	0x3a1468fb	0.0005661395
81	0xb9acd5c2	-0.00032965658
82	0xba2bbbda	-0.00065511244
83	0xb9cbec44	-0.0003889521
84	0xb9ded8d4	-0.0004250469
85	0x395efe19	0.00021266229
86	0xb9c7c79d	-0.0003810496
87	0x3a1523fc	0.0005689261
88	0xb9912f41	-0.00027691762
89	0x39cb6424	0.00038793788
90	0x3ac30e02	0.0014881494
91	0x397f5f8d	0.0002435429
92	0xba879a54	-0.0010345676
93	0xb9970de2	-0.00028811308
94	0xb9b1af6c	-0.0003389077
95	0xba5e6338	-0.00084834127
96	0xb967b1bb	-0.00022096086
97	0x3992356d	0.00027887095
98	0x3a776a3f	0.0009438134
99	0xb9cf213b	-0.00039506875
100	0x39668288	0.00021983136
101	0xba8defe5	-0.001082894
102	0xb9cc5921	-0.00038976318
103	0x3994d589	0.00028387856
104	0xba13fd03	-0.00056453067
105	0xba5fa3de	-0.0008531193
106	0xba32fee0	-0.00068281405
107	0x39c2539d	0.0003706486
108	0xb9973836	-0.00028842845
109	0xba149fe3	-0.0005669577
110	0x395839cc	0.00020620896
111	0xb9fa5c42	-0.00047752453
112	0x3a14c002	0.00056743633
113	0xb9c1302f	-0.00036847728
114	0xba5ed4af	-0.000850032
115	0x39988f31	0.00029098385
116	0xb9b382a7	-0.00034238884
117	0x3a13cec3	0.0005638415
118	0x3981a5e5	0.00024728398
119	0xb9d1d143	-0.000400195
120	0x3a3f1a7b	0.00072900177
121	0xb974fa5b	-0.00023362918
122	0xb789e489	-1.6438093e-05
123	0xba5f7bfb	-0.00085252494
124	0xba00e724	-0.0004917255
125	0xb953c70b	-0.00020196677
126	0x3a491375	0.0007670441
127	0x3a131c20	0.0005611796
128	0xb9ad3a04	-0.00033040356
129	0xb9f6abff	-0.00047048923
130	0xb99847e7	-0.0002904527
131	0x39cc5c2d	0.00038978588
132	0x39950862	0.0002842574
133	0xba76df43	-0.0009417424
134	0xba15a343	-0.0005708227
135	0xb99a11dc	-0.00029386475
136	0x39caa3ed	0.00038650577
137	0x3a142d66	0.0005652517
138	0x39992646	0.0002921095
139	0x3a5e99c9	0.00084915437
140	0xb9913c0f	-0.00027701302
141	0xba157937	-0.00057019613
142	0x3a14f7f9	0.0005682703
143	0x3abc766b	0.0014378553
144	0xba5d963b	-0.0008452867
145	0x3a5ee5e9	0.0008502887
146	0xba127ea5	-0.00055883295
147	0x38fc76d3	0.00012038429
148	0xb7b402f9	-2.1459056e-05
149	0xb9d13c1e	-0.00039908377
150	0x39c867c9	0.000382243
151	0x3a0b394e	0.0005310968
152	0xb9ca4140	-0.00038577057
153	0xb99848b8	-0.0002904588
154	0xba12ef10	-0.0005605081
155	0x39627824	0.00021597795
156	0x399d154d	0.00029961244
157	0x39995dd1	0.00029252333
158	0xb9814cb3	-0.00024661943
159	0xb996562f	-0.0002867444
160	0xba5f14d3	-0.0008509878
161	0xba0634b3	-0.0005119547
162	0xba0c2f78	-0.00053476496
163	0x3a0fcc74	0.0005485483
164	0xb95142f3	-0.00019956734
165	0x39ad8659	0.00033097228
166	0xb8ce1622	-9.826968e-05
167	0xb9533174	-0.00020140951
168	0xb9fc38a7	-0.00048107395
169	0xb9aece2f	-0.00033341485
170	0xba463b38	-0.0007561925
171	0xb9e43b05	-0.00043531522
172	0x3a931add	0.0011223216
173	0x3960f079	0.00021451888
174	0x39615fa5	0.00021493302
175	0xb9631d3d	-0.00021659299
176	0xba3ff06c	-0.00073218974
177	0xba1480be	-0.0005664936
178	0xb89b2f86	-7.399828e-05
179	0xba02e9ac	-0.0004993926
180	0x39aead74	0.000333171
181	0xba1520c9	-0.00056887843
182	0x399848e6	0.00029046013
183	0xb99420f8	-0.00028253323
184	0xb9c685b1	-0.0003786511
185	0x396f4d4b	0.0002282161
186	0x3a147c85	0.0005664307
187	0x39685c44	0.00022159616
188	0x39ac96c7	0.00032918734
189	0x3a0b88c9	0.0005322812
190	0xba14ae9c	-0.0005671771
191	0x399a3fee	0.000294208
192	0xb9cf8288	-0.0003957937
193	0xba60287b	-0.0008550954
194	0xb998bcf3	-0.00029132477
195	0x399b0f0d	0.00029575118
196	0xb7ac8652	-2.0566546e-05
197	0x39cb2984	0.0003875011
198	0xb9c9059f	-0.00038341896
199	0xba13b667	-0.0005634785
200	0xb9abcaf5	-0.00032766876
201	0x3a77e4e8	0.0009456412
202	0xb99a56eb	-0.00029437928
203	0xb993dca4	-0.00028202415
204	0x39c4aea6	0.00037514156
205	0xb98044a2	-0.00024465198
206	0x39739184	0.00023228495
207	0x39995217	0.00029243596
208	0x3780a44b	1.5335294e-05
209	0x3a78158f	0.00094636617
210	0xba16cdfd	-0.00057527405
211	0x39c8fa60	0.00038333517
212	0x38f6640c	0.00011748829
213	0xba3385ce	-0.00068482466
214	0x3a1416be	0.0005649141
215	0xb997e9ff	-0.00028975305
216	0xb95f3552	-0.000212868
217	0x3a144b9d	0.0005657019
218	0x39b4f7ee	0.00034516997
219	0xba134f4e	-0.00056194223
220	0x399c4a02	0.0002980978
221	0xba0b2973	-0.00053086056
222	0x394df8d7	0.00019643024
223	0xb9bf8a2e	-0.0003653331
224	0x3a0f34df	0.00054628955
225	0x39cc41c3	0.00038958908
226	0x3991e92f	0.0002783029
227	0xb997d881	-0.00028962272
228	0x37f9b181	2.976577e-05
229	0x3909725e	0.00013107943
230	0x3a145c66	0.00056595204
231	0x3a1451eb	0.00056579587
232	0x395fc313	0.00021339608
233	0xb9b11d97	-0.00033782117
234	0x3a152d7d	0.0005690677
235	0x39f43bdd	0.00046583908
236	0x39947ad9	0.00028320288
237	0x39acd08d	0.0003296178
238	0xb97c2604	-0.00024046755
239	0x3a668a56	0.00087944174
240	0xb9df2d6d	-0.0004256772
241	0xba17154f	-0.0005763368
242	0x3a140efc	0.0005647985
243	0x39946255	0.00028302023
244	0xb9ddfe21	-0.00042341746
245	0x39e09129	0.00042832762
246	0x3a15c3cf	0.00057130767
247	0xb9fbc46e	-0.00048020802
248	0xb9ad1b7a	-0.00033017603
249	0xba5ee04c	-0.0008502051
250	0xb999c0dc	-0.00029326126
251	0x394067ca	0.00018349211
252	0xba13a4fd	-0.000563219
253	0xb997604a	-0.00028872705
254	0x3a1356c0	0.0005620532
255	0x3a16ccd9	0.00057525706

weight f4 [8, 128]
0	0x3a014719	0.0004931554
1	0xba3f7b07	-0.0007304404
2	0xb8bacb22	-8.9070076e-05
3	0xbac7dc98	-0.0015248237
4	0xbd23d513	-0.039998125
5	0x39c0a168	0.0003674135
6	0xb8b9981a	-8.8498186e-05
7	0xb7c16687	-2.3055136e-05
8	0xb89b2cd0	-7.399323e-05
9	0xba6a4efe	-0.00089381624
10	0x39314f0e	0.00016909486
11	0x39ba081b	0.00035482724
12	0x3a096344	0.0005240927
13	0xba87f3d8	-0.0010372354
14	0xb98df837	-0.0002707855
15	0xba10d4a1	-0.0005524848
16	0xba05461d	-0.0005083995
17	0x39158147	0.00014257907
18	0x390fe87f	0.00013724154
19	0x3a072cf4	0.000515654
20	0xb9ca71bb	-0.00038613178
21	0x39977f8d	0.00028895997
22	0x399ada6c	0.00029535906
23	0x391332f2	0.00014037991
24	0xb9a8d3b4	-0.00032201188
25	0x3d967a58	0.07347554
26	0x384d69d2	4.897436e-05
27	0x39a36236	0.00031162956
28	0x39968bf6	0.00028714509
29	0xbda13eff	-0.07873344
30	0xba77be5c	-0.0009450668
31	0xb52b5514	-6.382627e-07
32	0xb7f7cd69	-2.9540346e-05
33	0xb95d8719	-0.0002112653
34	0x389719b2	7.205027e-05
35	0xb855dfc3	-5.099155e-05
36	0x392622aa	0.00015843907
37	0x388bbe6d	6.663506e-05
38	0xb5b64fad	-1.3583245e-06
39	0x397a99a4	0.00023899094
40	0xba4f83e9	-0.00079160795
41	0xb9e19c19	-0.00043031646
42	0xb9a36586	-0.00031165424
43	0x38ad537a	8.2648316e-05
44	0x39465d72	0.00018917563
45	0x37137267	8.788519e-06
46	0xb7b483f8	-2.1519125e-05
47	0xb94ae10a	-0.00019348055
48	0x382d7849	4.135844e-05
49	0xb80f09c2	-3.4102944e-05
50	0x3a7eedbe	0.00097247574
51	0xb930ad41	-0.0001684921
52	0xb98e28ac	-0.00027114653
53	0xbe7f8668	-0.24953616
54	0x399051cf	0.00027526772
55	0x39e13d71	0.00042961122
56	0xbc311134	-0.010807324
57	0x3800d241	3.0713392e-05
58	0xb8c3a402	-9.3288734e-05
59	0x394b7a47	0.0001940514
60	0xb9166b9f	-0.00014345207
61	0x3cc57cc1	0.024107339
62	0xba27d4db	-0.00064022624
63	0xba8577e2	-0.0010182823
64	0x39910bf4	0.0002766546
65	0xb8dcf204	-0.000105354964
66	0x3a1bf31f	0.00059490086
67	0xb8ddddab	-0.0001057939
68	0xbbb67a97	-0.005568813
69	0xba3f9014	-0.0007307541
70	0x38f24892	0.000115529765
71	0x3d18b4cd	0.0372818
72	0x385aa656	5.2130163e-05
73	0xb9009b5b	-0.00012264906
74	0x399c726f	0.00029839898
75	0xba2077fe	-0.0006121396
76	0xb75ae276	-1.304654e-05
77	0xbcb006b0	-0.021487564
78	0xb9b84154	-0.00035143888
79	0xb8d037af	-9.928585e-05
80	0x37b8c86e	2.2027842e-05
81	0xb9f2c132	-0.0004630178
82	0xb88067a0	-6.122817e-05
83	0xb9b8c228	-0.00035239873
84	0xb93b37e9	-0.00017854538
85	0x393ce61e	0.00018014802
86	0x394a831a	0.0001931306
87	0xb9cc6afc	-0.00038989622
88	0xba2520cf	-0.00062991393
89	0xb9877912	-0.0002583941
90	0x37999ff8	1.8313513e-05
91	0x38bb57eb	8.933231e-05
92	0xbb1b0b72	-0.0023657945
93	0x390ed72b	0.00013622332
94	0x38b2114b	8.4909225e-05
95	0x383ec97f	4.5487188e-05
96	0x38a0448a	7.642161e-05
97	0x3861cc70	5.3834578e-05
98	0xba3b3e21	-0.0007142742
99	0xba3137ed	-0.0006760348
100	0x3e30208c	0.17199916
101	0x383a4141	4.4406628e-05
102	0xb9006dd0	-0.0001224794
103	0xbb8161b9	-0.003948417
104	0xba01231b	-0.00049261906
105	0xbb778749	-0.0037769845
106	0xba0bdb41	-0.00053351006
107	0xbe7da766	-0.24770889
108	0xb97f2258	-0.00024331489
109	0xb7f5901e	-2.9273386e-05
110	0xba7a0baa	-0.0009538481
111	0x397176ba	0.0002302778
112	0x3848490f	4.7751757e-05
113	0xb819da1c	-3.6681173e-05
114	0x388a0bee	6.582575e-05
115	0x397d4f1f	0.00024157435
116	0xba50c5e6	-0.00079640595
117	0xb9daab06	-0.00041707623
118	0xb78319e8	-1.562848e-05
119	0xbc6dd5ac	-0.014516275
120	0x3e2f26cc	0.17104644
121	0xba83e482	-0.0010062607
122	0xb9d160e9	-0.0003993579
123	0xb94e993a	-0.00019702772
124	0xbac71671	-0.0015189183
125	0xba226886	-0.0006195385
126	0xb8e5c667	-0.00010956526
127	0xb9a98fff	-0.00032341477
128	0xb977cc00	-0.00023631752
129	0x39969f3c	0.00028728868
130	0x384af5d0	4.8389484e-05
131	0xba2bcc46	-0.00065535714
132	0x3c141581	0.00903833
133	0xb946a915	-0.0001894574
134	0x388c1e1e	6.68133e-05
135	0x39d96410	0.00041464018
136	0xb9776daa	-0.00023596609
137	0xb9b67520	-0.0003480101
138	0xb91a570e	-0.00014719015
139	0x38e4a342	0.00010902296
140	0xb91e6e9d	-0.00015109261
141	0x38ee5b6b	0.00011365752
142	0xb9d1c1f4	-0.00040008093
143	0xba62e237	-0.00086549245
144	0xb9b0c0a4	-0.00033712864
145	0xb951c3bd	-0.00020004711
146	0x396ea658	0.00022759417
147	0x380f0e31	3.4107074e-05
148	0xb7cc2a88	-2.43385e-05
149	0x3a26e154	0.0006365974
150	0x39a1795e	0.0003079874
151	0x399ecd95	0.0003028928
152	0x397aac1c	0.00023905974
153	0xba2083e5	-0.00061231694
154	0xb9ad78ee	-0.0003308723
155	0x3a74afc7	0.0009334054
156	0xba4f2363	-0.00079016964
157	0xbc1f9ecb	-0.009742449
158	0x3893b41a	7.043053e-05
159	0xb98f1055	-0.00027287254
160	0xba0f7bf7	-0.0005473489
161	0x39a521ec	0.00031496526
162	0x3a69df95	0.0008921561
163	0x38f9ea27	0.000119168595
164	0xba084572	-0.00051983364
165	0xb95f86b2	-0.00021317115
166	0x388b63a6	6.6465975e-05
167	0x39a60e77	0.00031672764
168	0x3a386f17	0.00070355966
169	0x3adced7c	0.0016855444
170	0x38b8f92d	8.820216e-05
171	0xb8e8539e	-0.00011078197
172	0x3a1834b8	0.00058061955
173	0x38ba2b07	8.8771856e-05
174	0xb979909a	-0.00023800359
175	0xb8a29bb4	-7.753764e-05
176	0xb84d3872	-4.8928378e-05
177	0xb9c51838	-0.00037592812
178	0x3ab4c9ee	0.001379309
179	0xba2fccd9	-0.0006706245
180	0x3a093a65	0.0005234837
181	0xbfa416bd	-1.2819439
182	0x396085f6	0.00021412209
183	0x3ab5286d	0.0013821252
184	0x3a80a2a2	0.0009814093
185	0xb907fdc2	-0.00012969135
186	0xbacc7ac1	-0.0015600548
187	0xba3608e5	-0.00069440744
188	0x3895a3e1	7.1353985e-05
189	0x3ada8578	0.0016671857
190	0x39c2ca97	0.00037153505
191	0xba2c0704	-0.00065623247
192	0x39dc26dd	0.00041990625
193	0xb701f709	-7.7465165e-06
194	0xb8cafdc1	-9.679376e-05
195	0xb934f2ce	-0.0001725659
196	0x3b023c96	0.0019872538
197	0x39d31607	0.00040261468
198	0x38817899	6.1736624e-05
199	0xbd165eae	-0.036711387
200	0x38b76795	8.745414e-05
201	0x3993595b	0.000281046
202	0xb90589e3	-0.00012735235
203	0x3a1a1ed1	0.0005879226
204	0x392cf561	0.00016494609
205	0xbced3142	-0.028954152
206	0xb93ea62e	-0.00018181719
207	0xba194c1e	-0.0005847829
208	0x397cc960	0.00024107611
209	0x3a595d7f	0.0008291825
210	0xba59b189	-0.0008304348
211	0xb95bf9da	-0.00020978544
212	0x37ef13fd	2.8500328e-05
213	0x399cbb86	0.00029894355
214	0x398c1d96	0.00026724924
215	0xb99d6054	-0.00030017144
216	0x38eeedbc	0.00011393006
217	0xb92ea1e2	-0.00016654239
218	0xb89c5ae7	-7.4555915e-05
219	0xb99bb604	-0.00029699516
220	0xba3ce9bf	-0.0007206462
221	0xb8430c9f	-4.6503377e-05
222	0x3a2ac941	0.00065149745
223	0xba2694d3	-0.0006354574
224	0x38a6cd86	7.9537785e-05
225	0x39c53e0e	0.00037621002
226	0xb71ed3ec	-9.466876e-06
227	0xb8616289	-5.373595e-05
228	0x3ddf3879	0.10899443
229	0x39880ec5	0.00025950946
230	0x3a545d04	0.00081010186
231	0x3a17e364	0.0005794077
232	0xb7a209dd	-1.9316498e-05
233	0xbad80d7b	-0.001648351
234	0xba16f117	-0.0005757971
235	0xbfa54c8c	-1.2913985
236	0xb96d2507	-0.00022615875
237	0xb93246c5	-0.00017001767
238	0x39f91680	0.00047509745
239	0x3920274c	0.00015273428
240	0xb9a34b24	-0.00031145767
241	0x38878f9f	6.464053e-05
242	0x399777f1	0.00028890328
243	0xba9510b7	-0.0011372779
244	0x3a3e4a38	0.0007258984
245	0x3a75b119	0.0009372398
246	0xb8cbc14c	-9.715799e-05
247	0x3a3b92d1	0.0007155361
248	0x3deeacd3	0.11654057
249	0x39a752f2	0.0003191452
250	0xb987be93	-0.00025891195
251	0xb92df46b	-0.00016589618
252	0xb8c23ed1	-9.262341e-05
253	0xb9ddf74c	-0.00042336655
254	0xb93d312e	-0.00018042765
255	0x38b62366	8.68503e-05

bias f4 [8]
0	0x3e1726a0	0.14760828
1	0x3f6fce2f	0.93673986
2	0x3f99b74c	1.2009063
3	0xbd577505	-0.052601833
4	0x3f6f3897	0.93445724
5	0x3e11c552	0.14235428
6	0xbe0dcd47	-0.13847838
7	0xbdafdc1c	-0.085869044

weight f4 [128, 10]
0	0xbe7eb7c8	-0.24874794
1	0xbe30cde5	-0.17266043
2	0x3a378c2e	0.00070017844
3	0x3bc9a564	0.0061537493
4	0xbded73c7	-0.115943484
5	0xb998ebb7	-0.0002916732
6	0x3d914199	0.0709259
7	0x3b6b6dfa	0.0035923705
8	0x3a5eb8ce	0.0008496166
9	0x3a14e16f	0.0005679344
10	0xbe77c655	-0.24196751
11	0xbe2d42fe	-0.16920087
12	0x3c26eccd	0.010188294
13	0x3bc70ecd	0.0060747624
14	0xbd839bcc	-0.064262
15	0xba14e169	-0.00056793407
16	0x3d77429d	0.06036626
17	0x3c9fa5ae	0.019488182
18	0x397e1f6a	0.0002423503
19	0x3a5eb8d7	0.0008496171
20	0x3deb62e4	0.11493471
21	0x3cb734cf	0.022364048
22	0xbddcbb4c	-0.107779115
23	0xbdb8f6b4	-0.0903143
24	0x3f156d3d	0.5836981
25	0xb97adaf8	-0.0002392343
26	0xbe6c102a	-0.23053041
27	0xbeb2f318	-0.3495109
28	0xb810e852	-3.454864e-05
29	0x3998ebaa	0.00029167283
30	0xbe5b9aac	-0.21445721
31	0xbe23f65c	-0.16011947
32	0x39cea88f	0.00039416968
33	0x3c5bdf02	0.013419868
34	0xbd8c2d74	-0.06844607
35	0xb913b670	-0.00014086976
36	0x3d647183	0.055772316
37	0x3b2e0f31	0.0026559348
38	0x3994197a	0.0002824774
39	0xb97e1f72	-0.00024235042
40	0xbe5d7145	-0.2162524
41	0xbe3028a5	-0.17203005
42	0x3aaf8404	0.0013390784
43	0x3c248420	0.010041267
44	0xbd73a4d4	-0.059483364
45	0xba7789af	-0.00094428187
46	0x39980b1d	0.0002899998
47	0x3bb6c9ef	0.0055782716
48	0xb998eb22	-0.00029166887
49	0x3af50cd5	0.0018695841
50	0xbdc39409	-0.0954972
51	0xbd243168	-0.04008618
52	0x3b223b8c	0.002475473
53	0x3a012b35	0.0004927398
54	0x3ad14faa	0.0015969176
55	0xb9ada097	-0.0003311678
56	0xba76fef9	-0.0009422149
57	0x3b29754e	0.0025857273
58	0x39a91b00	0.00032254308
59	0xb9ada073	-0.00033116675
60	0xbdef1689	-0.1167422
61	0xbdea39a3	-0.114367746
62	0xb94b9f0a	-0.00019418835
63	0x3af90cf3	0.0019001052
64	0xbbb1ba42	-0.005423815
65	0xba1410b4	-0.0005648241
66	0xbacb9cdf	-0.0015534422
67	0x3a9e48eb	0.0012076175
68	0x385521fe	5.0814815e-05
69	0xba14e16b	-0.0005679342
70	0xbe7263fe	-0.23670956
71	0xbe2ef971	-0.17087342
72	0x3a92a139	0.0011186964
73	0x3cc0df58	0.023543999
74	0xbda0f202	-0.07858659
75	0x3a778a0b	0.0009442872
76	0x3d882504	0.06647685
77	0x3c11ae40	0.008891642
78	0xba14e16a	-0.0005679341
79	0xb8cf3e5b	-9.882144e-05
80	0xbd84e702	-0.06489374
81	0xbc88e0b9	-0.016708719
82	0x3b3c0eb6	0.0028695292
83	0xb95ebbf4	-0.00021241588
84	0xbc0745c0	-0.008256376
85	0x391fe5d3	0.00015249038
86	0xbb683174	-0.0035429867
87	0x3b13bf67	0.0022544505
88	0x3a0f2d1b	0.00054617383
89	0xb97ad9e3	-0.00023923027
90	0xbccbbd3a	-0.024870504
91	0xbc38fffe	-0.011291502
92	0x3ba8c06e	0.0051498925
93	0x3b8d8486	0.0043187765
94	0xbb8b497c	-0.0042507034
95	0xb623387d	-2.4321773e-06
96	0x3b9f6205	0.0048639798
97	0x3b9a64ee	0.004711739
98	0x39ce69a0	0.0003937008
99	0xb962d82f	-0.00021633574
100	0x3a14e16b	0.0005679342
101	0x37b6bd01	2.1784103e-05
102	0x3a66bf22	0.0008802285
103	0xb9cae538	-0.00038699224
104	0xba01cf3d	-0.00049518404
105	0x3a778a07	0.000944287
106	0xb985e514	-0.00025538413
107	0xba5eb8da	-0.0008496173
108	0x39283867	0.0001604274
109	0xb9637887	-0.00021693307
110	0xbd5ff8cf	-0.05468064
111	0xbc24af45	-0.010051553
112	0xb9ef33f6	-0.00045624346
113	0x3b44ef91	0.003005002
114	0xbb05c6fa	-0.0020412789
115	0xb9f4cbaf	-0.00046691063
116	0xbb1ff850	-0.002440948
117	0x3b0662eb	0.0020505737
118	0xba778a08	-0.00094428705
119	0xb998ea48	-0.00029166252
120	0xbe60d916	-0.21957812
121	0xbe443189	-0.19159521
122	0xbb17016b	-0.0023041617
123	0xb9312096	-0.00016892175
124	0xbda55d0c	-0.08074388
125	0xb961c034	-0.00021529273
126	0x3d60fd22	0.054928906
127	0x3c86d3ce	0.016458418
128	0xbab29f55	-0.0013627807
129	0xb962d83f	-0.00021633597
130	0xbe7454fb	-0.23860542
131	0xbe315ac9	-0.17319788
132	0xba78eb34	-0.0009495497
133	0x3ccea680	0.025225878
134	0xbdd7122f	-0.10501515
135	0x3a5eb8dc	0.0008496174
136	0x3d8df202	0.06930925
137	0x3aa09775	0.0012252169
138	0xba269889	-0.0006355127
139	0xba5eb8d8	-0.0008496172
140	0xbe5f28ed	-0.21792956
141	0xbe4f4ed2	-0.20244911
142	0x3b571692	0.003281985
143	0x3c44c8d6	0.012010774
144	0xbd90b790	-0.07066262
145	0xba141089	-0.0005648216
146	0x3d6c2fd8	0.057662815
147	0x3c4305ae	0.01190321
148	0xba14110e	-0.00056482933
149	0x3ab29f59	0.0013627812
150	0xbd84ea6c	-0.06490025
151	0xbd0aa888	-0.03385213
152	0x3b1bc49c	0.0023768311
153	0x3b2681d3	0.002540697
154	0xbbe15388	-0.006876413
155	0x398d4ac0	0.0002694931
156	0x3ab2690e	0.0013611631
157	0x3b68bf27	0.0035514326
158	0x3a8db4db	0.0010811345
159	0xb9cae542	-0.00038699253
160	0xbd5c6084	-0.053802982
161	0xbc8d3ad3	-0.017239964
162	0x3b0e6a63	0.0021730892
163	0xbb5b715f	-0.0033484322
164	0xbc0e39bc	-0.008680757
165	0xba66bf04	-0.0008802267
166	0xbb8f74da	-0.0043779435
167	0x3b039a17	0.0020080858
168	0xba0f2d11	-0.00054617325
169	0xb9a91b14	-0.00032254367
170	0xbd3d5804	-0.046226516
171	0xbce55a2c	-0.027997099
172	0xb96f9779	-0.00022849244
173	0xbab40393	-0.0013733975
174	0xbbcfcb36	-0.0063413633
175	0xb998ea53	-0.00029166284
176	0xbb7cba60	-0.0038563237
177	0x3abbeb01	0.0014337004
178	0xb9ec4d35	-0.00045070951
179	0x39ada077	0.00033116687
180	0xb9ada053	-0.00033116582
181	0x37893207	1.6354968e-05
182	0xb9cae40e	-0.00038698356
183	0xba1410f1	-0.00056482764
184	0x3998ebb4	0.00029167312
185	0x397ad967	0.00023922847
186	0xb9f57642	-0.0004681815
187	0xb998ea20	-0.00029166136
188	0xb9cae576	-0.00038699404
189	0x3961be9d	0.00021528681
190	0xbd6639a6	-0.05620732
191	0xbc28f60b	-0.010312567
192	0x3b676b19	0.0035311638
193	0x3c486e65	0.012233351
194	0xbc10216a	-0.008797029
195	0x3a2e65ac	0.00066527235
196	0x3bbb2cce	0.0057121282
197	0x3b3d8f88	0.0028924663
198	0xb9a91b14	-0.00032254367
199	0xba5eb8ce	-0.0008496166
200	0xbe5ac26d	-0.2136323
201	0xbe3c1af0	-0.18369651
202	0x3a0811fc	0.0005190668
203	0x3c3f8e84	0.011691693
204	0xbdad0289	-0.08447749
205	0xb998ebc3	-0.00029167355
206	0x3da38589	0.07984454
207	0x3c4e5394	0.012593169
208	0x3a4fabea	0.00079220405
209	0x39f57644	0.00046818156
210	0xbc8b4105	-0.016998777
211	0xbb0fd620	-0.0021947697
212	0x3a0e863c	0.00054368726
213	0x3c19c699	0.009385728
214	0xbb900976	-0.004395659
215	0xba141087	-0.0005648215
216	0x3984163e	0.00025193574
217	0x3adcf289	0.0016856949
218	0x3a14e176	0.0005679348
219	0xb9941964	-0.00028247677
220	0xbd38d4a3	-0.04512466
221	0xbcb309e8	-0.02185531
222	0x3b0335b6	0.0020021028
223	0x3aaaf24f	0.0013042184
224	0x3a7d4a8c	0.00096622924
225	0x39941974	0.00028247724
226	0xbab42e8d	-0.0013746783
227	0x3b05dc77	0.0020425597
228	0x3a1410e0	0.00056482665
229	0xb94dfbb8	-0.00019644096
230	0xbcf795fb	-0.030222883
231	0xbc93d82d	-0.018047417
232	0x3aeb9c02	0.0017975571
233	0x3bf23085	0.007391038
234	0xbaefd9f0	-0.0018299203
235	0xb998eb06	-0.00029166805
236	0x3ae28e73	0.0017284885
237	0x3ac98981	0.0015376062
238	0x397ad824	0.00023922377
239	0xb9ada05f	-0.00033116617
240	0xbe64846d	-0.22316141
241	0xbe3f122d	-0.18659277
242	0x3a8b4957	0.0010626715
243	0x3c4b81e8	0.012421109
244	0xbd4c34bf	-0.04985499
245	0x3a778a04	0.0009442868
246	0x3d536454	0.051609352
247	0x3b454f2f	0.0030107012
248	0x390a4feb	0.00013190477
249	0x390a4fef	0.00013190483
250	0xbe592874	-0.21206838
251	0xbe344985	-0.1760617
252	0x3ae4bf1e	0.0017451977
253	0x3c0e018e	0.008667363
254	0xbdadc274	-0.084843546
255	0x3a1410e1	0.0005648267

bias f4 [128]
0	0x4004c7be	2.0746913
1	0x40055677	2.0834024
2	0x3eb96c7d	0.36215582
3	0x3fffa057	1.9970807
4	0x4002b81b	2.042487
5	0x40119137	2.2744882
6	0x400b2d61	2.1746447
7	0x4007d742	2.1225133
8	0x400c487a	2.1919236
9	0x400d4210	2.2071571
10	0xbd070991	-0.032968108
11	0x400c708f	2.19437
12	0x4002f6f5	2.046323
13	0x4003b203	2.05774
14	0x40060407	2.0939958
15	0x40148d04	2.321107
16	0x401467d4	2.3188372
17	0x400bcf6f	2.1845357
18	0xbe231722	-0.15926793
19	0x400bb33b	2.1828144
20	0x4003516a	2.0518441
21	0x400f269d	2.2367318
22	0x400a2eb2	2.1591
23	0x400d58c4	2.2085428
24	0x40075d77	2.1150796
25	0x40038933	2.055249
26	0xbf227960	-0.63466454
27	0xbe14b45f	-0.14521931
28	0xbfdd82b5	-1.7305514
29	0x401470c7	2.3193834
30	0x3f43c7f3	0.76476973
31	0x40043504	2.0657358
32	0x4005be96	2.0897574
33	0x4010f878	2.2651653
34	0x400d34b0	2.2063408
35	0x400dfa42	2.2183995
36	0x3ff818ca	1.9382565
37	0xbf049e1b	-0.5180375
38	0x400c6423	2.1936119
39	0x4006229a	2.095862
40	0x400aea86	2.1705642
41	0x3ef40b56	0.476649
42	0x400b4f9a	2.1767335
43	0x400cfb31	2.2028315
44	0x4007ae3a	2.120009
45	0x400ddc80	2.2165833
46	0x400c6e54	2.194234
47	0x3ea6c793	0.32574138
48	0x3ffd7e08	1.9804087
49	0xbe93c1f5	-0.28858915
50	0x400ef23a	2.2335343
51	0x400c7623	2.1947105
52	0x400acc65	2.1687253
53	0x401616f9	2.3451521
54	0x40058264	2.0860834
55	0x4001123d	2.0167382
56	0x400ce8a1	2.2016985
57	0x40110bdb	2.2663486
58	0x4004d701	2.0756228
59	0x400d51a6	2.2081084
60	0x4000c777	2.0121744
61	0xbf2a3262	-0.6648313
62	0x4004bca5	2.074014
63	0xbf287084	-0.65796685
64	0xbefa8945	-0.48932853
65	0x4004f525	2.0774624
66	0x4001c1f1	2.0274622
67	0x40196730	2.396923
68	0x4008e13f	2.138748
69	0x4006c44d	2.1057312
70	0xbdddf03f	-0.10836839
71	0x400c65fc	2.1937246
72	0x3f3b3919	0.73134
73	0x4012ed8f	2.2957494
74	0x400ac1c7	2.1680772
75	0x3eff607e	0.49878305
76	0x400566f3	2.0844085
77	0x3ffcd551	1.9752599
78	0x4005cfd6	2.0908103
79	0xbe93de96	-0.28880757
80	0x40116452	2.271748
81	0x40167b6a	2.3512826
82	0x400e11a2	2.2198262
83	0x3ffc6060	1.9716911
84	0xbf58f712	-0.84752
85	0x400c7060	2.1943588
86	0x40074f02	2.1141973
87	0x400b2807	2.174318
88	0xbc08a296	-0.008339545
89	0x400abbe2	2.1677175
90	0x400ede18	2.2323055
91	0xc03f86c4	-2.9926004
92	0x400e7f74	2.2265291
93	0x400cde71	2.2010767
94	0x4006cef8	2.1063824
95	0x40139d84	2.306489
96	0x4004855b	2.0706394
97	0xbf5d69e4	-0.864897
98	0x3fff40fe	1.9941709
99	0xbe24d544	-0.1609698
100	0x400a0730	2.1566887
101	0x40107f25	2.2577603
102	0x4018f304	2.3898325
103	0x400dedd2	2.2176404
104	0xbe7101f2	-0.23535898
105	0xbd4285a7	-0.047490742
106	0x400c5fd1	2.1933482
107	0xbe141dde	-0.14464518
108	0xbe2dd949	-0.16977419
109	0xbe17cd59	-0.14824428
110	0x40083cc3	2.1287086
111	0x400a1c1d	2.157966
112	0x400ec7f5	2.2309544
113	0x400fc887	2.2466142
114	0x400edd43	2.2322547
115	0x40148a38	2.3209362
116	0x4001c946	2.0279098
117	0xc01e13d4	-2.4699602
118	0x400826b8	2.1273632
119	0x40032f83	2.049775
120	0x3fd5c31a	1.6700165
121	0xbdfa1b3b	-0.12212225
122	0xc00851ad	-2.129985
123	0x40171d1a	2.3611512
124	0x4014df10	2.3261147
125	0x4005aed3	2.0887954
126	0x4002a5e5	2.0413754
127	0x40118d0c	2.2742338

weight f4 [1, 128]
0	0xbea41c6a	-0.32052928
1	0xbe97ea5c	-0.2967099
2	0x3f398a86	0.72476995
3	0xbe9677b1	-0.29388192
4	0xbe7a5169	-0.24445118
5	0xbe301af9	-0.17197789
6	0xbe2e485b	-0.17019789
7	0xbea1cab4	-0.31599963
8	0xbe124876	-0.14285454
9	0xbe1b5fef	-0.15173315
10	0xb90a4ff8	-0.00013190496
11	0xbe222d4e	-0.15837595
12	0xbe97d871	-0.2965732
13	0xbea3a9a4	-0.31965363
14	0xbe9ebd97	-0.3100402
15	0xbe06f80f	-0.13180564
16	0xbe0de03c	-0.1385507
17	0xbde2adb9	-0.11068291
18	0x3ab29f55	0.0013627807
19	0xbe1d90a8	-0.15387213
20	0xbea550b1	-0.32288125
21	0xbe0fbd30	-0.14037013
22	0xbe03a9e5	-0.12857778
23	0xbdf4fdb7	-0.11962455
24	0xbe94a0a3	-0.29028806
25	0xbe9908de	-0.29889578
26	0xb9cae4dc	-0.00038698956
27	0xb9cae452	-0.00038698554
28	0x3ef89c0c	0.48556554
29	0xbe0badf5	-0.13640578
30	0xbfd0c316	-1.6309536
31	0xbe940c60	-0.2891569
32	0xbdf4fbb1	-0.11962069
33	0xbe2a9142	-0.16656974
34	0xbe271baf	-0.16319154
35	0xbe8aac22	-0.27084452
36	0xbea6225e	-0.32448095
37	0xb9cae414	-0.00038698374
38	0xbe300a6c	-0.17191476
39	0xbe94deeb	-0.29076323
40	0xbe13367e	-0.14376256
41	0x3fedb336	1.8570316
42	0xbe2e1355	-0.16999562
43	0xbe18dc5b	-0.14927809
44	0xbe86407a	-0.26221067
45	0xbe2beb3b	-0.16788952
46	0xbe1d869f	-0.15383385
47	0x3f237a5f	0.638586
48	0xbea67a37	-0.32515118
49	0x39ce699c	0.00039370067
50	0xbe8f92c4	-0.2804166
51	0xbe1ac045	-0.15112408
52	0xbe070937	-0.13187109
53	0xbe0c13b9	-0.13679399
54	0xbea324f8	-0.31864142
55	0xbea99285	-0.33119598
56	0xbe231f1d	-0.15929838
57	0xbde6a05f	-0.11261057
58	0xbe937aa4	-0.28804505
59	0xbe1d773f	-0.1537752
60	0xbea4665d	-0.32109347
61	0x3a661f6e	0.0008778487
62	0xbe9ca13e	-0.30591768
63	0xba5eb8db	-0.00084961735
64	0x3a893574	0.0010468201
65	0xbe8eedbe	-0.27915758
66	0xbea6fbe2	-0.32614046
67	0xbe1c2e2f	-0.15251993
68	0xbe19c4b3	-0.15016441
69	0xbea2bdae	-0.3178534
70	0xba7789f4	-0.0009442859
71	0xbe9aa0be	-0.30200762
72	0xbff145b6	-1.8849399
73	0xbe1e8895	-0.1548179
74	0xbe0613e9	-0.13093533
75	0x3fb64ada	1.4241593
76	0xbea4fe44	-0.3222524
77	0xbe9e8bca	-0.30966026
78	0xbe13b5b1	-0.14424779
79	0x3a661f6e	0.0008778487
80	0xbe25ca0a	-0.16190353
81	0xbe0b438b	-0.13599984
82	0xbe0ceaf2	-0.137615
83	0xbe96f26f	-0.29481837
84	0xbabd1b8e	-0.0014427768
85	0xbe044071	-0.12915207
86	0xbe886652	-0.26640564
87	0xbe1548da	-0.14578572
88	0xba14e165	-0.00056793384
89	0xbe01b156	-0.12665305
90	0xbe188d16	-0.1489757
91	0x3f2b449b	0.6690156
92	0xbe16c1b9	-0.14722337
93	0xbe0364a8	-0.12831366
94	0xbe8d6239	-0.27614
95	0xbe066e8a	-0.13128105
96	0xbe97fd5a	-0.2968548
97	0x3810e82e	3.454851e-05
98	0xbea6efea	-0.32604915
99	0x399469e1	0.00028307646
100	0xbe10fe2d	-0.1415946
101	0xbe1c2227	-0.15247403
102	0xbe0dcae0	-0.13846922
103	0xbe165100	-0.14679337
104	0x3a141079	0.00056482066
105	0x3794dbf5	1.77454e-05
106	0xbe240bfe	-0.160202
107	0x3a1410c8	0.00056482526
108	0x3a0f2d12	0.0005461733
109	0x38cf3e13	9.8820914e-05
110	0xbe51329a	-0.20429459
111	0xbe379bc9	-0.17930521
112	0xbe24c302	-0.16090015
113	0xbe0e2575	-0.13881476
114	0xbe16d90e	-0.14731237
115	0xbe18598c	-0.1487791
116	0xbe9b51b7	-0.3033578
117	0x3f4c4480	0.7979202
118	0xbe08cf94	-0.13360435
119	0xbe9b0e85	-0.30284515
120	0x3f973089	1.1811687
121	0xba778a05	-0.0009442869
122	0x3f16edde	0.58956707
123	0xbe191c66	-0.1495224
124	0xbe0ea904	-0.13931662
125	0xbe1303af	-0.14356874
126	0xbe9d21f0	-0.30689955
127	0xbe2216ea	-0.15829054
