data/ip/nn_e_fvC_svB_n1_tmi1_sd777.pt (torch, 280143 bytes, 7 tensors)

weight f4 [512, 2]
000000 e2 b8 9d 3a 8f 4a 0e 3b 6c 31 e6 bc c3 ab ad bc
       0.0012033249 0.002171192 -0.028099738 -0.021200066
000010 8e ba b8 38 86 3b ad 39 09 4b d9 bb dc f5 db bb
       8.808552e-05 0.0003304148 -0.0066312593 -0.0067126583
000020 16 f7 8b bb 6f 9e 96 bb 2d b2 f1 b8 1a 63 c6 39
       -0.0042713983 -0.0045965235 -0.00011524963 0.0003783934
000030 11 3d c1 b8 22 1f 00 37 81 43 98 b9 16 72 1e b9
       -9.214332e-05 7.636643e-06 -0.00029041994 -0.00015110555
000040 51 49 3d bc 67 86 17 bc db 87 6f b8 7c da 58 b9
       -0.0115531245 -0.009248353 -5.7108566e-05 -0.00020680757
000050 16 6a 98 bb cc 5f a1 bb e3 e7 26 bc 91 67 fc bb
       -0.0046513183 -0.00492475 -0.010187122 -0.0077027758
000060 b9 db e9 b9 c6 2b 2a 39 4c f0 4b 3a c8 7c 91 bb
       -0.0004460493 0.0001622877 0.00077796425 -0.004439924
000070 95 90 02 bd 21 f0 b8 bc aa cf 63 39 a3 f6 53 39
       -0.031876165 -0.02257544 0.00021725768 0.00020214407
000080 5a a0 48 39 b3 4f 90 38 fd 54 c7 b9 da 2f 95 39
       0.00019133222 6.8813e-05 -0.0003801956 0.00028455147
000090 07 42 0d bc 16 bb be bb 80 be ce b9 ba 08 cc b9
       -0.008621699 -0.005820642 -0.00039433315 -0.00038916414
0000a0 b1 b7 0c b8 91 23 5c b5 49 76 6a bc 65 c6 60 bc
       -3.3549677e-05 -8.200814e-07 -0.014310428 -0.013719176
0000b0 69 69 57 b9 d5 01 ab b8 a8 d5 6c 3b fa 9e 6a 3a
       -0.00020543266 -8.154257e-05 0.0036138091 0.0008950081
0000c0 4a 01 6a bd 12 e6 54 bd f9 6a c3 3a ae f4 9a 3a
       -0.057130136 -0.051977225 0.00149092 0.0011822188
0000d0 09 79 6d ba f9 5e e7 3a 94 0a 6f 37 09 bf bd b8
       -0.0009058868 0.0017652205 1.4247973e-05 -9.047805e-05
0000e0 44 04 29 39 39 04 5c b9 5d 28 13 ba be d4 17 ba
       0.00016118685 -0.00020982408 -0.00056136196 -0.0005791894
0000f0 81 0e a3 bb 16 c0 ab bb 48 29 84 bc 9c 0a 60 bc
       -0.0049760942 -0.0052414043 -0.016132966 -0.0136744045
000100 3e e1 59 38 01 d9 6e b9 2e 82 87 3a 2e 2d 49 ba
       5.1946605e-05 -0.00022778289 0.0010338479 -0.0007674274
000110 c5 19 3c bd 23 29 35 bd 78 93 20 bd 00 93 1e bd
       -0.045923013 -0.044228684 -0.039203137 -0.03871441
000120 a9 82 5b bf 69 ac 54 3f af 09 ab 3a e3 85 b2 bb
       -0.85746247 0.8307558 0.0013049151 -0.0054480894
000130 a3 b3 90 bb 90 9c 9a bb be 91 2b 3a f7 98 c2 3a
       -0.0044159456 -0.0047183707 0.00065448496 0.0014846612
000140 db 02 e9 38 dc 8f 32 37 a6 e1 22 3a 56 98 34 bb
       0.00011110838 1.0643122e-05 0.0006213434 -0.002755662
000150 7e f9 2f bf 7f b1 2b 3f c8 8d 78 b9 5b 02 23 bb
       -0.6874007 0.6706771 -0.0002370394 -0.002487323
000160 ec e5 e3 3a 1e b4 f2 3a 63 3b 71 bb 2e 26 2d bb
       0.0017387248 0.0018516814 -0.003680908 -0.0026420462
000170 79 81 c7 3a 0c 12 73 3a c2 9f b5 bb 46 8f 96 bb
       0.0015221081 0.00092724035 -0.0055427263 -0.0045947162
000180 99 e7 df 3a 43 e7 02 3a e8 18 0e ba 5e 61 01 3a
       0.0017082571 0.0004993567 -0.00054205814 0.00049354683
000190 0a ca d7 39 d0 24 30 ba 88 42 1d 39 b7 98 d7 39
       0.00041158526 -0.00067193527 0.00014997472 0.00041121777
0001a0 74 0a ad bc f8 ee 8d bc 04 b9 02 3a c5 5f 44 3a
       -0.021123149 -0.017325863 0.0004986676 0.00074910774
0001b0 5f ce ab b8 67 c7 f3 b7 40 64 11 bc 12 7a 22 bb
       -8.192355e-05 -2.9060711e-05 -0.008873999 -0.0024791998
0001c0 79 ce 22 3b 63 60 c1 b9 b7 e2 2a bd 58 5e 2a bd
       0.0024842306 -0.00036883642 -0.04172012 -0.04159388
0001d0 75 f2 00 ba e4 80 bb 39 1a 42 d0 b9 d0 e2 99 ba
       -0.00049189414 0.0003576345 -0.000397221 -0.0011740569
0001e0 6f 67 72 3b 0e 38 63 3b 93 cc 0e 38 32 84 b2 b9
       0.003698792 0.0034670862 3.4045963e-05 -0.000340493
0001f0 a4 27 10 b9 ba 96 28 b9 4e 44 ea 3a 41 42 19 3b
       -0.00013747677 -0.00016077879 0.001787314 0.0023385438
000200 3a 2e 3d bd 00 cd 14 bd a2 96 40 39 fb 52 f0 b8
       -0.046186663 -0.036328316 0.00018366662 -0.00011459548
000210 5f 6e db ba ad 98 da ba bd a1 82 39 50 e2 f6 38
       -0.0016741267 -0.0016677581 0.00024916037 0.00011772348
000220 cc be 9c 39 85 63 0f 37 26 66 3f 38 07 a9 b9 b8
       0.00029896793 8.546635e-06 4.563308e-05 -8.852971e-05
000230 7d d8 17 bd e9 4e bf bc d6 c3 6a 37 8e da df b8
       -0.037071694 -0.023353057 1.39930835e-05 -0.000106741776
000240 a8 62 fc 3a 8c 94 d6 3a 55 56 aa bc 91 4e ac bc
       0.0019255476 0.0016371175 -0.02079312 -0.021033557
000250 18 e6 86 ba f9 0d 6a ba 19 af 82 b8 86 8a cf b7
       -0.0010291962 -0.00089284737 -6.2314975e-05 -2.4740828e-05
000260 f1 33 a2 ba bf c5 33 3a e3 80 b3 bc e2 97 8a bc
       -0.0012375099 0.00068577746 -0.021912044 -0.016918126
000270 6f 50 40 3a 7c db 9e 3a 67 2f 9a 3a f7 04 58 bb
       0.0007336204 0.0012119855 0.0011763395 -0.0032961944
000280 e3 b0 4b bb 03 8f 1f bc d2 8c 24 b8 4e 3d 6f b9
       -0.0031080774 -0.0097386865 -3.9231796e-05 -0.00022815654
000290 48 be 26 38 d0 88 19 b9 e9 a4 c4 37 be 01 5d 37
       3.9754697e-05 -0.00014642184 2.3441813e-05 1.3173032e-05
0002a0 80 ba 8f bb 83 c5 c9 bb 83 ce 28 39 e5 9a e2 b9
       -0.004386246 -0.0061575784 0.0001609866 -0.00043221485
0002b0 68 37 5c b9 9a 39 4d 39 18 44 f1 b9 31 12 fc b9
       -0.00021001475 0.00019571782 -0.00046017836 -0.0004807874
0002c0 66 bd 45 ba c2 38 5a 38 43 69 00 3b d5 36 ca 3a
       -0.0007543176 5.202811e-05 0.001959399 0.0015427718
0002d0 5c c4 35 bf 42 ac 33 3f 36 a9 2e 3b 32 7f 3a 3b
       -0.71002746 0.7018472 0.002665115 0.0028457162
0002e0 e3 27 e4 bb fb a1 e5 bb d0 14 8a 39 0a eb 52 b9
       -0.0069627627 -0.007007835 0.00026336918 -0.0002011472
0002f0 e9 59 ec b9 d8 b9 64 3a c6 84 f9 b9 1c 5d 37 39
       -0.00045080416 0.00087252026 -0.00047591905 0.00017486926
000300 06 1c 56 bc f3 e5 87 bb aa 1e 8b bb b8 8e 86 b9
       -0.013068205 -0.004147285 -0.004245599 -0.00025664805
000310 46 b7 d4 37 48 a9 d0 b8 2b a7 1a 38 57 f9 25 b8
       2.5357713e-05 -9.949744e-05 3.687215e-05 -3.957128e-05
000320 50 8a 72 39 bd a7 87 3a 67 29 b6 bc 66 b2 9d bc
       0.00023130444 0.0010349673 -0.022236539 -0.019250106
000330 d8 8a fb 3a f7 19 51 3b 9b 66 66 3a f4 e5 0a 3a
       0.0019191159 0.0031906345 0.0008789093 0.0005298548
000340 1e ee 87 38 66 d8 b0 38 4b e9 62 3a 6d 8a 19 3b
       6.4816544e-05 8.432641e-05 0.0008655979 0.0023428455
000350 74 e8 6c bb 50 03 94 bb 6f 49 32 39 61 28 5c b9
       -0.0036149295 -0.0045169964 0.00017002759 -0.00020995877
000360 b9 07 34 ba 07 b3 cf 38 a6 80 a0 3b bb 03 b4 3b
       -0.0006867606 9.9038756e-05 0.0048981486 0.005493609
000370 1a f7 f7 b9 18 ea 3d ba 67 00 76 39 74 c9 12 ba
       -0.00047295616 -0.00072446605 0.00023460538 -0.0005599477
000380 c0 8b 9b b9 93 ee 41 39 0d 7a 18 b9 78 76 82 ba
       -0.00029668026 0.0001849479 -0.00014541317 -0.0009953519
000390 16 72 85 3a 00 9d bc 3a 76 e8 38 38 17 a4 9b 3a
       0.0010181095 0.0014390051 4.4085515e-05 0.0011874464
0003a0 fb 59 45 38 89 c8 53 bb d1 d1 99 bc f2 9c 8c bc
       4.705226e-05 -0.0032315573 -0.018776806 -0.017164681
0003b0 42 ac c3 39 64 c3 9e 39 0a f2 32 bc 58 45 9e bb
       0.0003732164 0.00030281686 -0.010921964 -0.0048300438
0003c0 ad e0 2b bd 4d 7b 40 bd d4 d2 c1 b9 52 b1 2e 3b
       -0.041962314 -0.04699259 -0.00036968908 0.0026655984
0003d0 d2 79 7d bd fc 27 74 bd 4d 4b 86 b9 fd 09 0c 3a
       -0.061883755 -0.059608445 -0.00025614575 0.00053420645
0003e0 d6 01 0d b9 6e eb c1 38 f2 b2 f3 3a 49 d6 af 3a
       -0.00013447492 9.246809e-05 0.0018592759 0.0013415302
0003f0 92 7f a0 bd 2d 4a ff 3e 84 dc d3 bc 9f a9 be bc
       -0.07836832 0.4986128 -0.025861986 -0.023274241

weight f4 [128, 512]
000000 7a 78 8d 39 0c 6b 16 3a 49 43 fc 39 ad a0 7a 39
       0.00026983378 0.0005737997 0.00048115317 0.00023901714
000010 79 73 9a b9 60 23 cf b9 29 02 5e 3a 3f 39 13 3a
       -0.00029459203 -0.00039508473 0.000846895 0.00056161353
000020 a9 40 15 3a 5c 6e 25 3a 59 48 7a b9 f4 7b c8 b9
       0.0005693534 0.00063106953 -0.0002386881 -0.00038239325
000030 e8 a5 9b b9 95 ec 73 3a d9 db 5b 3a db 27 a4 b7
       -0.00029687514 0.0009304968 0.0008386947 -1.9568883e-05
000040 0a f3 60 ba ce e4 c0 39 39 33 99 b9 f8 91 ac 39
       -0.00085811375 0.00036791567 -0.00029220598 0.00032915152
000050 2d 85 34 ba cf 30 85 3a 03 93 5c 3a cd 37 81 b9
       -0.00068863 0.0010161641 0.00084142404 -0.00024646372
000060 81 8c ce b9 10 54 73 39 b6 2d 70 b9 c2 71 11 3a
       -0.00039396065 0.00023205602 -0.00022905212 0.0005548262
000070 e6 b8 ad 39 3a 77 cc b9 5c 32 99 b9 ad 47 98 39
       0.0003313489 -0.00038998743 -0.00029219955 0.00029045102
000080 e1 5d ca 39 59 09 8c 39 2b 1a a4 b9 cb b1 a0 b9
       0.00038598388 0.00026709845 -0.00031300014 -0.00030650044
000090 a8 ba 96 b9 48 ad 82 b9 47 41 14 3a d0 6d cf b9
       -0.000287493 -0.00024924637 0.0005655479 -0.00039563933
0000a0 9c 9d 77 ba 2e a2 71 3a 86 41 a3 38 df a4 c6 39
       -0.0009445788 0.0009217587 7.7846504e-05 0.00037888341
0000b0 97 c7 0f 3a e1 5e 13 ba 6f 0f 7e b9 f0 cd 91 39
       0.00054847583 -0.0005621743 -0.00024229077 0.0002780999
0000c0 90 54 af b9 91 89 99 39 ac fc 9e b9 3d 0c 63 b9
       -0.00033441605 0.0002928493 -0.00030324364 -0.00021652966
0000d0 d3 a2 ce 39 45 6a 5e ba 2d 72 77 3a 2f c2 17 ba
       0.00039412695 -0.00084844633 0.0009439316 -0.00057891285
0000e0 ce 44 b1 b8 19 09 66 39 be 5f ac b9 b9 9f 95 39
       -8.4528336e-05 0.00021937898 -0.0003287773 0.00028538497
0000f0 92 6b 5c 3a d9 55 51 39 f6 47 5b 39 0d 06 0e 3a
       0.0008408363 0.00019963774 0.00020912275 0.0005417772
000100 2f 93 63 3a 40 d8 62 39 0d 5c 16 ba b3 55 7b b9
       0.0008681295 0.00021633599 -0.00057357625 -0.00023969151
000110 38 1b 13 3a 4b c3 65 b9 58 76 62 ba 26 03 5e ba
       0.0005611661 -0.00021911894 -0.00086388504 -0.0008469097
000120 bc 82 a5 39 ac 35 e7 b9 07 3e 77 ba a2 e8 14 ba
       0.00031568657 -0.00044099742 -0.0009431545 -0.0005680417
000130 e6 0a 9e b9 2d 64 84 39 76 20 13 3a 0b 22 82 b9
       -0.00030144228 0.0002525164 0.0005612442 -0.00024820896
000140 af 38 c7 39 4f 13 cb b9 88 6a cb b9 9e ad b1 b9
       0.0003799847 -0.00038733563 -0.0003879855 -0.00033889426
000150 e7 4f 12 ba 45 48 6c 39 b2 4d 8e 39 24 94 cf b9
       -0.00055813644 0.00022533636 0.00027142238 -0.0003959249
000160 ff 47 9c b9 74 51 5b 39 78 a9 bd b9 d0 fb 5a 3a
       -0.0002980828 0.00020915811 -0.00036175153 0.0008353563
000170 35 c1 16 3a 06 85 14 ba 55 9c 5f ba 95 cf 12 3a
       0.0005750836 -0.0005665574 -0.000853007 0.000560039
000180 a6 f3 96 b9 4a b9 12 3a b1 05 76 ba 6d c7 cd b9
       -0.00028791762 0.0005597068 -0.00093850034 -0.0003924923
000190 b3 0c cf b9 40 6c 80 ba fd 46 93 39 33 a8 12 3a
       -0.00039491578 -0.0009797886 0.00028090915 0.00055945216
0001a0 20 86 95 39 46 08 99 b8 bf 69 11 3a cd 92 1c ba
       0.00028519426 -7.2971496e-05 0.00055470684 -0.0005972803
0001b0 47 64 87 39 0c b8 5d 39 d5 37 9e b9 fa 67 7e b9
       0.0002582392 0.00021144765 -0.00030177707 -0.00024262062
0001c0 0e 8b 77 3a 98 5e 9b b9 77 c0 10 3a cb 1c 73 3a
       0.0009443023 -0.00029634382 0.00055218436 0.0009274005
0001d0 5c b7 8e 39 86 7a 10 3a da b0 5d 3a 04 4f 85 b9
       0.00027220964 0.00055114215 0.0008456834 -0.00025426608
0001e0 87 45 67 39 2c bf 10 3a 11 36 19 3a 82 50 14 ba
       0.00022055778 0.0005521651 0.00058445433 -0.00056577486
0001f0 b1 24 14 ba ca 94 11 3a 27 fe 8d ba c4 9e 4c b8
       -0.00056512194 0.00055534823 -0.001083319 -4.8785252e-05
000200 c5 33 71 3a 3e 4b ce b8 5e 2c 1a ba 9e 1d 11 3a
       0.00092011347 -9.8368604e-05 -0.0005881245 0.00055357243
000210 a9 15 cc b9 f3 84 91 39 1b 63 0f 3a b8 9c 14 ba
       -0.0003892605 0.0002775561 0.0005469785 -0.0005669105
000220 1d a1 16 ba c1 fd ca b9 c6 6e 14 ba 91 c7 14 ba
       -0.00057460536 -0.00038717504 -0.00056622585 -0.00056754897
000230 6c 7b 13 3a 5d 9a 76 3a bb 10 c8 39 65 59 62 39
       0.0005625996 0.0009407157 0.00038159438 0.00021586342
000240 a3 d9 7e 39 f2 62 13 ba 2e fd 74 3a c9 3a ab 39
       0.00024304404 -0.0005622349 0.0009345588 0.0003265946
000250 5e 91 8c 3a f6 50 11 3a cc 1a 66 b9 1d f7 68 ba
       0.0010724475 0.0005543375 -0.00021944492 -0.00088869204
000260 ed ee 19 ba 32 b3 92 39 17 22 d2 b9 9d fc 3b ba
       -0.00058720895 0.000279808 -0.0004007972 -0.0007171126
000270 47 6b 14 ba dc 2a 98 39 f9 a0 bc 3a 5b 34 d4 b9
       -0.00056617375 0.00029023632 0.0014391235 -0.000404748
000280 16 52 60 39 36 21 f8 b9 8e 46 7d ba 43 e4 75 39
       0.00021392884 -0.0004732699 -0.00096616975 0.00023450055
000290 c3 8b 60 39 b4 c0 ca b9 2e a0 12 3a 08 28 08 3a
       0.0002141437 -0.00038672017 0.00055933266 0.00051939534
0002a0 fd 14 7a ba b3 f5 ca b9 57 61 14 3a 58 ea 8f ba
       -0.00095398707 -0.00038711503 0.0005660257 -0.0010979874
0002b0 68 37 c9 39 ae 4b 62 ba 8b 19 5f ba 3a 71 54 b9
       0.00038378988 -0.0008632493 -0.0008510581 -0.00020260076
0002c0 fc 41 bd 3a 73 78 bf 39 ff c4 c2 39 9f 2f c9 39
       0.001443922 0.000365201 0.00037149337 0.00038373188
0002d0 29 69 77 3a da 7a d4 39 45 1a 15 ba 97 b5 26 3a
       0.00094379723 0.00040527323 -0.00056878134 0.00063594565
0002e0 e1 f7 12 3a 0f 3d 96 39 47 38 06 ba a8 4e da b8
       0.0005606395 0.00028655722 -0.00051200803 -0.00010409701
0002f0 87 88 cd b9 94 64 a4 b9 a5 26 41 39 8e 1c 96 ba
       -0.00039202368 -0.00031355454 0.0001842031 -0.0011452602
000300 49 a6 5e 3a e5 2f cd b9 1f 9f 6c 38 b1 c9 68 39
       0.00084934063 -0.0003913633 5.6414978e-05 0.0002220038
000310 e4 c8 c7 b9 1d b0 09 ba bc e4 1c ba fd 30 79 39
       -0.00038105913 -0.0005252378 -0.0005985012 0.0002376474
000320 3d 4c c5 39 55 b5 13 ba 42 b6 ce b9 82 61 19 3a
       0.0003763157 -0.00056346256 -0.00039427174 0.00058510166
000330 d7 33 68 b9 e6 5a b1 b8 5b 65 94 39 96 8e 4e ba
       -0.00022144556 -8.456949e-05 0.00028304275 -0.00078795233
000340 c2 8b 76 ba 2c d6 c3 39 12 b4 8c b7 bf 9c 8f ba
       -0.0009404981 0.0003735287 -1.6773152e-05 -0.0010956748
000350 d6 77 c7 39 f9 0e d1 b9 ee 4b a5 39 c0 18 75 39
       0.00038045523 -0.00039874742 0.00031527824 0.00023374241
000360 85 ff 92 39 13 bb 70 b9 b8 ad a9 39 7f 0a b0 b9
       0.00028037667 -0.00022957874 0.00032363622 -0.00033577156
000370 67 9b ca 39 37 d5 ad b9 f5 0e 8c 39 d2 a1 62 ba
       0.00038644226 -0.0003315599 0.00026714025 -0.0008645329
000380 57 bb 13 ba 9f c6 8f 39 fe 44 94 39 b7 39 b1 b9
       -0.0005635521 0.0002742307 0.00028280163 -0.00033803072
000390 de 55 2c b9 39 1b b5 39 c6 b4 a2 39 42 7a 28 b9
       -0.00016435186 0.00034543293 0.00031033735 -0.00016067273
0003a0 ec 6a 9a b9 19 db d3 b9 bf 85 95 39 64 68 9d b9
       -0.00029452832 -0.00040408297 0.00028519143 -0.0003002315
0003b0 58 9d 60 b9 8d 94 76 3a f2 5e 61 ba 3f 0d 96 b9
       -0.0002142092 0.0009406291 -0.0008597217 -0.000286201
0003c0 a5 13 af b9 7e 79 9f 39 30 99 70 3a 87 e5 8b b9
       -0.00033393237 0.00030417362 0.00091781 -0.00026683157
0003d0 af 6e 97 39 6d c5 14 ba 55 e2 a6 39 81 45 16 ba
       0.0002888343 -0.00056751707 0.00031830618 -0.0005732403
0003e0 99 3b 16 ba bf 69 c5 39 bc 91 68 b9 8f 9a 93 ba
       -0.00057309266 0.00037653555 -0.00022179534 -0.0011261272
0003f0 09 88 13 ba 8d 6b 79 ba 42 db 47 b9 38 94 c4 39
       -0.0005627876 -0.00095146225 -0.00019059799 0.00037494465

weight f4 [8, 128]
000000 4e 7c 67 3a 9f fc 4c 3a 83 40 cb ba 87 8e f3 39
       0.00088304735 0.0007819626 -0.0015506897 0.00046454763
000010 05 28 dc b9 a6 42 0a 3a 0c fc a5 b9 d4 bc 82 3a
       -0.00041991487 0.00052742136 -0.00031659042 0.0009974488
000020 f2 d7 a9 b8 28 b0 b6 b9 c4 f1 e1 b9 bf b9 1c ba
       -8.098771e-05 -0.00034844992 -0.00043095474 -0.0005978606
000030 69 5b 9f 39 d6 a8 ac b7 e4 b9 40 39 07 c7 13 ba
       0.0003039495 -2.0582618e-05 0.00018379797 -0.00056372624
000040 fe 4c 6c 3a 78 0e 15 ba 77 5c b6 b9 dd 7c 1c ba
       0.0009014158 -0.0005686055 -0.00034782637 -0.0005969534
000050 0a 0a 3d 38 6b 64 1c ba 23 51 03 3a d7 74 9f 39
       4.507046e-05 -0.0005965891 0.0005009344 0.00030413896
000060 1c a6 31 39 6a 61 b0 b9 f5 b0 d4 39 80 63 8d 3a
       0.00016941916 -0.00033641915 0.00040567634 0.00107871
000070 6f 8a 53 39 0b e6 fc 39 f3 f5 50 3f 45 86 6d 3a
       0.00020174099 0.0004823658 0.8162529 0.000906084
000080 35 d8 d0 b8 5a 01 7f ba cf 42 f4 3a 00 28 0f 3a
       -9.9584846e-05 -0.00097276794 0.0018635633 0.00054609776
000090 5d f3 1b ba b1 6a 47 ba c6 56 12 ba ef 09 a2 b8
       -0.0005949045 -0.0007607146 -0.0005582388 -7.726612e-05
0000a0 74 41 49 ba 7a e4 ab 38 90 61 c7 39 02 b6 e6 39
       -0.0007677295 8.1964725e-05 0.00038028928 0.00044004625
0000b0 ed 56 22 ba ab 63 0a 3a 44 06 21 ba 7f 37 73 37
       -0.00061927625 0.0005279134 -0.0006142596 1.449685e-05
0000c0 b6 65 cf be bf 86 09 ba 11 29 81 b7 de 81 0c 3a
       -0.40507287 -0.0005246214 -1.5397121e-05 0.0005359928
0000d0 9b 8d 14 ba c3 78 8e b9 79 fb bc ba 48 2b 08 39
       -0.0005666853 -0.00027174325 -0.0014418206 0.00012986094
0000e0 54 ff cb ba 4f 40 56 3a e4 13 84 ba cb 2c 8e b9
       -0.0015563765 0.0008173035 -0.0010076729 -0.00027117724
0000f0 6b 3a 7b ba a1 b0 d4 b9 b4 00 8b 38 88 d0 3b b9
       -0.0009583595 -0.0004056739 6.6281675e-05 -0.00017911394
000100 8a ff 75 b8 3d 7e 99 3a e5 46 a6 3a 5f 4d c8 b9
       -5.865054e-05 0.0011710596 0.0012685923 -0.0003820462
000110 09 93 ea b6 44 bf b7 39 2a 7e 8f b9 ba cf 09 39
       -6.9908606e-06 0.00035046984 -0.00027369085 0.00013142722
000120 91 d9 a8 b8 b4 ee 30 3a 53 44 52 3a 90 1d 3f ba
       -8.051389e-05 0.0006749437 0.00080210454 -0.0007290477
000130 3c 1c 91 b9 9a e7 b8 3a 3e b8 e8 39 a8 75 ee 38
       -0.0002767759 0.0014107109 0.0004438776 0.000113706395
000140 aa ee 60 37 3c 8b e1 3a be 5c fe b9 91 e0 0b 3a
       1.3407009e-05 0.0017207633 -0.00048515754 0.0005335892
000150 d1 f7 db ba 52 e8 30 3a df 71 06 3a f3 2a 71 ba
       -0.0016782229 0.00067484856 0.00051286625 -0.00091998203
000160 35 9f 42 3a 6e 0a db b9 c8 b7 51 38 5f 50 48 3a
       0.00074242364 -0.00041778706 5.0000643e-05 0.0007641371
000170 f2 d3 d5 39 0d 5c 35 3a a5 c5 b7 ba 72 e3 83 37
       0.00040784437 0.00069183187 -0.0014020695 1.572233e-05
000180 69 f0 15 3a 20 20 42 38 92 94 f9 ba c3 62 99 39
       0.0005719723 4.6283123e-05 -0.001904147 0.00029256017
000190 3c 7b ee 39 0f 00 91 37 0d f9 a0 ba 4b 04 14 3a
       0.00045486714 1.7285374e-05 -0.0012281254 0.00056463917
0001a0 22 64 4f ba 4b 0f f3 3a b9 1c d2 3a 5b d7 cb be
       -0.00079113443 0.0018543986 0.0016030289 -0.3981274
0001b0 20 92 34 ba af c1 b2 39 e8 54 0d b9 f3 f3 e5 b9
       -0.00068882294 0.0003409511 -0.00013478438 -0.0004386004
0001c0 51 dc e1 b9 4c 71 70 39 ff 24 62 39 96 30 f4 39
       -0.00043079493 0.0002293039 0.00021566822 0.00046575506
0001d0 9e fc bb 39 ee 23 9b b9 62 8c 0f 39 83 5c bb 39
       0.00035855634 -0.00029590674 0.0001368984 0.00035736346
0001e0 c8 b0 58 3f 68 d0 b2 b9 5d 7b 44 39 d8 1d 49 39
       0.84644747 -0.0003410608 0.00018737973 0.00019179971
0001f0 bd cd 27 b9 2b f9 a4 ba 05 21 70 39 71 2b 82 b9
       -0.00016003005 -0.0012586465 0.00022900484 -0.000248279
000200 e9 9e 53 b8 e7 1e 6e 3a 79 ba 05 3a 99 d9 9b b9
       -5.0454317e-05 0.00090835843 0.0005101334 -0.00029726027
000210 90 33 8b b9 88 46 03 ba f8 70 3f 3a f2 78 c7 b9
       -0.00026550563 -0.00050077634 0.00073029054 -0.0003804635
000220 70 b7 0d ba 11 eb 91 ba 08 8b 78 39 f2 69 45 ba
       -0.00054060575 -0.0011132677 0.00023702916 -0.00075307407
000230 f4 f9 da 39 cb fd f2 b9 be bd 3f 3a 6c 11 8e b9
       0.0004176643 -0.00046346927 0.00073143456 -0.0002709733
000240 a4 3d 8b 39 86 45 65 39 bb 47 5e ba 8d f3 36 3a
       0.00026558072 0.00021865041 -0.00084793166 0.0006979041
000250 e7 b0 80 39 d4 b6 9c b9 97 f5 d9 39 e1 b2 cc 39
       0.00024545865 -0.00029890856 0.00041572444 0.00039043187
000260 83 fe 91 3a 1c 28 e4 ba b6 c0 a7 39 ef be c0 39
       0.0011138472 -0.0017406973 0.00031996303 0.0003676335
000270 fe 4c ca 3a 91 31 56 ba 8d de a5 bd 9c 91 05 b9
       0.0015434322 -0.0008170838 -0.08099089 -0.00012738112
000280 fe aa d4 39 0a f9 b0 39 35 34 d2 38 75 99 31 b9
       0.0004056319 0.00033754884 0.00010023305 -0.00016937203
000290 2e f5 cb 38 72 a1 3a 3a 25 1f 0f bb f3 ab ac b8
       9.7254626e-05 0.0007119394 -0.0021838632 -8.233627e-05
0002a0 0e ae 66 ba 66 90 fc 39 69 86 a6 39 93 13 2a 3a
       -0.000879974 0.0004817277 0.0003176213 0.0006487902
0002b0 ab cf 14 3a 7a b5 3c ba aa 4c 11 b9 cc 2b 18 3a
       0.0005676697 -0.0007198673 -0.00013856837 0.0005804866
0002c0 4e 51 6e bf 1e 50 3f ba 82 2a 1e ba 37 ce 28 b9
       -0.9309281 -0.000729801 -0.0006033556 -0.0001609855
0002d0 3f 21 c2 b9 63 f3 5b 3a 62 d0 15 ba 3a 27 0f b8
       -0.00037027334 0.00083904545 -0.00057149504 -3.413039e-05
0002e0 7a 7a ff b9 99 d7 45 ba ea 1f 34 3a e4 f1 46 3a
       -0.00048728642 -0.000754708 0.00068712106 0.0007589145
0002f0 15 09 c7 b9 e3 c7 cb ba dd a0 08 3a 6e 67 bf b9
       -0.00037963004 -0.0015547242 0.0005211959 -0.0003650742
000300 c5 03 03 b9 48 3a 3e 3a 2e 5a c4 39 2d 7f 4a ba
       -0.00012494538 0.00072566094 0.00037451222 -0.0007724639
000310 cf b3 d3 b9 fd 1d 1b b9 7d 4e 17 3a 06 35 60 ba
       -0.00040379024 -0.00014793123 0.00057718885 -0.0008552823
000320 e1 1f ac b9 50 0d 36 ba 1f 8e 58 3a 9a 95 3f 3a
       -0.00032830148 -0.0006944733 0.0008260924 0.0007308364
000330 7e 3c 74 ba bd 11 40 3a 7a eb d7 39 08 d4 46 3a
       -0.00093168754 0.0007326862 0.0004118344 0.00075846957
000340 ed 23 09 3b ab ae 10 3a b4 04 87 b9 3f 16 aa ba
       0.0020925954 0.00055191916 -0.0002575271 -0.00129766
000350 95 5b 8b ba 36 f6 54 39 44 af 87 ba 99 5e 90 ba
       -0.0010632152 0.00020309616 -0.0010351916 -0.001101452
000360 eb ea 08 3a e6 9f 59 39 95 cb 9b b9 fb 12 d5 b8
       0.0005222994 0.000207543 -0.00029715584 -0.00010160167
000370 4e 1d 27 b9 cf 76 a7 b9 06 08 df 39 60 4d 79 3a
       -0.00015937278 -0.00031941241 0.00042539852 0.0009510126
000380 d1 98 ce 3a dc 3a d7 b9 06 a1 9d 3a c3 58 18 38
       0.0015762096 -0.0004105185 0.0012026138 3.632229e-05
000390 87 0e f5 b9 35 c1 91 38 e7 bf 53 ba 45 9a 93 39
       -0.00046740865 6.9501264e-05 -0.0008077607 0.00028152965
0003a0 8d ff e7 b8 31 fb 02 b9 6f b8 65 ba 34 0a 76 bf
       -0.000110625384 -0.00012491342 -0.00087631395 -0.9610932
0003b0 c8 17 32 ba 4b c4 fe b9 93 57 df ba 4c a1 4c b8
       -0.0006793705 -0.00048592905 -0.0017039649 -4.878761e-05
0003c0 a4 8b fa b9 fa f4 1f 39 cc cb ae b9 89 9c 35 ba
       -0.00047787756 0.00015254683 -0.00033339707 -0.00069279276
0003d0 3b 71 36 3a 1d bf b0 b9 68 6d dd b8 9e b1 43 39
       0.00069596217 -0.00033711726 -0.0001055848 0.00018662817
0003e0 19 26 b3 bd 45 1a 26 3a 36 03 5a 3a 56 a3 80 39
       -0.08747501 0.0006336312 0.00083165185 0.00024535757
0003f0 08 24 af 39 24 e6 3e ba 7a ea be 39 bb 35 d0 b9
       0.00033405446 -0.00072822184 0.00036414323 -0.00039712884

bias f4 [8]
000000 3d f1 43 3e 64 bc d4 3f 13 2e a0 3f cc df 1b be
       0.19134994 1.6619992 1.2514061 -0.1522209
000010 20 56 6f 3e bb a1 8f 3e 21 57 c6 bc fa 81 de bd
       0.23372698 0.28053078 -0.024211468 -0.10864635

weight f4 [128, 10]
000000 60 01 4d be a0 ed 0c be fe 52 29 3c 34 82 65 3d
       -0.20020056 -0.13762522 0.010334728 0.056032375
000010 80 3a 7b 3c f9 a0 ad 39 40 53 1c 3d 6e 5e 10 3b
       0.015333772 0.00033117065 0.03816533 0.002202894
000020 4f 76 f5 b9 de e4 ca 39 06 a0 6f be 1a 23 08 be
       -0.00046818188 0.00038698962 -0.23400888 -0.1329464
000030 15 6b 08 3c d3 e9 69 3d 3e e9 c5 3c 8e 1b bd ba
       0.008326312 0.057107758 0.02415907 -0.0014427768
000040 d9 a3 19 3d d5 74 9e 3b 73 21 55 b8 e2 e3 ca 39
       0.037509773 0.004835705 -5.081431e-05 0.00038698228
000050 e0 49 0d 3f bd 8c 59 be 77 66 4c bd c8 61 2f 3c
       0.5519085 -0.21245094 -0.049902406 0.010704465
000060 71 ae 1c 3b ec b8 5e ba 61 03 f5 be 96 ff 92 be
       0.0023907686 -0.00084961834 -0.4785414 -0.28710622
000070 48 76 f5 b9 47 cf 01 3a 40 93 6f be 65 a1 22 be
       -0.00046818168 0.0004951846 -0.23396015 -0.1588188
000080 dd 3f 17 3d 53 76 c6 3d 32 3a 91 3d 5f 8a 77 3a
       0.03692614 0.09690537 0.07091178 0.0009442921
000090 63 3a 9a 3d 45 25 8f 3c 7b a0 ad b9 5e 1f 7e 39
       0.07530668 0.017473826 -0.000331167 0.00024235013
0000a0 cb e9 3d be 96 b4 a4 bd 7f 1e c6 3b 23 35 56 3d
       -0.18546216 -0.080422565 0.006046116 0.05229677
0000b0 64 2e 92 3c 72 32 89 37 34 88 f7 3c c9 e8 36 ba
       0.017844386 1.6355163e-05 0.030216314 -0.0006977437
0000c0 ca f4 8d ba 3b 4d ec 39 e0 09 27 be f7 91 85 bd
       -0.0010830399 0.0004507097 -0.16312361 -0.06521981
0000d0 21 0e ed 3a 54 71 5f 3c d6 63 10 3c 67 76 f5 39
       0.0018085876 0.013637859 0.008812865 0.00046818258
0000e0 a0 92 01 3c da fe da ba ea ab 4f 3a c6 30 8a 39
       0.007908493 -0.0016708032 0.00079220405 0.0002635775
0000f0 74 39 ca bd e9 b6 0f bd db 3a f3 3b d1 e0 62 3c
       -0.098742396 -0.035086546 0.0074227876 0.013847546
000100 b8 0b 8c 3b 30 e8 10 38 ef 92 e8 3b 3f 8e 19 3b
       0.004273858 3.4548517e-05 0.007097594 0.0023430733
000110 a4 89 33 ba 83 3e cf b8 ed 31 7a be 85 fe 3f be
       -0.0006848818 -9.882173e-05 -0.24433108 -0.18749435
000120 e4 ab 3a ba 43 55 00 3e 49 f1 d5 3d 23 d8 62 b9
       -0.00071209506 0.12532525 0.10446412 -0.00021633557
000130 ae 42 58 3d c7 94 4a bb 07 8a 77 ba 40 cf 01 3a
       0.052797966 -0.0030911432 -0.000944287 0.0004951842
000140 c7 b5 16 be 17 1b 3f bd 0c af 3c 3b aa 8d 9a 3d
       -0.1471778 -0.046656694 0.002879086 0.075465515
000150 6a 65 2a 3d f5 ea 98 39 7f 5a 4d 3c 93 d2 ac ba
       0.041600622 0.00029166756 0.012533783 -0.0013185315
000160 06 8a 77 3a b0 eb 98 b9 07 40 0c be 0a d9 ad bd
       0.00094428693 -0.000291673 -0.136963 -0.084886625
000170 ea 7f fb ba 08 40 cc 3b 28 11 d3 3b bc be b6 37
       -0.0019187902 0.006233219 0.006441254 2.1784908e-05
000180 0f 43 5c 3b 60 69 5e bb 0b 46 3a ba 6c e1 14 3a
       0.0033609306 -0.003393732 -0.0007105774 0.00056793424
000190 3c be d1 be 68 b1 68 bd c3 70 f4 3c c7 07 86 3e
       -0.4096545 -0.056809813 0.029838925 0.2617781
0001a0 20 4b 63 3e 2a d7 50 b9 ba 32 87 3d 34 66 47 3b
       0.22196627 -0.0001991658 0.06601472 0.0030425908
0001b0 92 98 26 3a d0 30 8a b9 fc e4 ca b9 c5 e1 14 ba
       0.0006355132 -0.0002635778 -0.0003869905 -0.0005679394
0001c0 66 eb 98 b9 6e 19 94 b9 35 4d ec 39 72 e1 14 3a
       -0.00029167085 -0.00028247706 0.00045070951 0.0005679346
0001d0 5c 8a 77 ba b6 e4 ca b9 74 e1 14 ba e0 ab 4f 3a
       -0.00094429194 -0.00038698845 -0.0005679347 0.0007922035
0001e0 8b 47 84 be db 30 17 be b9 c6 83 39 4c 44 b7 3d
       -0.25835833 -0.1476473 0.00025134327 0.089485735
0001f0 8a 55 49 3d 8b 98 26 3a 11 2c eb 3c 6a 72 ea ba
       0.049153842 0.0006355128 0.028707536 -0.0017886881
000200 dc b8 5e 3a c6 2a 93 3a 48 05 73 be 53 e1 0c be
       0.0008496174 0.0011227957 -0.23732483 -0.1375783
000210 25 e9 25 3a 66 8f c9 3d bd c4 ab 3d 23 d8 62 39
       0.0006328992 0.09841804 0.08387134 0.00021633557
000220 87 85 47 3d 59 8b 14 bb e3 b8 5e ba 60 19 94 39
       0.048711326 -0.0022666065 -0.0008496178 0.00028247666
000230 f8 d4 71 be 06 3c 3a be f8 51 c4 3a dc c0 b2 3d
       -0.23616397 -0.1818696 0.0014978042 0.08728191
000240 67 dd 5a 3d 14 e9 10 38 ec 7a 5a 3d 93 e7 5d 3a
       0.053433802 3.4549346e-05 0.053339884 0.0008464988
000250 46 cf 01 ba 42 76 f5 39 e0 ab e2 bd 2a 8f 5d bd
       -0.00049518456 0.0004681815 -0.11067939 -0.05409161
000260 86 93 11 bb 33 d6 0c 3c bc 0b 18 3c bc ec 4a 3a
       -0.0022213175 0.008595991 0.009280141 0.00077409646
000270 7c ad c0 ba 7e ad 87 bb 75 e1 14 3a 88 89 33 3a
       -0.001470014 -0.004140555 0.00056793477 0.0006848802
000280 17 89 f5 bd 75 67 1b bd e5 0c 77 39 75 1a 2c 3c
       -0.119890384 -0.03794046 0.00023560559 0.010504355
000290 36 c4 5b 3b cf 69 ce 39 fa 6a fa 3b 86 9d 26 bb
       0.00335337 0.00039370215 0.007642147 -0.002542348
0002a0 50 e8 10 b8 1c eb 98 39 a0 56 0f be 05 a8 05 bd
       -3.4548633e-05 0.0002916687 -0.13997889 -0.03263094
0002b0 c8 ff 0e bb b7 61 d7 3c f1 6b 3d 3c 42 cf 01 3a
       -0.0021819938 0.026291711 0.01156138 0.00049518433
0002c0 50 3f 77 3b e1 69 89 bb 7a 10 14 ba 3b e1 ef b9
       0.0037726946 -0.00419353 -0.0005648207 -0.00045753442
0002d0 7d 0a 5f bd d2 ba e2 bb 2d 24 b8 ba 29 e2 5a 3c
       -0.05445336 -0.0069192434 -0.0014048867 0.013359585
0002e0 df 41 2b 3c bf 89 77 ba 3b 15 bd 3a 6a 0f 40 bb
       0.010452717 -0.0009442828 0.0014425883 -0.0029306062
0002f0 8d 3b df b9 92 1b bd 3a f0 69 c7 bd cf 06 92 bb
       -0.00042578243 0.0014427772 -0.09737003 -0.004456378
000300 bb 43 bc 3b 3c 66 69 3b 45 80 c5 3a dd 30 8a b9
       0.005745379 0.0035613915 0.0015068135 -0.00026357817
000310 19 2b 57 3b 93 2a 90 3a 52 3e cf 38 63 10 14 ba
       0.0032832085 0.0010999016 9.882137e-05 -0.0005648194
000320 38 19 45 be c7 01 aa bd ca 23 0b ba bd cf 95 3d
       -0.19247901 -0.0830112 -0.0005307762 0.073150136
000330 2a 85 13 3d 48 d9 7a b9 12 4f 4c 3c 62 24 6a bb
       0.036015667 -0.00023922801 0.012470024 -0.0035727252
000340 e0 b8 5e ba f2 99 ce 38 9e 7e 01 be 97 09 17 bd
       -0.00084961765 9.85152e-05 -0.12645957 -0.03687438
000350 a4 0d c9 39 86 6e a4 3c a5 a3 26 3c 07 eb 98 39
       0.0003834787 0.020072233 0.010170852 0.00029166808
000360 04 c8 a2 3b 4d 2a 16 bb 95 b1 23 3a 05 46 3a ba
       0.0049676914 -0.0022913397 0.00062444183 -0.00071057706
000370 04 83 b3 bd 66 04 20 bc cd 7f ab b9 8a fb 2f 3c
       -0.087652236 -0.009766674 -0.0003271088 0.010741124
000380 ab 1c 4f 3b ee e8 10 b8 fb 38 95 38 12 6f 21 bb
       0.003160278 -3.4549208e-05 7.115487e-05 -0.0024632853
000390 f2 4f 0a 39 b6 e4 ca b9 fc 83 01 be 58 cb 04 bd
       0.00013190488 -0.00038698845 -0.12648004 -0.032420486
0003a0 5e 48 d2 3a b0 e8 8d 3c 43 36 a7 3b db 30 8a b9
       0.0016043296 0.017322868 0.005102904 -0.0002635781
0003b0 0d 55 30 3c e4 c1 e3 ba 2c 08 18 ba 22 11 14 3a
       0.010762465 -0.001737651 -0.00057995575 0.0005648305
0003c0 c5 1b cc be 71 68 43 bd 19 2d 29 3d b1 33 8e 3e
       -0.39864936 -0.047707025 0.041302774 0.27773812
0003d0 e1 11 83 3e 04 2e 45 ba c3 a0 a1 3d ce 41 24 3c
       0.25599578 -0.00075218105 0.07891991 0.010025455
0003e0 c5 30 8a 39 4a f4 14 b9 68 29 79 be 30 d2 1a be
       0.00026357747 -0.00014205385 -0.24332201 -0.15119243
0003f0 28 9e 6c bb 86 27 a8 3d 4d 0e 6d 3d 40 4d ec 39
       -0.003610501 0.082106635 0.057874966 0.00045070983

bias f4 [128]
000000 2d ea 03 40 1b 88 06 40 e7 df 2f bf 28 3e f5 3f
       2.061168 2.1020572 -0.6870102 1.9159594
000010 08 fd ed 3f 85 12 09 40 c7 9b 02 40 4e 49 03 40
       1.8592844 2.1417553 2.040758 2.0513492
000020 94 19 02 40 e5 5c ff 3f ac d8 db 3f 4d 72 91 bc
       2.0328112 1.9950224 1.7175498 -0.017754698
000030 fe c7 ff 3f 49 d7 f8 3f a0 fd 0a 40 c0 74 0c 40
       1.9982908 1.94407 2.17173 2.1946259
000040 75 45 0b 40 c2 72 02 40 62 fe fe 3f c2 96 fa 3f
       2.1761143 2.0382543 1.9921381 1.9577258
000050 3b 41 f7 3f 94 74 05 40 6e 67 fd 3f 3b 49 05 40
       1.9316782 2.0852404 1.9797189 2.0825946
000060 24 e8 d5 3f 27 41 03 40 65 1e f6 be 52 b5 01 40
       1.6711469 2.0508516 -0.48070064 2.026692
000070 d3 49 1f c0 be e0 0b 40 ef a1 1d 3f 8b 51 02 40
       -2.4888809 2.1855922 0.61575216 2.036227
000080 26 0e e1 3f b4 eb 07 40 56 b2 fc 3f dc bd 0c 40
       1.7582443 2.1237612 1.9741924 2.199088
000090 a0 ac ec 3f 9c cc a8 be 1a 4f 01 40 41 c6 02 40
       1.8490181 -0.32968605 2.020453 2.0433505
0000a0 14 07 ff 3f d6 17 2a bf d7 a7 06 40 04 f8 01 40
       1.9924035 -0.6644262 2.1039941 2.0307627
0000b0 66 57 04 40 90 78 01 40 55 cd 01 40 69 4c 38 be
       2.0678344 2.0229836 2.0281575 -0.17997898
0000c0 e7 f7 f4 3f c0 25 94 bf 62 c9 0b 40 27 9c 00 40
       1.9138154 -1.157402 2.1841664 2.0095308
0000d0 8e 6e 01 40 8a e7 13 40 d0 2c 02 40 a6 c2 ff 3f
       2.0223727 2.311007 2.0339851 1.9981277
0000e0 ab 53 ff 3f 62 85 0f 40 76 3c 00 40 82 fd 04 40
       1.9947408 2.242516 2.0036902 2.077973
0000f0 5d 09 20 bf 40 1e b1 bf 8e 34 fa 3f f2 fc bb be
       -0.6251429 -1.3837357 1.9547288 -0.3671642
000100 87 4e f0 be 70 62 d3 3f 0d b4 07 bd 8e b3 16 40
       -0.46934912 1.6514416 -0.033130694 2.3547091
000110 38 26 f8 3f 45 4a 04 40 dc 52 12 be 3e d0 04 40
       1.9386663 2.067033 -0.14289421 2.07521
000120 90 dd 06 40 6c f1 05 40 54 b4 fd 3f e3 85 b7 3f
       2.107273 2.0928602 1.9820657 1.4337734
000130 d1 be 03 40 2e c9 fa 3f 58 50 60 3f 25 40 d1 be
       2.0585215 1.9592645 0.87622595 -0.4086925
000140 f6 b2 07 40 a2 11 0b 40 97 cd 03 40 04 b1 00 40
       2.120298 2.1729512 2.0594232 2.0108042
000150 29 8a 66 be 1a 6e 03 40 dd 1e 09 40 62 bf fe 3f
       -0.22513641 2.053595 2.1425087 1.9902155
000160 4f a4 07 bf 58 ae 01 40 a9 00 03 40 6a 6e e7 bf
       -0.5298509 2.026266 2.0469153 -1.8080571
000170 1a 60 08 40 2d 54 05 40 83 8d 75 bf 47 f6 0a 40
       2.1308656 2.0832627 -0.95919055 2.1712816
000180 61 73 00 40 0d 9e 40 bf 13 d4 fd 3f 42 e4 58 be
       2.0070422 -0.75241166 1.9830345 -0.21180823
000190 16 89 b5 bc 38 ec 03 40 65 b4 15 40 08 9e 00 40
       -0.022160094 2.0612926 2.3391354 2.0096455
0001a0 19 17 80 be 4c 38 54 be 5c 3a fb 3f 55 f9 e3 be
       -0.25017622 -0.207246 1.9627185 -0.44526163
0001b0 3c 29 08 40 04 5d 42 be 3a 26 f8 3f 0a 51 00 40
       2.1275167 -0.18980795 1.9386666 2.0049462
0001c0 78 6e 01 40 fd b0 05 40 41 11 00 40 95 13 0a 40
       2.0223675 2.0889275 2.001053 2.1574452
0001d0 6e 71 fe 3f 11 22 01 c0 d4 da f9 3f 28 e1 02 40
       1.9878366 -2.0177042 1.9519906 2.0449924
0001e0 5c 33 4b bf 2d 3e ad bd 90 5e 2e c0 8a 17 10 40
       -0.79375243 -0.08459125 -2.7245216 2.2514367
0001f0 9e 91 0e 40 f9 ed e6 3f 68 0a fd 3f 15 a2 05 40
       2.2276378 1.8041373 1.9768801 2.0880177

weight f4 [1, 128]
000000 2f 97 94 be d6 75 94 be 89 72 4f 3f 04 fd b7 be
       -0.29021594 -0.28996152 0.8103414 -0.35935223
000010 6d 24 87 be cf 2b 50 be d5 eb 38 be f0 92 b1 be
       -0.26394978 -0.20329212 -0.18058713 -0.34682417
000020 05 37 80 be 9e cf 57 be 01 ef ec be b4 fb 4d 39
       -0.25041977 -0.21075293 -0.46276096 0.0001964409
000030 c0 bc a2 be 7d f8 a4 be 86 a1 9d be 1f df 35 be
       -0.3178463 -0.32220832 -0.30787295 -0.17760895
000040 f9 44 44 be 6e 85 55 be 16 09 44 be 23 c4 24 be
       -0.19166936 -0.2085168 -0.19144091 -0.16090445
000050 91 fe 89 be eb ec 50 be 24 e1 35 be 8b fd 43 be
       -0.2695203 -0.20402877 -0.17761666 -0.19139688
000060 a1 e7 fb be 5d 14 90 be f2 89 77 3a a2 bd 9d be
       -0.49200156 -0.28140536 0.00094428577 -0.3080874
000070 dc 7a 2d 3f c2 91 39 be 2e 5d 1b bf db 20 9b be
       0.67765594 -0.18122008 -0.60689056 -0.30298504
000080 ec af 40 be 05 bc 41 be 90 61 47 be e3 ea 69 be
       -0.18817109 -0.1891938 -0.19470811 -0.22843508
000090 04 b3 a5 be 53 de 11 ba be 95 65 be 0f da b3 be
       -0.3236314 -0.000556444 -0.22420403 -0.35127303
0000a0 35 35 3a be e5 ab 5a b9 18 b4 7b be 43 f8 49 be
       -0.1818436 -0.00020854136 -0.24580419 -0.1972361
0000b0 67 c4 a5 be e5 22 4f be 5a 8a 4d be b7 78 51 40
       -0.32376406 -0.20228155 -0.20072308 3.2729928
0000c0 4d 10 aa be 7f be 3e 3f 2d 2d 8c be f8 d7 3e be
       -0.33215562 0.74509424 -0.27378216 -0.18637073
0000d0 7c fa 76 be 12 a8 4c be 8b 0f a1 be 67 9f ac be
       -0.2411899 -0.19985989 -0.3145717 -0.33715364
0000e0 8f 78 3f be 24 bf 42 be 8d 7f b1 be ac b9 6c be
       -0.18698333 -0.19018227 -0.34667626 -0.23117703
0000f0 1b 8e fd 3e 83 3f 05 3f b9 07 ad be 3f cf 01 3a
       0.4952248 0.52050036 -0.33794954 0.00049518415
000100 47 cf 01 3a d1 c4 e9 be ec e3 ca b9 0a 13 44 be
       0.0004951846 -0.45657972 -0.00038698257 -0.19147888
000110 5d ee 39 be d3 ae 8f be 34 11 14 3a 05 bc 83 be
       -0.18157335 -0.28063068 0.00056483154 -0.25729385
000120 dd 81 66 be 30 ce 3f be 44 97 50 be 0a ab a2 3f
       -0.22510476 -0.18730998 -0.20370203 1.2708447
000130 7a 7a a1 be bc ef 7c be 79 89 2c 3f 14 1b a9 39
       -0.31538755 -0.24700826 0.67397267 0.00032254367
000140 de 85 2c be ab 70 29 be 79 ba 5e be d0 b4 8d be
       -0.16847941 -0.16546886 -0.21750821 -0.2767701
000150 81 a0 ad b9 61 b9 5b be 2e 8a aa be cc d2 41 be
       -0.00033116716 -0.21457435 -0.33308548 -0.18928069
000160 04 dd 05 3f 87 fa 4b be 43 c0 3e be 90 58 de 3e
       0.5229037 -0.19919787 -0.1862803 0.43426943
000170 04 a7 2e be 7f 95 38 be 82 e8 13 3f 13 2f 7e be
       -0.17055899 -0.18025778 0.57776654 -0.24822645
000180 c0 7a a8 be 3d cf 01 ba fa 9b 93 be 59 10 14 3a
       -0.3290615 -0.00049518404 -0.28829938 0.0005648188
000190 d4 eb 98 b9 b6 6e 35 be 7d d9 48 be 55 10 31 be
       -0.00029167405 -0.17718014 -0.19614215 -0.17291386
0001a0 70 8b 8a 3a 8e 1b bd 3a 17 a6 32 be d4 eb 98 b9
       0.001057012 0.0014427768 -0.17446171 -0.00029167405
0001b0 54 d5 54 be 47 32 89 b7 5b c5 5e be 51 cf 5f be
       -0.20784503 -1.6355085e-05 -0.21754973 -0.21856429
0001c0 1e 19 20 be 4b aa 28 be cf 1b 47 be 48 27 31 be
       -0.15634581 -0.16471212 -0.19444202 -0.17300141
0001d0 55 40 81 be d5 9d 84 3f 50 69 43 be 7d 4b 85 be
       -0.25244394 1.0360667 -0.19083142 -0.26034155
0001e0 4b 80 7c 3f 86 df 94 b7 f0 2c 50 3f ed b0 3f be
       0.9863326 -1.7747061e-05 0.8131857 -0.18719836
0001f0 fa cc 58 be d6 3c 49 be 89 bc 8d be 8c 7e 2e be
       -0.21171942 -0.19652113 -0.27682903 -0.17040461
