data/ip/nn_p_fvC_svB_n1_tmi1_sd777.pt (torch, 4063 bytes, 3 tensors)

weight f4 [64, 4]
000000 b4 d8 b6 be 14 a3 6c bd 44 ac bb 3e 68 6c 85 3d
       -0.35712206 -0.05777271 0.36654866 0.065148175
000010 ae f1 b9 be ad 92 24 bd 40 bb c1 3e d5 c9 85 3d
       -0.363172 -0.040178943 0.37838173 0.06532637
000020 06 fd bd be bc 41 25 bd 10 a6 b9 3e d8 79 71 3d
       -0.37107104 -0.040345892 0.36259508 0.05895409
000030 93 60 bf bd cf 66 3d be ac 13 48 3e c5 e7 3b 3e
       -0.09344592 -0.1849625 0.19538754 0.18350132
000040 37 61 e7 3e 19 ba 96 bd 68 98 fa be 49 8c f9 3d
       0.45191357 -0.07359714 -0.48944402 0.121849604
000050 f5 34 51 be 99 3b b3 be 95 ed 43 3e 56 f3 78 3e
       -0.20430358 -0.35006407 0.19133599 0.24311575
000060 e6 c1 dd 3e 2b 09 b5 be e6 3a f1 be f0 fa 80 3e
       0.43311995 -0.35358557 -0.47115248 0.2519145
000070 ae 44 ba be de e3 f8 bd 8f 8d 8f 3e 5b e8 16 3e
       -0.36380523 -0.12152837 0.28037688 0.14737074
000080 62 de 63 be d7 e1 b3 be 2c 11 48 3e 42 19 71 3e
       -0.22252801 -0.3513324 0.195378 0.23544791
000090 75 d4 3f bf 35 08 90 3f 26 00 1f 3f 59 22 80 bf
       -0.7493356 1.1252505 0.621096 -1.0010482
0000a0 1c 78 bd be 62 26 34 bd e0 16 bd 3e 2a 4c 86 3d
       -0.370057 -0.043981917 0.36931515 0.06557496
0000b0 71 e1 14 ba 67 e8 10 38 c5 eb 98 39 19 d8 62 b9
       -0.00056793453 3.4548717e-05 0.0002916736 -0.00021633542
0000c0 9f 67 c1 be e2 4b 41 bd 38 8a b9 3e df 90 82 3d
       -0.3777437 -0.047191508 0.36238265 0.06375288
0000d0 58 f4 b4 be 08 1e 83 bd bd 35 a5 3e 21 5e 96 3d
       -0.3534267 -0.064022124 0.32267562 0.073421724
0000e0 cd 69 94 b9 44 af ef 3a 89 98 26 3a 02 e5 ca b9
       -0.00028307587 0.0018286486 0.0006355127 -0.00038699066
0000f0 62 38 00 be 81 35 13 be 16 fb 63 3e 04 31 13 3e
       -0.12521508 -0.14375879 0.2226375 0.14374167
000100 20 fa 31 bf 6a 44 72 3f 0d ec 17 3f 24 54 84 bf
       -0.69522285 0.9463564 0.5934456 -1.0338178
000110 c5 2e bd be e9 98 0b bd fe a6 be 3e e4 bc 6a 3d
       -0.36949745 -0.034081373 0.3723678 0.057309046
000120 19 e2 b6 be d9 66 35 bd 3f 43 b4 3e 50 b9 86 3d
       -0.35719374 -0.044287536 0.35207555 0.06578314
000130 60 95 b7 be 13 29 ec bc 05 6c bc 3e 63 7b 81 3d
       -0.35856152 -0.02882818 0.36801162 0.06322362
000140 08 11 14 ba 73 e1 14 ba a4 89 33 ba 60 76 f5 b9
       -0.000564829 -0.00056793465 -0.0006848818 -0.00046818238
000150 01 58 b7 be 50 b8 1f bd 21 02 c4 3e 69 d9 6c 3d
       -0.3580933 -0.038994133 0.38282874 0.057824526
000160 f7 96 b4 be 10 bd 12 bd b2 ed b7 3e 41 8b 72 3d
       -0.35271427 -0.035824835 0.35923535 0.059214834
000170 0f 03 b4 be 8d d2 1b 40 d8 18 fe 3e 93 81 12 c0
       -0.35158584 2.434726 0.4962833 -2.2891586
000180 53 8e bf be 63 32 38 bd 31 72 c0 3e 40 57 7e 3d
       -0.37413272 -0.044969928 0.3758712 0.062094927
000190 7a cd de bd f8 94 fc bd 87 03 4c 3e 30 55 2d 3e
       -0.10879035 -0.12333101 0.1992322 0.16927028
0001a0 7b 95 ca be b5 72 4c bd 56 ba ac 3e b5 5c 7b 3d
       -0.3956717 -0.04991408 0.33735913 0.06136771
0001b0 79 a0 ad 39 92 ea 05 ba 25 c1 61 b9 77 19 94 b9
       0.00033116693 -0.0005108501 -0.00021529624 -0.00028247733
0001c0 e5 18 24 be 45 4d b6 be 36 d4 41 3e 97 08 90 3e
       -0.16025122 -0.35605827 0.18928608 0.28131554
0001d0 83 98 18 be dc dd 1e be 93 63 63 3e 42 e3 28 3e
       -0.14901929 -0.1551432 0.22205953 0.16492942
0001e0 ae 88 b2 be 39 83 18 bd 13 48 b7 3e c6 f5 87 3d
       -0.34869903 -0.03723452 0.35797176 0.066386744
0001f0 8d 72 ad 3f f5 2c 11 3e 2a f0 a7 bf e2 47 88 be
       1.3550583 0.14177306 -1.3120167 -0.26617342
000200 83 17 09 be 26 44 1d be 6a 68 5c 3e e9 95 38 3e
       -0.13387875 -0.15358028 0.21524206 0.18025936
000210 a7 c4 b4 be 53 3d 52 be 23 0a 74 3e 05 44 3d 3e
       -0.35306284 -0.20531206 0.23831992 0.18482979
000220 0f 6c 4a be fd a0 b2 be bb 59 58 3e 24 2c 7d 3e
       -0.19767784 -0.3488845 0.2112798 0.2472387
000230 7b 71 c3 be c8 66 59 bd 09 c7 be 3e 36 aa 95 3d
       -0.38172516 -0.053076535 0.37261227 0.07307856
000240 48 cd bc be 76 b9 31 be e4 5f 7a 3e a0 7e 38 3e
       -0.36875367 -0.17355904 0.24450642 0.18017054
000250 c5 c9 2e be 40 1c 31 be bf 4a 57 3e 4b c2 29 3e
       -0.17069156 -0.17295933 0.21024607 0.16578023
000260 20 c4 d3 3e 6a 24 94 bd 0d 2b e1 be f3 94 ec 3d
       0.4136057 -0.07233508 -0.43978158 0.11551847
000270 6a 31 b5 be b9 24 32 bd a8 c2 aa 3e f1 df 87 3d
       -0.35389262 -0.043492053 0.33351636 0.0663451
000280 31 f3 db bd ef 5d 10 be f6 58 4b 3e 96 d8 31 3e
       -0.107397445 -0.14098333 0.19858155 0.17367777
000290 ea b5 bb be 0b 01 35 bd 95 49 bd 3e ce 89 8d 3d
       -0.36662227 -0.044190448 0.369702 0.0691105
0002a0 7c 1d 26 3f a6 c4 10 be 47 a0 25 bf 37 07 42 3e
       0.6488874 -0.14137515 -0.6469769 0.18948065
0002b0 8b 39 22 be b3 bb f6 bd 31 6b 54 3e 88 40 38 3e
       -0.15842263 -0.120475195 0.20744015 0.17993367
0002c0 bf 77 2b 3f 51 7f 12 be 3f c0 28 bf 57 61 4e 3e
       0.66979593 -0.1430638 -0.65918344 0.2015432
0002d0 f6 10 bf be 4b e9 46 bd dd 07 b8 3e d9 03 83 3d
       -0.37317628 -0.04856233 0.359435 0.06397218
0002e0 ae 82 c0 be f5 b1 fb bc 6f 12 b8 3e b7 6f 81 3d
       -0.375997 -0.030724505 0.35951564 0.06320136
0002f0 02 ef 37 be 67 07 38 be a1 95 56 3e de 8d 16 3e
       -0.17962268 -0.17971574 0.20955516 0.14702556
000300 15 9a b9 be e8 2d 29 bd b5 ef ad 3e 80 97 6c 3d
       -0.36250368 -0.041303545 0.33971944 0.05776167
000310 0b a4 b6 be f4 ca 1c be 47 07 7a 3e ff d7 09 3e
       -0.3567203 -0.15311795 0.24416839 0.13461302
000320 1f 8d 84 3e ad a8 53 bf c7 b9 c0 be d5 96 3e 3f
       0.25888917 -0.82679254 -0.37641737 0.744489
000330 51 bb b2 be ce 90 56 be 96 4b 7c 3e 5f bc 3a 3e
       -0.34908536 -0.20953676 0.24638209 0.1823592
000340 3e 52 2c bf 48 18 81 3f 9b d2 22 3f 5e f5 85 bf
       -0.6731299 1.0085535 0.6360261 -1.0465505
000350 7b 13 ce 3e b0 8a 3e 3e 54 11 de be fb d1 19 be
       0.40249237 0.18607593 -0.43372595 -0.15021507
000360 c6 c9 c1 be c2 57 31 bd ff e7 b7 3e 1a ea 7a 3d
       -0.37849253 -0.043296583 0.35919186 0.061258413
000370 0e e3 be be 5c 32 1d bd f9 6a b9 3e 69 82 85 3d
       -0.37282604 -0.038378105 0.36214426 0.065190144
000380 b9 18 c5 be 16 e9 c3 bd 40 99 99 3e 9b 34 a8 3d
       -0.38495424 -0.09565942 0.29999733 0.08213159
000390 7d 09 9b 3e a8 ec 91 3e ec d8 5d be 6b 82 8f be
       0.30280676 0.28500867 -0.2166478 -0.2802919
0003a0 d1 25 b3 be 36 11 61 bd cc 9d bd 3e a4 4d 8f 3d
       -0.3498979 -0.054948054 0.37034452 0.06997231
0003b0 2f d8 62 39 b7 f4 8d ba 41 e8 10 38 8a 89 33 3a
       0.00021633574 -0.0010830377 3.454858e-05 0.0006848803
0003c0 ec 51 ec 3e fd 9a a6 bd 20 ef ff be 61 08 f3 3d
       0.4615625 -0.081350304 -0.49987125 0.118668325
0003d0 7b 18 b6 be b0 db 00 bd 99 27 bd 3e 52 c2 82 3d
       -0.35565552 -0.03145951 0.36944273 0.0638472
0003e0 e9 6d b5 be 8f 1c 3b bd 9e ad b7 3e 74 03 7e 3d
       -0.35435417 -0.045681532 0.35874647 0.062015012
0003f0 84 57 c1 bd 90 66 02 be 28 87 4e 3e 12 5d 33 3e
       -0.094405204 -0.12734437 0.20168746 0.17515972

bias f4 [64]
000000 a0 d9 91 bf 78 8c 9c bf 36 2f 88 bf a9 1b cb be
       -1.1394539 -1.2230368 -1.0639408 -0.3966954
000010 62 3d 64 40 75 55 99 bf 2f a0 1f 40 a5 95 4c bf
       3.5662465 -1.1979204 2.4941518 -0.7991584
000020 17 0a 5d bf 4a ea d4 bf b2 4f 91 bf 38 40 5d be
       -0.8634352 -1.6633999 -1.1352446 -0.21606529
000030 07 8a 83 bf 76 6d 68 bf 28 25 43 be 4d 7a 8f be
       -1.0276498 -0.90792024 -0.19057143 -0.28022996
000040 3a 45 50 bf f4 a4 92 bf 07 1b 81 bf d6 f0 9c bf
       -0.8135563 -1.145659 -1.0086373 -1.2260997
000050 50 01 55 be 4a d6 96 bf 8f 82 90 bf 5c f6 ae 3f
       -0.20801282 -1.1784146 -1.1289843 1.3668933
000060 75 7d 99 bf cf b0 fd bd 59 47 40 bf 48 83 e3 bd
       -1.1991411 -0.12387239 -0.7510887 -0.11109024
000070 7f 67 e1 bf 17 55 e3 be 51 55 93 bf 89 e7 be 40
       -1.760971 -0.44400856 -1.1510412 5.9657636
000080 8b 93 19 bf b5 7b 43 bf 5f 60 a0 bf 88 30 9a bf
       -0.5999076 -0.76360637 -1.252941 -1.204606
000090 9b e8 4a bf 5e e9 04 bf 7c 53 49 40 33 9e 7d bf
       -0.7926118 -0.5191859 3.1457205 -0.9906952
0000a0 f2 fc 46 bf 91 97 97 bf 62 74 e3 3f f0 a1 07 bf
       -0.77729714 -1.1843129 1.7769892 -0.5298147
0000b0 53 62 e9 3f a4 d4 86 bf 76 01 82 bf 6d a6 da be
       1.8233131 -1.0533643 -1.0156696 -0.42705098
0000c0 2e 18 7a bf 1d 22 15 bf bb e9 8b c0 aa f4 57 bf
       -0.97693145 -0.5825518 -4.3722816 -0.843577
0000d0 4c 02 73 bf 3d 53 91 40 08 cf 86 bf 56 e1 86 bf
       -0.9492538 4.541411 -1.0531931 -1.0537517
0000e0 c6 06 20 bf 53 2c 87 40 40 a0 9d bf 2f 8c 2c be
       -0.62510335 4.2241607 -1.231453 -0.16850351
0000f0 17 71 6c 40 9d ef 95 bf 2b ec 90 bf 55 87 ca be
       3.6944025 -1.1713749 -1.1322073 -0.39556375

weight f4 [1, 64]
000000 05 e1 9e be 01 6c 9b be 87 d3 a3 be 70 4d 69 be
       -0.3103105 -0.30355838 -0.3199732 -0.22783446
000010 a3 01 12 3f 5d 08 bc be 72 27 09 3f eb ef a8 be
       0.5703375 -0.3672513 0.53575814 -0.32995543
000020 4d 3a ba be 60 6d c7 3f d7 0b a3 be 97 1b bd 3a
       -0.36372605 1.5580254 -0.3184497 0.0014427778
000030 6f 98 b3 be ff 97 9f be 38 e5 85 b9 2b 77 60 be
       -0.35077235 -0.3117065 -0.00025538518 -0.21920459
000040 2e 5b ba 3f e9 1a a6 be 16 e0 9b be 39 6f 96 be
       1.4559076 -0.32442406 -0.30444402 -0.2938173
000050 e8 10 14 ba 4b 93 a4 be 5f 25 9a be 56 30 50 40
       -0.0005648271 -0.32143626 -0.30106637 3.2529502
000060 09 ea a1 be 60 40 5a be b9 a3 b1 be a6 89 33 ba
       -0.31623867 -0.2131362 -0.34695223 -0.00068488193
000070 ce 60 d1 be c0 74 72 be 7b c2 96 be 75 17 0c 40
       -0.4089417 -0.23677349 -0.29445252 2.1889317
000080 1e 63 70 be fb ea a6 be aa 2c c0 be 50 b2 a2 be
       -0.2347531 -0.3260115 -0.37534076 -0.31776667
000090 55 c5 a5 be 3d 07 6e be d4 68 18 3f 7b 0f 9a be
       -0.32377115 -0.23244949 0.59534955 -0.30089936
0000a0 c9 1a 5b be 65 0e 9d be 46 44 29 3f 39 03 6c be
       -0.21396936 -0.30675045 0.661198 -0.23048104
0000b0 93 01 34 3f 87 c5 a5 be 6b a5 a7 be 12 b9 68 be
       0.703149 -0.32377264 -0.3274339 -0.22726849
0000c0 de 86 9b be 83 2c 94 be c0 1f 9b 3f 3b f8 aa be
       -0.30376333 -0.2894021 1.2119064 -0.3339251
0000d0 10 9a c2 3f 96 bb 34 3f 85 b0 a6 be 3a 4b a7 be
       1.5203266 0.70598733 -0.3255655 -0.3267458
0000e0 f7 aa a7 be 0b 9a 49 bf f2 66 98 be 7e d3 00 39
       -0.32747623 -0.78750676 -0.2976604 0.00012285818
0000f0 2f 72 09 3f 82 b1 9b be c1 0b 9e be 76 94 5d be
       0.53689855 -0.30408865 -0.30868343 -0.21638665
