data/ip/nn_p_fvC_svI_n1_tmi0_sd777.pt (torch, 4063 bytes, 3 tensors)

weight f4 [64, 4]
000000 a2 29 f1 be 68 e9 c8 bd 68 eb 75 be 2c 8f 08 be
       -0.47102076 -0.09810144 -0.24015582 -0.13335866
000010 68 26 e2 be d0 75 4d 3e d0 7a e5 be 70 80 02 bd
       -0.44169927 0.20064473 -0.4482026 -0.03186077
000020 ac 63 2b bf 0b dd d3 be 91 78 65 3f c9 a8 16 3e
       -0.6694896 -0.4137958 0.89637095 0.14712824
000030 d9 35 2a bf 51 0e c9 be b0 57 6f 3f e2 80 3c 3e
       -0.66488415 -0.39268735 0.93493176 0.1840854
000040 6a 04 9b 3f a1 bc 3c 3f e1 68 ce bf a5 59 3f be
       1.2110722 0.73725325 -1.6125757 -0.1868654
000050 79 4c 28 bf 91 0d cb be ac 24 63 3f 86 31 39 3e
       -0.6574169 -0.39658788 0.8872783 0.18085298
000060 4b 64 bb 3f b2 a4 55 3f 76 03 0f c0 ee 26 c3 be
       1.4639982 0.8345443 -2.2345862 -0.38115638
000070 64 2d 2d bf 27 29 ba be e7 80 53 3f 98 60 6a 3d
       -0.67647386 -0.36359522 0.82618564 0.057221025
000080 8e 38 23 bf 8c 79 b4 be 4a 95 69 3f 9a 00 e5 3d
       -0.6375817 -0.35248983 0.9124342 0.11181755
000090 34 d0 60 3f 51 8c 18 40 b5 d4 b2 3f 52 a0 8f c0
       0.8781769 2.3835642 1.3971163 -4.4883204
0000a0 2b f6 19 bf 35 ca 9c be d3 ed 5d 3f e0 c7 13 3d
       -0.6014125 -0.30623022 0.86691016 0.036079288
0000b0 d4 42 4f be 40 a5 54 3e e8 ff a5 bd fc 75 de be
       -0.20240337 0.20766163 -0.08105451 -0.4344939
0000c0 09 e9 2e bf e2 23 ca be 68 73 6c 3f ca b9 42 3e
       -0.68324333 -0.394805 0.92363596 0.19016185
0000d0 9c 58 19 bf ce fc 99 be 86 ba 68 3f 2b c3 b9 3d
       -0.5990083 -0.30075687 0.9090961 0.090704285
0000e0 e4 a7 c7 be 34 cc 7b be c8 b1 88 bd 40 0c 61 bd
       -0.38995278 -0.24589616 -0.06674534 -0.054943323
0000f0 81 5c cd be 57 b5 73 be 7a 91 33 3f b8 bb b7 3d
       -0.40109637 -0.23799644 0.70143855 0.089713514
000100 32 4e b2 3d 64 32 29 40 f8 d2 bf 3f d6 84 83 c0
       0.08706321 2.6437006 1.4986258 -4.1099653
000110 80 36 56 be a0 a3 a4 bd ec 3c 02 be 18 20 fc bd
       -0.20919228 -0.080390215 -0.12718552 -0.12310809
000120 f8 73 1d bf 4d 8b a3 be 17 2d 60 3f 11 65 91 3d
       -0.6150508 -0.31942216 0.875688 0.07099355
000130 6c 89 28 bf 9f e9 e1 be ec c5 69 3f ec f1 23 3e
       -0.6583469 -0.4412355 0.9131763 0.16010255
000140 4c 5f 41 be 40 28 56 3e ae 1f a5 be 80 0b 64 bd
       -0.18884009 0.20913792 -0.32250732 -0.05567503
000150 4e a4 ee be f7 78 bc bd df 9d 60 3f 5c a8 40 be
       -0.4660973 -0.0920276 0.8774089 -0.18814224
000160 99 4a 2c bf 3e f9 df be 9f bc 66 3f ff c1 23 3e
       -0.67301327 -0.43744844 0.9013156 0.15991972
000170 f6 bf f8 be f2 64 b0 be 9f ab 19 3e aa 85 ea be
       -0.48583955 -0.34452015 0.15006875 -0.45805103
000180 30 a9 2d bf 90 6e c7 be 86 9d 73 3f b1 b0 32 3e
       -0.67836285 -0.3895154 0.95162237 0.17450215
000190 9b 35 35 bf 56 56 cf be e0 a3 7e 3f 2a d1 47 3e
       -0.7078492 -0.40495557 0.99468803 0.19513384
0001a0 dd 10 2b bf 6d 70 c1 be be e7 64 3f ea ae 18 3e
       -0.66822606 -0.37781087 0.8941611 0.14910474
0001b0 18 ae de be 14 ad fc be 00 af 62 3b c4 71 44 be
       -0.43492198 -0.49350798 0.0034589171 -0.19184023
0001c0 31 1c 15 bf 0e 4b cb be f9 35 63 3f 72 d4 ab 3d
       -0.5824614 -0.397057 0.8875423 0.0839013
0001d0 ed 96 33 bf de 78 d1 be 85 f1 77 3f 60 07 45 3e
       -0.7015217 -0.40912527 0.96852905 0.19241095
0001e0 95 9a f2 be 1b b8 a3 bd 85 83 56 3f bb bc 36 be
       -0.47383562 -0.079941 0.8379443 -0.17845432
0001f0 38 28 dd bd f0 11 de 3d 92 76 d0 be 58 2d db be
       -0.10798687 0.10843265 -0.40715462 -0.42808032
000200 8a 07 26 bf 49 4e b6 be a5 ff 4c 3f 1b 1d a4 3d
       -0.64855254 -0.35606602 0.8007758 0.08013364
000210 87 91 27 bf ef 5d cb be c0 c1 49 3f 49 d9 4e 3d
       -0.6545643 -0.39720103 0.78811264 0.050500188
000220 e6 4a 1c bf 11 8a 9c be 00 fe 5f 3f 19 6a 0d 3d
       -0.61051786 -0.30574086 0.8749695 0.03452501
000230 78 4e e0 be ee 70 a4 3e 64 e0 19 be 78 51 d0 bd
       -0.43809867 0.3211741 -0.15027004 -0.10171789
000240 1e d3 30 bf 61 a5 cb be 88 bd 71 3f 91 c9 3a 3e
       -0.6907214 -0.39774612 0.94429827 0.18240954
000250 16 0e 06 bf e6 8b a8 be f2 ca 37 3f 27 b0 16 3d
       -0.52365243 -0.32919234 0.71794045 0.036789086
000260 07 f6 9c 3d 0a f3 4f 3e d1 16 de be dd 1d f0 3c
       0.076641135 0.20307556 -0.43376783 0.029311115
000270 59 3f cc be 4f 62 77 be be 2a 39 3f 10 bc d9 3d
       -0.3989208 -0.24158596 0.72330844 0.10631573
000280 f6 05 18 bf ba 32 b3 be 02 88 60 3f 81 ef b3 3d
       -0.59384096 -0.3499964 0.8770753 0.08785916
000290 0a f1 e1 be 38 40 d8 be 80 71 9f be d4 be a5 be
       -0.4412921 -0.42236495 -0.3114128 -0.32372153
0002a0 e0 06 71 3e 50 7f 1e 3e e0 fd 11 be a8 02 c3 be
       0.23537779 0.15478253 -0.14257002 -0.38087964
0002b0 63 d3 0e bf 69 03 9b be 04 4f 4d 3f e5 d0 b5 3c
       -0.557913 -0.3027604 0.80198693 0.022194335
0002c0 e2 4b 88 be 70 c9 91 be fc d8 95 be 00 4e c6 bc
       -0.26620394 -0.28473997 -0.29267108 -0.024207115
0002d0 c9 6c 2b bf 00 b5 ba be 26 ec 58 3f 0e 46 a7 3d
       -0.6696287 -0.36466217 0.84735334 0.08167659
0002e0 52 f2 20 bf 44 76 c6 be 37 e9 76 3f 92 30 3b 3e
       -0.6286975 -0.38762105 0.9644961 0.18280247
0002f0 01 8c 2c bf 6a 86 b4 be 75 0e 4c 3f 5d 95 ad 3d
       -0.6740113 -0.352588 0.7970956 0.084757544
000300 d4 75 1c bf f5 48 bb be f1 38 5b 3f 03 82 87 3d
       -0.6111729 -0.365791 0.8563376 0.06616595
000310 19 29 dd be 9b bf 7b be f2 4b 37 3f 00 73 ba 3d
       -0.43195418 -0.2458481 0.7160026 0.09103966
000320 98 4a a1 3f 9d c2 2b 3f 26 94 f3 bf 05 e7 f7 3c
       1.2600889 0.6709383 -1.9029586 0.030261526
000330 5b 5c 27 bf 55 81 cb be 00 bd 56 3f f3 52 df 3d
       -0.653753 -0.3974711 0.8388214 0.10904493
000340 fc 5f 8e 3e c9 34 16 40 13 f4 c2 3f 75 c3 86 c0
       0.27807605 2.3469718 1.5230736 -4.2113595
000350 e8 91 b7 3d e2 ee 95 3e 40 31 ed be 04 03 e9 be
       0.08963376 0.29283816 -0.46326637 -0.45510113
000360 2b 42 17 bf d0 c9 a9 be 41 b1 64 3f d1 64 0c 3d
       -0.5908534 -0.33161783 0.8933297 0.034275834
000370 ae 87 22 bf e0 44 c6 be a2 ad 65 3f 8a 3a 12 3e
       -0.6348828 -0.38724422 0.8971807 0.14280143
000380 75 13 2b bf aa 9d cf be 3b 41 6c 3f fd 0e 23 3e
       -0.66826564 -0.40549976 0.92287034 0.15923686
000390 86 a5 ea be c8 0b f5 be 04 b4 2d 3e ea d1 ee be
       -0.4582941 -0.4786055 0.16963202 -0.46644527
0003a0 1c ab db be d1 97 81 bd 61 04 5f 3f 32 a2 48 be
       -0.42903984 -0.06327785 0.87116057 -0.19593123
0003b0 df d8 28 3f 66 8a 18 40 90 31 b0 3f 1e f8 8d c0
       0.6595592 2.3834472 1.3765125 -4.4365377
0003c0 32 6c f3 be d0 b4 a9 be a0 bf 9e bd 68 ac ff be
       -0.47543484 -0.3314576 -0.07751393 -0.49936223
0003d0 00 8a 0b bd e0 87 7f be 88 56 ee bd 00 20 95 b8
       -0.034067154 -0.24954176 -0.11637598 -7.110834e-05
0003e0 95 61 11 bf 73 c0 a4 be 11 3f 3d 3f b5 d0 10 3d
       -0.56789523 -0.32178077 0.73924357 0.03535529
0003f0 40 93 c9 be 1d 56 72 be f0 0c 30 3f f4 fa c2 3d
       -0.39370155 -0.23665662 0.6876974 0.09520522

bias f4 [64]
000000 48 27 8d 3e 90 41 22 bd ec e9 aa c0 f2 34 c0 c0
       0.27569032 -0.039613307 -5.341055 -6.006463
000010 03 86 22 41 5a 81 ad c0 16 ea 25 41 7c 38 70 c0
       10.157718 -5.42204 10.36965 -3.7534475
000020 e3 f3 a2 c0 9b f8 c9 3e ae 06 88 c0 38 40 5d be
       -5.0922713 0.39447483 -4.2508154 -0.21606529
000030 f5 f8 bd c0 01 79 a1 c0 28 25 43 be 9a a6 37 c0
       -5.9366403 -5.046021 -0.19057143 -2.8695436
000040 b9 fb 91 3d 5e 1a e5 3e 66 96 92 c0 4d 44 b1 c0
       0.071280904 0.4474668 -4.580859 -5.5395875
000050 50 01 55 be 58 9f 06 c0 d3 53 b2 c0 d4 30 96 3e
       -0.20801282 -2.1034756 -5.5727324 0.29334128
000060 fc e7 c0 c0 8b 64 c1 c0 e4 59 ae c0 48 83 e3 bd
       -6.0283184 -6.0435233 -5.448473 -0.11109024
000070 02 c3 9d c0 d2 05 be c0 3f 7e 07 c0 64 1b 31 3e
       -4.9300547 -5.9382105 -2.1170805 0.17295605
000080 c8 c7 72 c0 d1 38 56 c0 3e 02 89 c0 94 d0 18 be
       -3.7934437 -3.3472178 -4.2815237 -0.14923316
000090 a0 0d be c0 41 03 44 c0 0d 02 23 be 1a a8 3b c0
       -5.939163 -3.0626986 -0.15918751 -2.932135
0000a0 bd 1a 9b c0 e8 1d a8 3d 7e 53 cc 3e 6a 3e 79 c0
       -4.847014 0.08208829 0.3990745 -3.8944345
0000b0 20 91 ef bc 1b 8e 89 c0 1d a3 c2 c0 23 6e 6a c0
       -0.029244006 -4.298597 -6.0824113 -3.6629722
0000c0 15 b8 80 c0 00 f4 3b c0 bf 03 1c 41 48 87 91 c0
       -4.022471 -2.9367676 9.750915 -4.547764
0000d0 dc a8 8f 3e c0 53 22 3d fb ee 8f c0 60 4e a7 c0
       0.28058517 0.03963065 -4.4979224 -5.2283173
0000e0 ad 89 ad c0 d4 cb 19 3e b7 ee 0b c0 23 d1 32 3f
       -5.423056 0.1501916 -2.186445 0.6985037
0000f0 90 05 dc 3d cc dc 7b 3e e7 1a 50 c0 50 5c 37 c0
       0.107432485 0.24595946 -3.251642 -2.8650093

weight f4 [1, 64]
000000 1c 0b 19 3d a2 c5 e0 3d 46 d7 46 be fb 45 2b be
       0.03736411 0.109751955 -0.19418058 -0.16725914
000010 28 37 74 3f 4c 2b 4b be e8 8d 2b 40 33 aa 52 be
       0.9539666 -0.19840735 2.6805363 -0.20572738
000020 0d 65 4d be 92 0d 93 3f a3 d0 35 be f8 91 8f 3c
       -0.20058079 1.1488516 -0.1775537 0.017525658
000030 05 c2 20 be e0 b1 3c be 60 5a ac 3b ca 91 2a be
       -0.15699013 -0.18427229 0.005259797 -0.16657177
000040 f1 1f 65 3f 90 66 f4 3d f7 c6 4b be f2 3a 3f be
       0.89501864 0.11933625 -0.19900118 -0.1867483
000050 1c 9c d3 3d 91 42 2c be 27 b5 41 be 9b 84 85 3c
       0.1033251 -0.16822268 -0.1891676 0.016298583
000060 63 e8 33 be 52 e4 62 be 4d 95 2d be 7c 75 71 bd
       -0.17569117 -0.2215741 -0.16951485 -0.058949932
000070 5d 6b 30 be b8 6b 67 be ae ec 0f be da 8e a2 3d
       -0.17228456 -0.22599685 -0.1405513 0.07937403
000080 85 4e 48 be bc 6b 34 be b9 46 4a be 04 b8 27 3d
       -0.19561203 -0.17619222 -0.19753541 0.040946975
000090 8c 7a 33 be c9 7a 2b be f6 78 84 bd fa 80 3a be
       -0.17527217 -0.16746058 -0.06468384 -0.18213263
0000a0 62 f8 41 be 60 aa c8 bc 70 1c f0 bc 30 9e 10 be
       -0.18942407 -0.024495304 -0.029310435 -0.14122844
0000b0 e4 0a a5 bd 4e 74 34 be d8 df 3f be 54 d6 39 be
       -0.08058718 -0.17622492 -0.18737733 -0.18148166
0000c0 f0 ce 36 be de 54 34 be 19 d1 6d 3f 02 d6 3e be
       -0.17852378 -0.176105 0.9289718 -0.18636325
0000d0 78 59 7f 3f 40 2b c9 bd 43 d1 42 be a8 14 44 be
       0.99745893 -0.098227024 -0.1902514 -0.19148505
0000e0 2c f3 4a be 7c 90 61 3d 9f 22 30 be cc 2d 90 3f
       -0.19819325 0.05506943 -0.17200707 1.1263976
0000f0 06 85 de bd 28 6f 08 3d 68 8c 45 be 18 32 1b be
       -0.10865216 0.03330913 -0.19291842 -0.15155828
