data/ip/nn_p_fvC_svI_n1_tmi1_sd777.pt (torch, 4063 bytes, 3 tensors)

weight f4 [64, 4]
-0.47102076 -0.09810144 -0.24015582 -0.13335866 -0.44169927 0.20064473 -0.4482026 -0.03186077
-0.7548326 -0.006517621 0.77197254 0.072157584 -0.99133915 -0.12962055 0.96284443 0.0821636
-0.51480263 -0.49324143 -0.6200366 0.16349548 -0.98565954 -0.12447103 0.9814431 0.12179793
2.7898333 0.20925327 -2.887096 -0.34618983 -1.016202 -0.21472901 1.0728763 0.20990166
-0.995992 -0.19172357 1.0355092 0.2014387 -1.511186 4.639427 1.5774411 -4.7795734
-0.6874967 -0.053052057 0.732484 0.06306093 -0.20240337 0.20766163 -0.08105451 -0.4344939
-0.99807113 -0.12818442 0.97436106 0.12608941 -0.6746422 -0.08714554 0.75744975 0.056120746
-0.38995278 -0.24589616 -0.06674534 -0.054943323 -0.97585094 -0.1331138 0.9514868 0.12955081
-1.5618883 4.696813 1.5543327 -4.599029 -0.20919228 -0.080390215 -0.12718552 -0.12310809
-0.7324512 -0.016729081 0.7477375 0.07896572 -0.3934229 -0.13208437 0.17034079 -0.45911294
-0.18884009 0.20913792 -0.32250732 -0.05567503 -0.513824 0.24399006 0.12544642 -0.5920089
-0.6963737 -0.026772644 0.72565585 0.07589803 -0.48583955 -0.34452015 0.15006875 -0.45805103
-0.72415465 -0.044084404 0.75188744 0.07998158 -0.9931033 -0.1856734 1.0570933 0.2053568
-0.9762854 -0.1990862 0.92025584 0.08004693 -0.43492198 -0.49350798 0.0034589171 -0.19184023
-0.7843903 -0.109096274 0.73527694 0.00563139 -0.73197484 -0.033183742 0.7398232 0.08048556
-0.7304892 -0.02805312 0.74827516 0.08093602 -0.10798687 0.10843265 -0.40715462 -0.42808032
-0.9746752 -0.18258472 0.9972715 0.19426359 -1.0202788 -0.1557943 1.0328572 0.17755792
-0.9861362 -0.16193342 1.0535474 0.2032854 -0.43809867 0.3211741 -0.15027004 -0.10171789
-0.72256756 -0.03236801 0.7426362 0.077770144 -0.99939066 0.28375173 0.92643046 -0.2260256
0.044912957 0.19173056 -0.44642144 0.0074097062 -0.9800668 -0.16152366 1.0659117 0.21457657
-0.9351748 0.2716257 0.9300846 -0.22095618 -0.4412921 -0.42236495 -0.3114128 -0.32372153
0.23537779 0.15478253 -0.14257002 -0.38087964 -1.0275313 -0.14602645 1.032672 0.15225132
-0.26620394 -0.28473997 -0.29267108 -0.024207115 -1.0296028 -0.19680142 0.93377185 0.075968385
-1.0041937 -0.15291584 0.9933797 0.11004174 -0.71908015 -0.04939796 0.7699859 0.07391707
-1.058255 -0.15890521 0.8942536 0.05149058 -0.70033985 -0.02458746 0.7335966 0.082974605
2.2469327 0.31018174 -2.176494 -0.20193842 -0.6678878 -0.03951077 0.7286404 0.0764309
-1.642107 4.730926 1.4912875 -4.6379857 0.08963376 0.29283816 -0.46326637 -0.45510113
-0.68772686 -0.058569726 0.7388512 0.07012931 -0.9246953 -0.14426243 1.0088972 0.22182263
-1.0541773 -0.097411804 1.0112964 0.1561333 -0.4582941 -0.4786055 0.16963202 -0.46644527
-0.6636595 -0.06603218 0.7511445 0.05247861 -1.4899596 4.794311 1.5495667 -4.676186
-0.47543484 -0.3314576 -0.07751393 -0.49936223 -0.034067154 -0.24954176 -0.11637598 -7.110834e-05
-0.68861645 -0.03600108 0.72903585 0.0640805 -0.70075804 -0.049377695 0.74414325 0.07406371
00000000: a229 f1be 68e9 c8bd 68eb 75be 2c8f 08be
00000010: 6826 e2be d075 4d3e d07a e5be 7080 02bd
00000020: b63c 41bf c591 d5bb fe9f 453f 5bc7 933d
00000030: 67c8 7dbf 40bb 04be f97c 763f 6445 a83d
00000040: 1bca 03bf 248a fcbe b8ba 1ebf 5c6b 273e
00000050: 2f54 7cbf abea febd db3f 7b3f 3171 f93d
00000060: a18c 3240 7d46 563e 2ec6 38c0 cb3f b1be
00000070: e812 82bf ece1 5bbe 0354 893f 76f0 563e
00000080: 55f9 7ebf 2f53 44be 918b 843f f245 4e3e
00000090: 8b6e c1bf 3076 9440 97e9 c93f 44f2 98c0
000000a0: c9ff 2fbf 1d4d 59bd 1284 3b3f 1726 813d
000000b0: d442 4fbe 40a5 543e e8ff a5bd fc75 debe
000000c0: 9781 7fbf c742 03be ba6f 793f 951d 013e
000000d0: 5ab5 2cbf 5c79 b2bd 3ae8 413f dede 653d
000000e0: e4a7 c7be 34cc 7bbe c8b1 88bd 400c 61bd
000000f0: 5ed1 79bf fc4e 08be a494 733f f8a8 043e
00000100: f5eb c7bf 4b4c 9640 60f4 c63f 3f2b 93c0
00000110: 8036 56be a0a3 a4bd ec3c 02be 1820 fcbd
00000120: ec81 3bbf 6d0b 89bc ba6b 3f3f c8b8 a13d
00000130: ba6e c9be 2041 07be d16d 2e3e da10 ebbe
00000140: 4c5f 41be 4028 563e ae1f a5be 800b 64bd
00000150: f889 03bf 88d8 793e 0775 003e e58d 17bf
00000160: 8c45 32bf 4e52 dbbc 95c4 393f 6d70 9b3d
00000170: f6bf f8be f264 b0be 9fab 193e aa85 eabe
00000180: 3362 39bf d991 34bd b27b 403f 62cd a33d
00000190: 053c 7ebf 2b21 3ebe d54e 873f 0e49 523e
000001a0: d7ed 79bf 41dd 4bbe e395 6b3f a5ef a33d
000001b0: 18ae debe 14ad fcbe 00af 623b c471 44be
000001c0: cdcd 48bf de6d dfbd 1c3b 3c3f 8687 b83b
000001d0: b462 3bbf adeb 07bd 0e65 3d3f 9dd5 a43d
000001e0: 5701 3bbf a8cf e5bc f68e 3f3f c9c1 a53d
000001f0: 3828 ddbd f011 de3d 9276 d0be 582d dbbe
00000200: 5084 79bf 7df7 3abe 2f4d 7f3f 09ed 463e
00000210: 7f98 82bf 8a88 1fbe aa34 843f bed1 353e
00000220: 6c73 7cbf e0d1 25be a4da 863f 0c2a 503e
00000230: 784e e0be ee70 a43e 64e0 19be 7851 d0bd
00000240: 30fa 38bf 5294 04bd 681d 3e3f f445 9f3d
00000250: 11d8 7fbf e847 913e 8c2a 6d3f 4173 67be
00000260: a6f6 373d 0455 443e 5a91 e4be 1fcd f23b
00000270: a8e5 7abf 7566 25be cb6f 883f f6b9 5b3e
00000280: 9e67 6fbf 8612 8b3e 061a 6e3f 5642 62be
00000290: 0af1 e1be 3840 d8be 8071 9fbe d4be a5be
000002a0: e006 713e 507f 1e3e e0fd 11be a802 c3be
000002b0: 2586 83bf f587 15be 992e 843f c5e7 1b3e
000002c0: e24b 88be 70c9 91be fcd8 95be 004e c6bc
000002d0: 06ca 83bf 5086 49be ac0b 6f3f 5095 9b3d
000002e0: 6b89 80bf f895 1cbe 224e 7e3f 905d e13d
000002f0: a315 38bf 8455 4abd cc1d 453f d561 973d
00000300: e674 87bf 0cb8 22be ceed 643f c9e7 523d
00000310: 7949 33bf a46b c9bc fdcc 3b3f 97ee a93d
00000320: bfcd 0f40 24d0 9e3e ad4b 0bc0 f2c8 4ebe
00000330: b2fa 2abf 0cd6 21bd 2d88 3a3f ce87 9c3d
00000340: 9030 d2bf bf63 9740 82e2 be3f 616a 94c0
00000350: e891 b73d e2ee 953e 4031 edbe 0403 e9be
00000360: de0e 30bf cfe6 6fbd 5a25 3d3f f59f 8f3d
00000370: d5b8 6cbf 88b9 13be 8b23 813f 7925 633e
00000380: 48ef 86bf d77f c7bd 2972 813f 68e1 1f3e
00000390: 86a5 eabe c80b f5be 04b4 2d3e ead1 eebe
000003a0: 97e5 29bf e13b 87bd 024b 403f d0f3 563d
000003b0: ffb6 bebf ff6a 9940 3458 c63f 51a3 95c0
000003c0: 326c f3be d0b4 a9be a0bf 9ebd 68ac ffbe
000003d0: 008a 0bbd e087 7fbe 8856 eebd 0020 95b8
000003e0: 2b49 30bf de75 13bd 18a2 3a3f a33c 833d
000003f0: e164 33bf 4440 4abd 2c80 3e3f b7ae 973d

bias f4 [64]
0.27569032 -0.039613307 -2.3494985 -4.5940256 0.24126679 -5.346986 12.562001 -6.905989
-6.7694626 0.5978769 -2.3369303 -0.21606529 -5.588849 -2.3899343 -0.19057143 -5.245409
0.69706327 0.4474668 -2.2951345 -0.02591517 -0.20801282 0.15650883 -2.2887418 0.29334128
-2.3246415 -6.724413 -3.6911538 -0.11109024 -2.3530457 -2.2708578 -2.3573616 0.17295605
-6.0021544 -6.22346 -6.751111 -0.14923316 -2.2969341 -1.7550853 -0.17395793 -6.5956736
-1.8140941 0.08208829 0.3990745 -5.6416717 -0.029244006 -4.048 -5.3532815 -2.3499227
-3.0614629 -2.3497374 13.285496 -2.3030148 0.7945103 0.03963065 -2.28148 -6.467956
-5.8883443 0.1501916 -2.3227057 0.7329397 0.107432485 0.24595946 -2.3375282 -2.2924912
00000000: 4827 8d3e 9041 22bd 2f5e 16c0 4202 93c0
00000010: a40e 773e 821a abc0 f5fd 4841 ddfd dcc0
00000020: 709f d8c0 760e 193f 4490 15c0 3840 5dbe
00000030: dad7 b2c0 aff4 18c0 2825 43be 64da a7c0
00000040: bd72 323f 5e1a e53e 7ce3 12c0 0d4c d4bc
00000050: 5001 55be da43 203e bf7a 12c0 d430 963e
00000060: edc6 14c0 642e d7c0 dd3b 6cc0 4883 e3bd
00000070: 4d98 16c0 bc55 11c0 03df 16c0 641b 313e
00000080: a611 c0c0 9626 c7c0 1a09 d8c0 94d0 18be
00000090: f800 13c0 a3a6 e0bf 0722 32be c20f d3c0
000000a0: 3c34 e8bf e81d a83d 7e53 cc3e 9388 b4c0
000000b0: 2091 efbc 3789 81c0 154e abc0 2265 16c0
000000c0: 02ef 43c0 1962 16c0 6491 5441 9864 13c0
000000d0: 0765 4b3f c053 223d c503 12c0 7ff9 cec0
000000e0: 516d bcc0 d4cb 193e 36a7 14c0 f0a1 3b3f
000000f0: 9005 dc3d ccdc 7b3e 109a 15c0 2db8 12c0

weight f4 [1, 64]
0.03736411 0.109751955 -0.22906156 -0.21378873 -0.054806538 -0.16891667 1.7428776 -0.20759246
-0.1698305 0.90765584 -0.16266513 0.017525658 -0.15274106 -0.17072287 0.005259797 -0.15929826
0.9053597 0.11933625 -0.17449605 -0.038052756 0.1033251 -0.002982541 -0.16189338 0.016298583
-0.19090748 -0.17547375 -0.23483743 -0.058949932 -0.18819287 -0.18145643 -0.1883388 0.07937403
-0.19095373 -0.19391903 -0.18634011 0.040946975 -0.17489934 -0.20254633 -0.0562579 -0.20079425
-0.18314995 -0.024495304 -0.029310435 -0.1964037 -0.08058718 -0.20585136 -0.16425887 -0.21290344
-0.21705787 -0.17898782 0.88168865 -0.17752284 1.0025946 -0.098227024 -0.162182 -0.19542891
-0.19213277 0.05506943 -0.18506174 0.936284 -0.10865216 0.03330913 -0.16493091 -0.1721286
00000000: 1c0b 193d a2c5 e03d 1d8f 6abe 6feb 5abe
00000010: d27c 60bd 7ef8 2cbe 9d16 df3f 1e93 54be
00000020: 0ce8 2dbe 225c 683f b091 26be f891 8f3c
00000030: 2768 1cbe fad1 2ebe 605a ac3b 151f 23be
00000040: a7c5 673f 9066 f43d 18af 32be 35dd 1bbd
00000050: 1c9c d33d bc76 43bb 61c7 25be 9b84 853c
00000060: 407d 43be 64af 33be 3979 70be 7c75 71bd
00000070: a2b5 40be b7cf 39be e3db 40be da8e a23d
00000080: 6089 43be b692 46be f1cf 3ebe 04b8 273d
00000090: d018 33be 4e68 4fbe af6e 66bd 029d 4dbe
000000a0: a98b 3bbe 60aa c8bc 701c f0bc 0d1e 49be
000000b0: e40a a5bd b3ca 52be 7a33 28be 5c03 5abe
000000c0: 6b44 5ebe 9548 37be 59b6 613f 8cc8 35be
000000d0: 0555 803f 402b c9bd 0a13 26be 841e 48be
000000e0: 74be 44be 7c90 613d d380 3dbe 4fb0 6f3f
000000f0: 0685 debd 286f 083d a6e3 28be 7b42 30be
