data/ip/nn_p_fvC_svB_n1_tmi0_sd777.pt (torch, 4063 bytes, 3 tensors)

weight f4 [64, 4]
-0.47102076 -0.09810144 -0.24015582 -0.13335866 -0.44169927 0.20064473 -0.4482026 -0.03186077
-0.72776467 -0.3614117 0.8085774 0.2183361 -0.36451206 -0.46912712 0.5482238 0.3263098
1.4691054 0.51457614 -2.5362136 0.4467884 -0.54987586 -0.29381415 0.81352556 0.11001869
1.8259574 1.0636464 -2.0714605 -0.6441169 -0.6736758 -0.3258627 0.8556098 0.11593038
-0.42405257 -0.40568975 0.50011784 0.372427 1.500298 2.6876261 1.1788743 -4.664523
-0.40748402 -0.43110946 0.60852534 0.31184328 -0.20240337 0.20766163 -0.08105451 -0.4344939
-0.6258235 -0.37287232 0.89908767 0.30750674 -0.6460258 -0.37863737 0.7879864 0.26453763
-0.38995278 -0.24589616 -0.06674534 -0.054943323 -0.56392694 -0.3323405 0.767554 0.26061365
-0.3930236 0.6372238 1.9455246 -2.1488578 -0.20919228 -0.080390215 -0.12718552 -0.12310809
-0.5498239 -0.32021147 0.7381635 0.07933671 -0.3854204 -0.1056368 0.17527165 -0.45610332
-0.18884009 0.20913792 -0.32250732 -0.05567503 -0.510313 0.2871219 0.109909356 -0.58870816
-0.40558198 -0.3719376 0.53226715 0.31396592 -0.48583946 -0.34452015 0.15006876 -0.45805103
-0.63246286 -0.32858709 0.8173391 0.06366567 -0.511518 -0.43896112 0.53463924 0.30644026
-0.5964168 -0.32296357 0.839597 0.11352255 -0.43492198 -0.49350798 0.0034589171 -0.19184023
-0.6429073 -0.3988357 0.7017071 0.18873262 -0.6668426 -0.38357958 0.7499712 0.23314096
-0.62804025 -0.35693812 0.76195014 0.047268774 -0.10798687 0.10843265 -0.40715462 -0.42808032
-0.3371848 -0.50251573 0.57051814 0.29934868 -0.4282917 -0.39766595 0.49510723 0.3957917
-0.6006097 -0.33203304 0.8614073 0.28684884 -0.43809867 0.3211741 -0.15027004 -0.10171789
-0.5926369 -0.28881526 0.84310186 0.10089756 -0.62383294 -0.42767668 0.8971094 0.28579015
0.039484676 0.20655833 -0.4402559 0.010676802 -0.6137024 -0.35728118 0.8802152 0.28697518
-0.6521935 -0.33933884 0.8718304 0.30031008 -0.4412921 -0.42236495 -0.3114128 -0.32372153
0.23537779 0.15478253 -0.14257002 -0.38087964 -0.095708296 -0.577749 0.6669683 0.24194834
-0.26620394 -0.28473997 -0.29267108 -0.024207115 -0.45693743 -0.5196102 0.55764574 0.3091459
-0.45761445 -0.51554006 0.53119344 0.2828203 -0.6200862 -0.367796 0.6846554 0.12983282
-0.6492713 -0.3478994 0.8550852 0.11656164 -0.37720746 -0.42300317 0.5163082 0.36947015
0.9614706 0.14249569 -1.5084822 0.37927818 -0.71050715 -0.33302507 0.74474394 0.21235661
-0.87313026 1.5900791 1.9994813 -3.1048744 0.08963376 0.29283816 -0.46326637 -0.45510113
-0.72913307 -0.34525695 0.76344323 0.20249517 -0.5831755 -0.33489624 0.8348725 0.088562496
-0.5994077 -0.36215162 0.8265366 0.28211012 -0.4582941 -0.4786055 0.16963202 -0.46644527
-0.616518 -0.3456779 0.82070106 0.109219246 0.65873724 2.6190052 0.80972093 -4.2312303
-0.47543484 -0.3314576 -0.07751393 -0.49936223 -0.034067154 -0.24954176 -0.11637598 -7.110834e-05
-0.44105777 -0.35493475 0.52458924 0.330342 -0.59510064 -0.3877018 0.57160956 0.24531148
00000000: a229 f1be 68e9 c8bd 68eb 75be 2c8f 08be
00000010: 6826 e2be d075 4d3e d07a e5be 7080 02bd
00000020: c94e 3abf f40a b9be eefe 4e3f 8093 5f3e
00000030: 53a1 babe 6e31 f0be 6558 0c3f 1412 a73e
00000040: a50b bc3f 43bb 033f 5351 22c0 73c1 e43e
00000050: aac4 0cbf cf6e 96be 3643 503f 7b51 e13d
00000060: f9b8 e93f 9125 883f cf92 04c0 d8e4 24bf
00000070: 0476 2cbf 7ad7 a6be 3e09 5b3f e86c ed3d
00000080: 6b1d d9be 91b6 cfbe b907 003f c0ae be3e
00000090: c409 c03f 1102 2c40 5ae5 963f c643 95c0
000000a0: bfa1 d0be 61ba dcbe 51c8 1b3f eca9 9f3e
000000b0: d442 4fbe 40a5 543e e8ff a5bd fc75 debe
000000c0: f835 20bf 1fe9 bebe 9c2a 663f 8671 9d3e
000000d0: f261 25bf c2dc c1be 7ab9 493f 7a71 873e
000000e0: e4a7 c7be 34cc 7bbe c8b1 88bd 400c 61bd
000000f0: 845d 10bf 8928 aabe 6b7e 443f 276f 853e
00000100: 643a c9be 1921 233f f306 f93f e386 09c0
00000110: 8036 56be a0a3 a4bd ec3c 02be 1820 fcbd
00000120: 42c1 0cbf c2f2 a3be 48f8 3c3f 497b a23d
00000130: d355 c5be 1b58 d8bd 697a 333e 6086 e9be
00000140: 4c5f 41be 4028 563e ae1f a5be 800b 64bd
00000150: dfa3 02bf a401 933e 2818 e13d 94b5 16bf
00000160: 71a8 cfbe 9b6e bebe a942 083f 24c0 a03e
00000170: f3bf f8be f264 b0be a0ab 193e aa85 eabe
00000180: 16e9 21bf 913c a8be 233d 513f 2663 823d
00000190: d8f2 02bf 83bf e0be 1ede 083f bde5 9c3e
000001a0: c5ae 18bf 7b5b a5be d4ef 563f 837e e83d
000001b0: 18ae debe 14ad fcbe 00af 623b c471 44be
000001c0: 9395 24bf 3134 ccbe 14a3 333f 2043 413e
000001d0: 32b6 2abf 8b64 c4be 1dfe 3f3f 81bc 6e3e
000001e0: 3fc7 20bf 98c0 b6be 2a0f 433f e79c 413d
000001f0: 3828 ddbd f011 de3d 9276 d0be 582d dbbe
00000200: 7ca3 acbe dfa4 00bf 7a0d 123f 3b44 993e
00000210: 0d49 dbbe df9a cbbe b27e fd3e 36a5 ca3e
00000220: 8fc1 19bf 3c00 aabe 3085 5c3f dadd 923e
00000230: 784e e0be ee70 a43e 64e0 19be 7851 d0bd
00000240: 0db7 17bf 98df 93be 86d5 573f 61a3 ce3d
00000250: 84b3 1fbf 70f8 dabe f6a8 653f 1653 923e
00000260: afba 213d 0784 533e 3969 e1be c1ed 2e3c
00000270: 9a1b 1dbf 8fed b6be c955 613f 69ee 923e
00000280: 27f6 26bf d2bd adbe 4730 5f3f 3ec2 993e
00000290: 0af1 e1be 3840 d8be 8071 9fbe d4be a5be
000002a0: e006 713e 507f 1e3e e0fd 11be a802 c3be
000002b0: b602 c4bd 5ce7 13bf 6fbe 2a3f 4ec1 773e
000002c0: e24b 88be 70c9 91be fcd8 95be 004e c6bc
000002d0: b4f3 e9be 2d05 05bf dfc1 0e3f 5f48 9e3e
000002e0: 714c eabe 6ffa 03bf 4bfc 073f d3cd 903e
000002f0: f8bd 1ebf c24f bcbe 9445 2f3f e5f2 043e
00000300: a536 26bf df1f b2be dde6 5a3f deb7 ee3d
00000310: 5621 c1be df93 d8be c62c 043f 312b bd3e
00000320: f022 763f 64ea 113e f215 c1bf c030 c23e
00000330: cce3 35bf 4382 aabe 8aa7 3e3f 0374 593e
00000340: 7785 5fbf b687 cb3f 01ef ff3f 43b6 46c0
00000350: e891 b73d e2ee 953e 4031 edbe 0403 e9be
00000360: 77a8 3abf 85c5 b0be 0471 433f e55a 4f3e
00000370: fd4a 15bf 8577 abbe 34ba 553f 4160 b53d
00000380: c872 19bf f06b b9be e797 533f bd70 903e
00000390: 86a5 eabe c80b f5be 04b4 2d3e ead1 eebe
000003a0: 20d4 1dbf b2fc b0be 7719 523f 57ae df3d
000003b0: 01a3 283f c89d 2740 df49 4f3f 3d66 87c0
000003c0: 326c f3be d0b4 a9be a0bf 9ebd 68ac ffbe
000003d0: 008a 0bbd e087 7fbe 8856 eebd 0020 95b8
000003e0: 53d2 e1be 02ba b5be 7b4b 063f 9622 a93e
000003f0: 8458 18bf da80 c6be 0155 123f ef32 7b3e

bias f4 [64]
0.27569032 -0.039613307 -5.385764 -3.525465 10.171558 -4.438456 10.532333 -4.535859
-3.6590352 0.93247133 -3.2519393 -0.21606529 -7.3329654 -5.8453035 -0.19057143 -6.1116242
-9.297746 0.4474668 -3.7851012 -0.023259947 -0.20801282 0.15499835 -3.3388233 0.2933413
-3.873298 -2.7490194 -4.492813 -0.11109024 -4.45298 -5.0635967 -2.9960241 0.17295605
-3.206502 -3.5357158 -6.715896 -0.14923316 -4.407746 -7.13083 -0.16708647 -7.0336804
-7.1321373 0.08208829 0.3990745 -3.9683683 -0.029244006 -3.2273812 -3.1963296 -3.5800166
-4.6068773 -3.4401085 10.281459 -4.7961054 -5.0432463 0.03963065 -4.691346 -4.3597903
-6.5378175 0.1501916 -3.9367797 5.9524364 0.107432485 0.24595946 -3.4756453 -3.768707
00000000: 4827 8d3e 9041 22bd 2e58 acc0 38a1 61c0
00000010: b4be 2241 d507 8ec0 7084 2841 c225 91c0
00000020: a22d 6ac0 71b6 6e3f c61f 50c0 3840 5dbe
00000030: a7a7 eac0 ba0c bbc0 2825 43be 6d92 c3c0
00000040: 91c3 14c1 5e1a e53e 193f 72c0 a58b bebc
00000050: 5001 55be e3b7 1e3e 48af 55c0 d530 963e
00000060: 1de4 77c0 efef 2fc0 20c5 8fc0 4883 e3bd
00000070: d07e 8ec0 fc08 a2c0 dcbe 3fc0 641b 313e
00000080: 5437 4dc0 2b49 62c0 9fe8 d6c0 94d0 18be
00000090: 410c 8dc0 c22f e4c0 b718 2bbe e913 e1c0
000000a0: 783a e4c0 e81d a83d 7e53 cc3e bff9 7dc0
000000b0: 2091 efbc 6a8d 4ec0 aa90 4cc0 fe1e 65c0
000000c0: 8a6b 93c0 bd2a 5cc0 db80 2441 b279 99c0
000000d0: 4662 a1c0 c053 223d 821f 96c0 6783 8bc0
000000e0: cd35 d1c0 d4cb 193e 33f4 7bc0 5c7a be40
000000f0: 9005 dc3d ccdc 7b3e f970 5ec0 7f32 71c0

weight f4 [1, 64]
0.03736411 0.109751955 -0.1676022 -0.14116313 1.0027299 -0.13689548 2.1843038 -0.15918767
-0.14275709 1.0790075 -0.1946144 0.017525658 -0.1788494 -0.18451492 0.005259797 -0.1711449
0.84644973 0.11933625 -0.12721772 -0.038755655 0.1033251 -0.028916588 -0.14342955 0.016298598
-0.18551077 -0.15791729 -0.15534806 -0.058949932 -0.1383961 -0.18298706 -0.20867375 0.07937403
-0.18537486 -0.16022207 -0.18666333 0.040946975 -0.18036947 -0.1818683 -0.061600924 -0.16304465
-0.14725338 -0.024495304 -0.029310435 -0.17868258 -0.08058718 -0.15192425 -0.15475917 -0.16372867
-0.17983806 -0.1544995 0.6152597 -0.1764332 0.65150285 -0.098227024 -0.17706038 -0.1796777
-0.15909304 0.05506943 -0.19435441 1.0137908 -0.10865216 0.03330913 -0.14498986 -0.13526851
00000000: 1c0b 193d a2c5 e03d e99f 2bbe 118d 10be
00000010: 7459 803f 542e 0cbe a2cb 0b40 1802 23be
00000020: ea2e 12be eb1c 8a3f ff48 47be f891 8f3c
00000030: 4c24 37be 7bf1 3cbe 605a ac3b 9c40 2fbe
00000040: eeb0 583f 9066 f43d 5d45 02be 40be 1ebd
00000050: 1c9c d33d 7be2 ecbc 32df 12be a384 853c
00000060: 89f6 3dbe 12b5 21be 9013 1fbe 7c75 71bd
00000070: b5b7 0dbe f660 3bbe 92ae 55be da8e a23d
00000080: e8d2 3dbe 4111 24be ac24 3fbe 04b8 273d
00000090: c6b2 38be af3b 3abe 4051 7cbd 2df5 26be
000000a0: 97c9 16be 60aa c8bc 701c f0bc 91f8 36be
000000b0: e40a a5bd 0892 1bbe 3079 1ebe 7da8 27be
000000c0: 7827 38be 1e35 1ebe a981 1d3f e8aa 34be
000000d0: e4c8 263f 402b c9bd 514f 35be 6efd 37be
000000e0: 49e9 22be 7c90 613d d804 47be e6c3 813f
000000f0: 0685 debd 286f 083d 3978 14be d483 0abe
