data/pp/nn_e_n1_sd7.pt (torch, 291407 bytes, 7 tensors)

weight f4 [512, 4]
0	0x3848c06e	4.786293e-05
1	0xbd85bea5	-0.06530503
2	0xbd9123b8	-0.07086891
3	0x3988aa61	0.00026066884
4	0xb8d1947a	-9.9935525e-05
5	0x389772ca	7.221622e-05
6	0x38d5d3d0	0.000101960846
7	0x39b5f473	0.0003470514
8	0x384c0360	4.8640533e-05
9	0xbdaba8d4	-0.08381811
10	0xbdab6802	-0.08369447
11	0xb9a1bbc3	-0.00030848206
12	0xb9899938	-0.00026244833
13	0x3636fdc1	2.7267818e-06
14	0xbb4b47b2	-0.0031018076
15	0xba11f218	-0.0005567386
16	0x382cfb8d	4.124227e-05
17	0xbd17c937	-0.037057128
18	0xbd351ebe	-0.04421877
19	0x39c3a163	0.0003731354
20	0xb790a19c	-1.7241393e-05
21	0xbbdfa0f1	-0.0068246056
22	0xbc203375	-0.009777893
23	0x39c87fa8	0.00038242084
24	0xb9f49431	-0.00046649718
25	0xb8053c20	-3.1765667e-05
26	0x38ebf847	0.000112519185
27	0x37f9cfba	2.9779843e-05
28	0x398e28d0	0.00027114758
29	0x39ff56bc	0.00048702012
30	0x3a27fe9f	0.0006408486
31	0x3a1fbcaa	0.0006093482
32	0x3893e876	7.0528054e-05
33	0xba4bf644	-0.0007780532
34	0xba6dc68e	-0.00090704195
35	0x39794e0e	0.00023775568
36	0xb84d4579	-4.894051e-05
37	0xbbbb14dc	-0.0057092737
38	0xbbb96652	-0.0056579495
39	0xba89bef5	-0.001050918
40	0x38140b21	3.5296314e-05
41	0xbbe97b2f	-0.0071252803
42	0x345075c8	1.9414358e-07
43	0x39f836d8	0.00047343108
44	0x3a60f54c	0.0008581474
45	0xbcdb4b61	-0.026769342
46	0xbcc0816c	-0.023499213
47	0x39d218d5	0.00040072823
48	0xb9b2837d	-0.00034048772
49	0xb80a3217	-3.2948414e-05
50	0xbc3585b8	-0.011079244
51	0xb9feaf22	-0.0004857714
52	0x38d09402	9.9457815e-05
53	0xbc4e43d8	-0.012589417
54	0xbc4366ea	-0.011926392
55	0xb9351eb2	-0.0001727294
56	0x398fabca	0.00027403078
57	0xbd0629d9	-0.032754753
58	0xbd12250b	-0.03567986
59	0x3a091baf	0.00052302604
60	0xb8af1919	-8.349325e-05
61	0xbc71dc3f	-0.014761983
62	0xbcacc48a	-0.02108981
63	0x39bd6f9e	0.0003613205
64	0xbb022794	-0.0019860016
65	0xbd5eb1d1	-0.054368798
66	0xbd596950	-0.05307895
67	0x39be65b7	0.00036315407
68	0xb99f9d40	-0.00030444004
69	0xbad0171c	-0.0015876028
70	0xbabcd30c	-0.0014406159
71	0x3a4315b4	0.00074418937
72	0x39df2fab	0.0004256939
73	0xb9f0c38b	-0.00045922058
74	0xb9be4464	-0.0003629058
75	0x3a6f639a	0.0009131968
76	0x3a0d9bfc	0.00054019666
77	0xbb890ae9	-0.004182209
78	0xbb9f0e65	-0.004854011
79	0xb90eff6a	-0.00013637324
80	0xb90db187	-0.00013512942
81	0xbd628cb3	-0.055309962
82	0xbd63ff02	-0.055663116
83	0xb9f5f94b	-0.0004691578
84	0xb90d1904	-0.00013456127
85	0xbd9d7c38	-0.076897085
86	0xbdaaaed6	-0.083341286
87	0x3a123716	0.00055776665
88	0xb9720446	-0.0002308051
89	0xbdde364d	-0.10850201
90	0xbde77026	-0.113006875
91	0xb6430aaa	-2.9063472e-06
92	0x3913718d	0.00014061313
93	0xba7d13a0	-0.00096541084
94	0xba995593	-0.0011698477
95	0xb96a74b7	-0.00022359459
96	0xb97e20d1	-0.00024235553
97	0xbce724a8	-0.028215721
98	0xbd18054a	-0.03711442
99	0x39cae219	0.00038696898
100	0xb9f16f64	-0.00046050095
101	0xbc8596fd	-0.016307348
102	0xbcb0c05e	-0.021576103
103	0x38544d38	5.0616654e-05
104	0x39576c34	0.00020544307
105	0xbd89943c	-0.067177266
106	0xbd8d48d1	-0.06898654
107	0x398956b5	0.00026195278
108	0xb9d9edfe	-0.00041566783
109	0xbcf14a78	-0.029454455
110	0xbd1635d4	-0.03667243
111	0xbaeef80a	-0.001823188
112	0x392b93fb	0.00016362958
113	0xbd7c2cb6	-0.061566077
114	0xbd85dcb3	-0.06536236
115	0x39799e97	0.0002380557
116	0xb81777f7	-3.611293e-05
117	0xbd764e7b	-0.06013344
118	0xbd75c2d1	-0.060000245
119	0x39c4a88c	0.0003750961
120	0xb9a6ed08	-0.0003183859
121	0xbcf43904	-0.029812343
122	0xbd108684	-0.035284534
123	0x3a91f45e	0.0011135449
124	0xb9aed9ff	-0.00033350286
125	0xbd7c1262	-0.06154097
126	0xbd8b3b8b	-0.06798466
127	0x38ce7e0b	9.846323e-05
128	0x38a8e13f	8.0528196e-05
129	0xbce27d72	-0.027647708
130	0xbcd8dcc1	-0.026472451
131	0x3a024edd	0.0004970858
132	0xb9719651	-0.00023039548
133	0xbdcf161d	-0.1011164
134	0xbddab113	-0.106783055
135	0xb975f419	-0.00023455954
136	0x3a7965df	0.0009513776
137	0xbce09940	-0.027416825
138	0xbd0380fd	-0.032105435
139	0x3a2680c9	0.0006351588
140	0x37c0843c	2.294976e-05
141	0x38ba59c2	8.88589e-05
142	0xb7f05b51	-2.8652752e-05
143	0xba138998	-0.0005628108
144	0xbdf8f85b	-0.12156745
145	0xbdf17f6b	-0.11791881
146	0xbdf133a4	-0.11777428
147	0xbaa9dfe5	-0.0012960403
148	0x38bdddb4	9.053518e-05
149	0xbc2aab4f	-0.01041682
150	0xbc98018e	-0.018555429
151	0xba260271	-0.0006332761
152	0xb7526468	-1.2540353e-05
153	0xbd2caf6d	-0.042159487
154	0xbd36ae8a	-0.044600047
155	0xb9f4c6bd	-0.00046687378
156	0x3948ba9b	0.00019143002
157	0xbc1cdafc	-0.009573694
158	0xbbce4c2a	-0.0062957006
159	0x3ab71c92	0.0013970307
160	0xb9067e5e	-0.00012826311
161	0xbbd5004c	-0.0065002795
162	0xbbbdce03	-0.005792381
163	0x3a015f3d	0.0004935151
164	0xbdf6985f	-0.12040781
165	0xbddd14f6	-0.107950136
166	0xbddd618d	-0.10809622
167	0x3a07d575	0.0005181649
168	0x390a9b67	0.00013218597
169	0xbdd0d3c4	-0.10196641
170	0xbde8774b	-0.11350878
171	0x38a03f4a	7.641183e-05
172	0x3a045dd1	0.000504938
173	0xbd628844	-0.055305734
174	0xbd684154	-0.056702927
175	0x38691d1b	5.5578636e-05
176	0x39874136	0.00025797792
177	0xbd92d195	-0.07168881
178	0xbd968435	-0.07349435
179	0x3a4d93f1	0.00078421744
180	0xb989f149	-0.00026310448
181	0xbd3b7325	-0.045764107
182	0xbd3c8055	-0.046020824
183	0xb94fb533	-0.0001980856
184	0xba19f63b	-0.0005873178
185	0xbc1864ca	-0.009301374
186	0xbbba96c8	-0.005694244
187	0xba7493b4	-0.0009329871
188	0x3a47c633	0.00076207815
189	0xbc337e59	-0.010955417
190	0xbc9ad870	-0.018902034
191	0xb922aef0	-0.00015514693
192	0x3936a410	0.0001741799
193	0xbcd33f76	-0.025787096
194	0xbce3bccd	-0.027799988
195	0x39906f17	0.0002754859
196	0x39ec4bbb	0.0004506985
197	0xb95b9aa0	-0.0002094307
198	0xb916637c	-0.00014342176
199	0x3989887d	0.00026232368
200	0xb85dd625	-5.2889944e-05
201	0x38961b50	7.157645e-05
202	0xba986708	-0.0011627385
203	0x3abd04dd	0.0014421005
204	0xbaafa73c	-0.001340128
205	0xbdac8287	-0.084233336
206	0xbdb28741	-0.08717204
207	0x3964d410	0.00021822774
208	0x37e692d7	2.7486514e-05
209	0xbd00a72d	-0.03140943
210	0xbcfb21cf	-0.03065577
211	0x39090aef	0.00013069411
212	0xb8c2c7f8	-9.287888e-05
213	0xbd26126c	-0.040544912
214	0xbd33a8cd	-0.043862153
215	0xb986cfb4	-0.00025713223
216	0xb8b07d63	-8.415689e-05
217	0xbde6e89d	-0.11274836
218	0xbdeba5f3	-0.11506262
219	0xb9fefc71	-0.0004863474
220	0x38a64e50	7.930084e-05
221	0xbda036d1	-0.078229554
222	0xbda7390a	-0.08165176
223	0x39c6fdca	0.0003795459
224	0xb7463b8c	-1.1815584e-05
225	0xbc26e593	-0.010186571
226	0xbbf0a3fd	-0.0073437677
227	0xb809581c	-3.2745404e-05
228	0x3a7fb701	0.0009754748
229	0xbdc48cbd	-0.09597156
230	0xbdc2f99d	-0.09520266
231	0xb7b25bc3	-2.1261983e-05
232	0x3a2c7ebc	0.0006580164
233	0xbcd1e6a2	-0.02562267
234	0xbcfb029f	-0.030640898
235	0x3a0e00d4	0.00054169935
236	0x3a0004c7	0.00048835244
237	0x390d0109	0.00013447193
238	0x3836c5ce	4.35764e-05
239	0xb9a65dac	-0.00031731778
240	0x398fdc2c	0.00027439126
241	0xba780880	-0.0009461716
242	0xbacbde3d	-0.0015553903
243	0x3a0c0cc7	0.000534248
244	0xb9a9158c	-0.00032250246
245	0xbd917b00	-0.071035385
246	0xbd9cf46e	-0.07663809
247	0x3a17007b	0.00057602645
248	0xb997e450	-0.0002897107
249	0xbc332357	-0.010933719
250	0xbc27f9d2	-0.010252433
251	0xba338283	-0.0006847756
252	0x39dab0eb	0.00041712014
253	0xbc60b3ae	-0.013714714
254	0xbc6b70a9	-0.014370122
255	0x3a00f2bb	0.0004918982

weight f4 [128, 512]
0	0x3a3a4263	0.00071052293
1	0x397ea9d0	0.00024286588
2	0xb8e0ce1b	-0.000107195425
3	0x3ae0bd39	0.0017146236
4	0x3a3c1211	0.0007174323
5	0xb73266c1	-1.0633551e-05
6	0xb8c05aa1	-9.1721544e-05
7	0x3aa7c6b1	0.0012800304
8	0x38b03faa	8.404192e-05
9	0x38d7f9ec	0.000102985505
10	0x3d796b56	0.06089338
11	0xb992c5c2	-0.0002799463
12	0x39ce65ca	0.0003936722
13	0x3c2a061c	0.010377433
14	0x397489f9	0.00023321052
15	0x38cb547f	9.695533e-05
16	0x374b82d6	1.21302055e-05
17	0x39743b60	0.00023291772
18	0x3a88b301	0.0010429324
19	0x3968da86	0.0002220665
20	0xb998ad24	-0.000291207
21	0xb9e932c0	-0.00044479035
22	0x382e3182	4.153094e-05
23	0x391ed772	0.00015148314
24	0xb7298f14	-1.0106498e-05
25	0x3918f52e	0.00014587186
26	0xb8795084	-5.9441212e-05
27	0xb9ab7cad	-0.00032708552
28	0x3a057bf5	0.00050920184
29	0x3ca8f1f9	0.020623194
30	0x38ceffab	9.870467e-05
31	0xb9eb7e8a	-0.00044916972
32	0xba777f40	-0.0009441264
33	0x3980e02e	0.0002458109
34	0x398a0901	0.0002632812
35	0xb9d8190c	-0.00041217392
36	0x3dc1651e	0.09443115
37	0x39ccb669	0.00039045818
38	0x38ffa6a4	0.00012190387
39	0x399827c1	0.00029021318
40	0x378c4661	1.6722073e-05
41	0x3dbbac83	0.091637634
42	0x39bde098	0.00036216225
43	0x351d8e3d	5.869404e-07
44	0xb8efc479	-0.00011433004
45	0xb993fe67	-0.0002822757
46	0x39388807	0.00017598282
47	0xba5e9b3e	-0.0008491761
48	0x38107c43	3.4448003e-05
49	0x36b941ed	5.5211044e-06
50	0xb97aad90	-0.00023906515
51	0x3ad6191e	0.001633439
52	0x3dd7cd36	0.10537188
53	0x39bf25f4	0.00036458636
54	0x37f95060	2.972054e-05
55	0x3aefaf5a	0.0018286512
56	0x37ed8480	2.8314302e-05
57	0x3a8f0036	0.0010910097
58	0x391546ee	0.0001423617
59	0xb860d546	-5.3604388e-05
60	0x3d439c6d	0.0477566
61	0xb9c9eab3	-0.00038512572
62	0x3812ef30	3.5031873e-05
63	0xb7ca0bba	-2.4085737e-05
64	0xb9b69d6c	-0.00034831034
65	0x373a2bff	1.1096708e-05
66	0xb85f8094	-5.328709e-05
67	0xb802b947	-3.116697e-05
68	0xba5e40cf	-0.0008478285
69	0xb9140c07	-0.0001411886
70	0xb7c99f61	-2.4035284e-05
71	0x39ebe240	0.00044991262
72	0xb712ec11	-8.757242e-06
73	0xb8d24db4	-0.00010028054
74	0x39ca82ca	0.00038625888
75	0xb925395c	-0.00015756994
76	0xb98dae65	-0.0002702355
77	0xb6b0de44	-5.271084e-06
78	0x375e04a5	1.32333125e-05
79	0x38323b87	4.2493946e-05
80	0xb9a01138	-0.00030530407
81	0xb93f5adb	-0.00018249026
82	0x38e4031f	0.000108724686
83	0xb785376a	-1.588064e-05
84	0xb7c0a2f0	-2.2964057e-05
85	0x3ec42aaf	0.38313815
86	0xb8182e58	-3.6282785e-05
87	0xb976d8ba	-0.00023541125
88	0x37cf99df	2.4747975e-05
89	0xb9331029	-0.0001707679
90	0x3acc03ae	0.0015565061
91	0x37117b64	8.671403e-06
92	0xb94a47ab	-0.0001929092
93	0x3a5c030c	0.0008392788
94	0xbcaf9db1	-0.021437498
95	0x38896440	6.551342e-05
96	0xb8d305ce	-0.00010062345
97	0x39d0f1ac	0.0003985291
98	0xb9b263b7	-0.000340251
99	0xb794d103	-1.7740304e-05
100	0xb8a4b223	-7.85331e-05
101	0x3deebe72	0.11657418
102	0x398d21c1	0.00026918764
103	0x39010acd	0.00012306422
104	0x3998eb88	0.00029167184
105	0xb99536e4	-0.0002846039
106	0x39ad2a96	0.0003302886
107	0x39ae5dea	0.00033257838
108	0x3b359278	0.002770571
109	0xb9a8f741	-0.00032227676
110	0x3e9e17ce	0.30877537
111	0x3a39a692	0.0007082011
112	0xb9730495	-0.00023175993
113	0xb9cac54f	-0.0003867545
114	0xb79caccf	-1.867712e-05
115	0xb9d36e63	-0.000403273
116	0x38d7e81d	0.000102952334
117	0xb7e4b6fe	-2.726493e-05
118	0xb86a51ee	-5.586625e-05
119	0xb8c9e765	-9.6275275e-05
120	0xba475960	-0.00076045655
121	0x3a042027	0.00050401915
122	0xb7238398	-9.746196e-06
123	0x3972ec10	0.00023166859
124	0xb972d4b4	-0.00023158157
125	0xb9929bc9	-0.0002796336
126	0xb7febf60	-3.0368275e-05
127	0xb9bca5d4	-0.00035981706
128	0x3a92d47a	0.0011202239
129	0x39824df7	0.0002485362
130	0xb98b9285	-0.00026621312
131	0x3c5b64ca	0.013390729
132	0xba140e9a	-0.0005647928
133	0x3d2c3f25	0.042052407
134	0x3959baed	0.00020764368
135	0xb9320c5c	-0.00016980007
136	0xba5eb6a7	-0.0008495845
137	0x39802ae9	0.00024446033
138	0xbc6af7fc	-0.014341351
139	0xb9cadec5	-0.0003869442
140	0xb89c6155	-7.456789e-05
141	0x3998ebaa	0.00029167283
142	0xba804271	-0.0009785426
143	0xb9c4686a	-0.00037461828
144	0xb9e1749c	-0.00043002225
145	0x3ee5002f	0.44726703
146	0x37243520	9.787531e-06
147	0xbdc657a2	-0.096846834
148	0x379e74da	1.8889481e-05
149	0xb9126408	-0.0001396091
150	0xba33135e	-0.0006831194
151	0xb8bfed4d	-9.1517904e-05
152	0xb9ca96a7	-0.00038640687
153	0xbee4e749	-0.44707707
154	0x34ce593f	3.8435425e-07
155	0x3a4a2338	0.00077109365
156	0x391676ce	0.00014349373
157	0x3984a951	0.00025303153
158	0x37997daf	1.8297547e-05
159	0xb8ef6c91	-0.0001141663
160	0x3a25dae3	0.0006326867
161	0x391d5447	0.00015004083
162	0x3a70ed32	0.00091906183
163	0x37e5364a	2.7324208e-05
164	0x39f50f66	0.00046741514
165	0xb9dbab12	-0.00041898392
166	0x383e051a	4.530428e-05
167	0x38b28312	8.512115e-05
168	0x39ce699f	0.00039370076
169	0xb880fae4	-6.150248e-05
170	0xb8c30bd5	-9.3005285e-05
171	0x3a140863	0.00056470017
172	0x39c5dc20	0.00037738774
173	0xb8824bab	-6.212977e-05
174	0x399c0d4c	0.00029764546
175	0x39948ee7	0.0002833523
176	0x394f991d	0.00019798097
177	0x3dc647b6	0.096816465
178	0xb784a417	-1.5812037e-05
179	0x38c45bc3	9.3631e-05
180	0x38e0a32f	0.00010711548
181	0xbab39d14	-0.0013703429
182	0xbabb8015	-0.0014305139
183	0x3a1df451	0.00060254807
184	0x3e0606ee	0.13088581
185	0xb74646c4	-1.1818196e-05
186	0xba60baa1	-0.0008572732
187	0xb810d7b5	-3.453317e-05
188	0xb8281d64	-4.0081693e-05
189	0xba3a143a	-0.0007098351
190	0x38398b47	4.423715e-05
191	0xb796c4ee	-1.7973096e-05
192	0x3998e8e6	0.00029165222
193	0x3a05d909	0.0005105888
194	0x3a068162	0.0005130974
195	0x3cf21291	0.029549869
196	0x398ec99a	0.00027234555
197	0x38cc5e4f	9.7450444e-05
198	0xb9cad28d	-0.00038685315
199	0xba0ef537	-0.000545341
200	0xba76f09b	-0.0009420008
201	0x3e436df0	0.19084907
202	0x3992400c	0.0002789501
203	0x398e178a	0.0002710189
204	0x389ce0b1	7.480512e-05
205	0x38b18fd3	8.466807e-05
206	0xb9f0fb32	-0.00045963522
207	0xb998eb92	-0.00029167213
208	0x39482ec9	0.00019090915
209	0x39f2f7f0	0.00046342565
210	0x37e337e6	2.7086538e-05
211	0xba496ceb	-0.00076837715
212	0xba0c1501	-0.0005343706
213	0x39e19618	0.00043027173
214	0x3904f157	0.00012678407
215	0xbd2464f7	-0.04013535
216	0xb82a9a0c	-4.0674626e-05
217	0x373f9fab	1.1421663e-05
218	0x39f0d870	0.00045937626
219	0x38c4b1ca	9.379124e-05
220	0x3912b355	0.00013990451
221	0xb859d407	-5.1934298e-05
222	0x3a8882f7	0.0010415007
223	0xb8b49350	-8.610508e-05
224	0xba59c099	-0.00083065924
225	0xb776e28c	-1.471549e-05
226	0xb9b0cfc9	-0.00033724148
227	0x3ab7c63f	0.0014020874
228	0xba4fa419	-0.0007920876
229	0xb9a89d66	-0.00032160728
230	0x37b7fe8d	2.1933834e-05
231	0xb6caad75	-6.040262e-06
232	0xb942fc61	-0.000185953
233	0xb9f471d6	-0.0004662412
234	0x3744a178	1.1720105e-05
235	0xba569fcb	-0.0008187263
236	0xb8fcccfc	-0.00012054478
237	0xba440a42	-0.0007478335
238	0xb9e78603	-0.000441596
239	0x3a3380af	0.00068474835
240	0x39c7231c	0.00037982396
241	0xb90b8f23	-0.00013309396
242	0x39993249	0.000292199
243	0xb84494cd	-4.6868623e-05
244	0xb8835d8b	-6.2639905e-05
245	0x39bd0036	0.00036049046
246	0x3a778b07	0.0009443019
247	0xba8a26e0	-0.001054015
248	0x38944da0	7.071649e-05
249	0xb905af7e	-0.00012749244
250	0xba467758	-0.0007570884
251	0x3a88ed18	0.0010446636
252	0xb859e76d	-5.1952364e-05
253	0xb84eb6fa	-4.9284637e-05
254	0x3a07f244	0.00051859417
255	0xb96acf59	-0.00022393222

weight f4 [8, 128]
0	0x3a2e65a2	0.0006652718
1	0x3a338988	0.0006848802
2	0x39cae57e	0.00038699427
3	0xba14e1bc	-0.0005679389
4	0x39cae3fe	0.0003869831
5	0x39ada079	0.00033116693
6	0x3a14106c	0.0005648199
7	0x3a3a2773	0.00071012153
8	0x3abd1ac7	0.0014427536
9	0xb96f1212	-0.00022799548
10	0x3998ea43	0.00029166238
11	0xb928380c	-0.00016042608
12	0xb98a30ce	-0.00026357773
13	0x397e16a9	0.00024231769
14	0xb87c2571	-6.0116352e-05
15	0xb8cf3e2b	-9.882109e-05
16	0x3961beab	0.00021528701
17	0x37b6bd7a	2.1784323e-05
18	0xb914f45a	-0.00014205408
19	0xba30b222	-0.0006740411
20	0x3994197c	0.00028247747
21	0xb980b99e	-0.00024552358
22	0x3a154b6e	0.0005695139
23	0xb961bf9a	-0.00021529049
24	0xba00ce7f	-0.0004913583
25	0x398a30dc	0.00026357814
26	0x3a20cee7	0.00061343465
27	0xb810e841	-3.454858e-05
28	0x3810e87f	3.4548804e-05
29	0xba4985e4	-0.0007687493
30	0x3a778a09	0.0009442871
31	0x3a3a4604	0.000710577
32	0xba932ac7	-0.0011227959
33	0x390a4ffc	0.00013190502
34	0x39cae3da	0.00038698205
35	0x3b080f23	0.0020760975
36	0xba14106f	-0.0005648201
37	0x3a8c2192	0.0010691157
38	0x389aae87	7.3758005e-05
39	0xb8e029fb	-0.00010688972
40	0x3a140e09	0.00056478434
41	0x39cae3cc	0.00038698164
42	0xba8a8b70	-0.001057012
43	0xb998eb66	-0.00029167085
44	0xb9ada14f	-0.00033117316
45	0x38cf3e62	9.882149e-05
46	0x38ce0631	9.823999e-05
47	0x3a140051	0.0005645799
48	0x3a14e125	0.0005679301
49	0x3a141103	0.0005648287
50	0x3998e68f	0.0002916348
51	0xb9efe161	-0.00045753553
52	0x39f2e55f	0.00046328732
53	0xba5eb8ca	-0.00084961636
54	0xba01cf3e	-0.0004951841
55	0xb9cae448	-0.00038698525
56	0xbaa38cb8	-0.001247785
57	0x39ada075	0.0003311668
58	0x3a5eb18b	0.0008495084
59	0x3a1410a4	0.00056482316
60	0xb9cac39c	-0.00038674183
61	0x3b083940	0.0020786077
62	0x398a2d28	0.00026355055
63	0xb900d34b	-0.00012285744
64	0x3a14e167	0.00056793395
65	0xb950d72c	-0.00019916584
66	0xba14e02c	-0.0005679156
67	0x3a33892d	0.0006848749
68	0x3a4aecbb	0.0007740964
69	0x3af50cd9	0.0018695846
70	0x397ad940	0.0002392279
71	0x3854803a	5.066416e-05
72	0xb9cae530	-0.000386992
73	0xba5eb8ce	-0.0008496166
74	0x39ada079	0.00033116693
75	0xb98a30e0	-0.00026357826
76	0xb950d724	-0.00019916572
77	0x399b9776	0.0002967675
78	0xb9ada079	-0.00033116693
79	0x39f5763c	0.00046818133
80	0x3961be61	0.00021528594
81	0x3961bf9b	0.0002152905
82	0xbaeee962	-0.0018227512
83	0x3a570c9f	0.000820348
84	0xba5eb8de	-0.0008496175
85	0xb998e8bd	-0.00029165103
86	0x3855219e	5.0814466e-05
87	0xb99af7e3	-0.0002955786
88	0x394dfb8c	0.00019644032
89	0xb97ad98a	-0.00023922898
90	0x3a4fabdb	0.0007922032
91	0xba74e6d7	-0.0009342259
92	0x399868c7	0.00029069764
93	0xb961bf35	-0.00021528902
94	0x390a4fe4	0.00013190467
95	0x399af875	0.00029558284
96	0x3a5eb882	0.0008496122
97	0x3a778a04	0.0009442868
98	0x39a91b14	0.00032254367
99	0x3a4fabda	0.0007922031
100	0xb998eb80	-0.0002916716
101	0x397ad8c6	0.00023922612
102	0x39ca4b58	0.00038584578
103	0xb90a4fcf	-0.00013190437
104	0x3a3a460d	0.00071057753
105	0xb9c87c94	-0.0003823979
106	0xba01cf42	-0.00049518433
107	0xb9ef2802	-0.0004561544
108	0x39984b88	0.00029047974
109	0x398a30ce	0.00026357773
110	0xb98a3000	-0.00026357174
111	0x38ce99ca	9.851491e-05
112	0x39ce69a0	0.0003937008
113	0xb950a885	-0.00019899204
114	0xb992212b	-0.00027872002
115	0x3998ea3c	0.00029166217
116	0x39ada081	0.00033116716
117	0xb7b6bd01	-2.1784103e-05
118	0x39cae3e2	0.00038698228
119	0x398a30eb	0.00026357858
120	0xb9ec4d3b	-0.0004507097
121	0xba8db4db	-0.0010811345
122	0x3ab29cf5	0.0013627099
123	0xba01cf47	-0.0004951846
124	0xb971065f	-0.00022985924
125	0x3a025b36	0.0004972698
126	0xb810e81e	-3.454845e-05
127	0x387251b8	5.7773403e-05
128	0x39a91b14	0.00032254367
129	0xba0f2d1b	-0.00054617383
130	0xba338696	-0.0006848363
131	0xba14e176	-0.0005679348
132	0x3961bf8a	0.00021529026
133	0xb97e1f4e	-0.0002423499
134	0x3a778a0b	0.0009442872
135	0x3961bf3c	0.00021528912
136	0x3a5eb8da	0.0008496173
137	0xb8d86d8d	-0.00010320088
138	0xba141076	-0.0005648205
139	0xb9cae41e	-0.00038698403
140	0xb8a7609b	-7.981175e-05
141	0x39cae532	0.00038699206
142	0x3a141118	0.0005648299
143	0x3a140bfe	0.0005647539
144	0x394b1988	0.000193691
145	0xb910bb90	-0.00013802783
146	0xba3a4433	-0.00071054994
147	0xb9cb9ca2	-0.00038835878
148	0x39cae3ca	0.00038698158
149	0x3998eb45	0.0002916699
150	0x3998eb8e	0.000291672
151	0xba66200a	-0.0008778578
152	0xb950d728	-0.00019916578
153	0x3986bc0c	0.00025698578
154	0x396cd0f0	0.00022584549
155	0x370f356a	8.535901e-06
156	0xb961beb9	-0.00021528722
157	0x39c140e0	0.00036860164
158	0xba141058	-0.00056481874
159	0xbab29e03	-0.0013627413
160	0xb98a30dc	-0.00026357814
161	0xb9a91b04	-0.0003225432
162	0xba7712b5	-0.000942509
163	0xba66bdac	-0.0008802067
164	0xba14e17c	-0.0005679352
165	0xb998ea43	-0.00029166238
166	0x39a05464	0.00030580454
167	0x371edd11	9.469005e-06
168	0x3a7789f8	0.0009442861
169	0xbaf50cc3	-0.001869582
170	0xba1410ca	-0.0005648254
171	0x39cae3c8	0.00038698153
172	0x3962d82f	0.00021633574
173	0xba14e1cb	-0.0005679398
174	0x39cae268	0.00038697128
175	0x3abd1b8e	0.0014427768
176	0x399657f8	0.0002867577
177	0xb9cae4e8	-0.0003869899
178	0xba886d4b	-0.0010408548
179	0xb97adc7b	-0.00023923993
180	0xb994196d	-0.00028247703
181	0xba895ba1	-0.0010479578
182	0xb9ec4d61	-0.0004507108
183	0xba5eb8db	-0.00084961735
184	0x38f01db6	0.00011449626
185	0x3922b453	0.000155167
186	0xb8b1aa73	-8.471766e-05
187	0xba778a0b	-0.0009442872
188	0x3ab29f55	0.0013627807
189	0x3ab29e5c	0.0013627517
190	0xba3a4614	-0.00071057794
191	0xba14e16a	-0.0005679341
192	0xb961be49	-0.00021528559
193	0xba0f2d1d	-0.00054617395
194	0xb8cf3e53	-9.882138e-05
195	0xb97e1f7a	-0.00024235054
196	0xb9ada085	-0.00033116728
197	0x3a4fabe8	0.00079220394
198	0x39ada016	0.00033116405
199	0x3a14e216	0.00056794414
200	0xb855215e	-5.0814233e-05
201	0x3900d362	0.00012285777
202	0xba14106b	-0.00056481984
203	0xb9941978	-0.00028247735
204	0xb9a50b9d	-0.00031479905
205	0x3a7506dd	0.0009347031
206	0x3998eb42	0.0002916698
207	0x3810e831	3.454852e-05
208	0xb97e1ea7	-0.00024234747
209	0x3998eb62	0.00029167073
210	0xba778a03	-0.00094428676
211	0xb900d362	-0.00012285777
212	0xba140eef	-0.0005647977
213	0x3a140ff0	0.0005648127
214	0xb961bfdf	-0.0002152915
215	0xbaefaf5a	-0.0018286512
216	0x3962d80d	0.00021633525
217	0xb9cae3f0	-0.0003869827
218	0x3a8db4db	0.0010811345
219	0xba5eb8ce	-0.0008496166
220	0xba5eb92e	-0.0008496222
221	0xba180830	-0.000579956
222	0xb99419e3	-0.00028248047
223	0x39cae510	0.00038699107
224	0xb95465fd	-0.00020255889
225	0x3950d728	0.00019916578
226	0x3a5eb92b	0.000849622
227	0xb998ea45	-0.00029166244
228	0x39ad9fe7	0.00033116268
229	0x3a0f2d19	0.0005461737
230	0xb99c1788	-0.0002977217
231	0x39005fdd	0.00012242743
232	0x3a778a04	0.0009442868
233	0xb97ad895	-0.00023922541
234	0xb97ad88a	-0.00023922525
235	0x3985e574	0.00025538693
236	0x3a8db3e4	0.0010811058
237	0x3a5eb885	0.00084961235
238	0x3a01cf44	0.00049518445
239	0x3a778a4b	0.00094429095
240	0x3998e989	0.00029165696
241	0xb9df3b63	-0.0004257812
242	0xb985a0e8	-0.0002548762
243	0x3962d82f	0.00021633574
244	0x397adadc	0.0002392339
245	0xb961bfad	-0.00021529077
246	0x3a0f2d11	0.00054617325
247	0x3a8db4e2	0.0010811354
248	0x3a0f2d1e	0.000546174
249	0x3a141136	0.00056483166
250	0xba01cf40	-0.0004951842
251	0xba5d55ac	-0.0008443247
252	0xb9ec26bc	-0.00045042287
253	0xb7b6bd9e	-2.1784388e-05
254	0xb98a30d0	-0.0002635778
255	0xb9941964	-0.00028247677

bias f4 [8]
0	0xbec602fe	-0.38674158
1	0xbf20f193	-0.62868613
2	0xbf170d26	-0.5900444
3	0xbf46f65e	-0.77719676
4	0x4095f98f	4.6867137
5	0xbf1a35be	-0.60238254
6	0xbf226d4d	-0.6344803
7	0x40b17666	5.545703

weight f4 [128, 24]
0	0x3e9bfd73	0.30466804
1	0x3f4d20a8	0.80127954
2	0x3e445036	0.19171223
3	0x3f7f8336	0.99809587
4	0xbd0192ea	-0.03163425
5	0xbcbd3a49	-0.023099082
6	0x3f05dd0f	0.52290434
7	0x3f020ba0	0.5079899
8	0x3f6c265f	0.9224605
9	0xbed922d3	-0.4240938
10	0x3f16d52e	0.58919036
11	0x3f89312b	1.071813
12	0x3e9ad79e	0.30242628
13	0x3ea15fbb	0.3151835
14	0x3f505c15	0.81390506
15	0x3efb9cb3	0.4914299
16	0x39cacfe6	0.0003868334
17	0xb855114d	-5.079927e-05
18	0x3d890046	0.06689505
19	0xba14e165	-0.00056793384
20	0xbf02175a	-0.5081688
21	0xbc219ae9	-0.009863594
22	0xba14107d	-0.0005648209
23	0xbe3755ab	-0.17903773
24	0x3edd9e7b	0.43284974
25	0x3f087916	0.5330976
26	0x3c4a1678	0.0123344585
27	0x3f97c0fc	1.1855769
28	0x3d2ac6a1	0.041693334
29	0x3de16073	0.11004724
30	0x3eb70b0e	0.35750622
31	0x3f2619a4	0.64882874
32	0x3e34f3e2	0.17671159
33	0xbe980685	-0.29692474
34	0x3e918506	0.284218
35	0x3f614f0c	0.8801124
36	0x3ebe710f	0.37195632
37	0x3ee1ae83	0.44078454
38	0x3f0386f2	0.51377785
39	0x3e4bded1	0.19909216
40	0x39ad93c2	0.0003310722
41	0x390a4992	0.00013188113
42	0x3d5aada4	0.053388253
43	0x39ada083	0.00033116722
44	0x3cb16b05	0.021657476
45	0xbbabbef0	-0.0052412674
46	0x39cae416	0.0003869838
47	0xbd796849	-0.06089047
48	0xc023558e	-2.5520968
49	0xbd0ef697	-0.034903135
50	0xc023f39f	-2.5617445
51	0xc00cb0f4	-2.1983004
52	0x3de47f47	0.11157089
53	0xbf2f6d9c	-0.68526626
54	0x3fe33d9c	1.7753177
55	0x3e09d93e	0.13461778
56	0x3e09ca18	0.13455999
57	0xbe826851	-0.25470212
58	0xbf63c609	-0.8897405
59	0x40204996	2.5044913
60	0xc00f476a	-2.2387338
61	0xc0236141	-2.552811
62	0xbd0ae703	-0.033911716
63	0xc001fac1	-2.0309298
64	0x3a140bf7	0.0005647535
65	0xb9cae470	-0.00038698642
66	0x36aab60d	5.0875883e-06
67	0xb9ec4963	-0.00045068105
68	0x3e53913a	0.20660868
69	0xbd0c6485	-0.03427555
70	0xb9a91b04	-0.0003225432
71	0x3e8b2858	0.27179217
72	0xbf248b73	-0.6427528
73	0x40437e1d	3.0545723
74	0xbe41c3e4	-0.18922383
75	0x3ebf0ed6	0.37316006
76	0xc0694835	-3.6450322
77	0xbf760778	-0.96105146
78	0x404430e7	3.0654848
79	0xbf4ec704	-0.80772424
80	0xbe729c65	-0.23692472
81	0xbf83d51d	-1.0299412
82	0xbeaf6eb4	-0.34264147
83	0x4065ae17	3.5887506
84	0x3f59a0cd	0.8501099
85	0xbf3bbddf	-0.73336595
86	0x4033c35a	2.8087983
87	0x3ecf874e	0.40532917
88	0x3a14dd54	0.00056787324
89	0x39a91a40	0.0003225375
90	0x3d4ee47a	0.05051086
91	0x3b08378d	0.0020785064
92	0x3f916847	1.1359948
93	0xbc839828	-0.016063765
94	0x39a91aff	0.00032254306
95	0x3e26fbea	0.16307035
96	0x3eeb70a8	0.45984387
97	0x3f0f98b9	0.5609241
98	0x3d367559	0.044545505
99	0x3f9280d1	1.1445562
100	0x3d512575	0.051061112
101	0x3e1c1db7	0.1524571
102	0x3ed1a5b8	0.40946746
103	0x3f0fc56c	0.56160617
104	0x3eb7cd6b	0.3589891
105	0xbede37b4	-0.43401873
106	0x3eda67b6	0.4265725
107	0x3f7765c2	0.96639645
108	0x3ed65133	0.41858825
109	0x3ed0b8b3	0.40765914
110	0x3f1a45fd	0.60263044
111	0x3ec2d268	0.38051152
112	0xb98a25dd	-0.00026349621
113	0x390a46aa	0.0001318703
114	0x3d8231ff	0.06357192
115	0x3998eb1c	0.0002916687
116	0xbd30ecfe	-0.043194763
117	0xbb3abaae	-0.0028492617
118	0x3a0f2d1d	0.00054617395
119	0xbdcbfb8b	-0.099600874
120	0xbf33caa8	-0.70231104
121	0x403c38d8	2.9409695
122	0x3ed4ad41	0.41538432
123	0x3f93985e	1.1530874
124	0xc035c944	-2.8404093
125	0xbe8245c0	-0.2544384
126	0x3fc6a379	1.5518638
127	0x3fba8348	1.4571314
128	0x3fd04255	1.6270243
129	0xbfcd8f5b	-1.6059374
130	0xbf2f85ce	-0.68563545
131	0x40263fad	2.5976365
132	0x3ee06eb1	0.4383445
133	0xbf1dab9a	-0.6158997
134	0x40377878	2.8667278
135	0x3ea5439a	0.32278138
136	0x3abcebcc	0.0014413535
137	0x39ce6457	0.0003936614
138	0x3dd4b3eb	0.10385879
139	0x3998e988	0.00029165694
140	0x3e735deb	0.23766296
141	0xb58840d7	-1.015166e-06
142	0xba5eb8cd	-0.00084961654
143	0xbd4ae7a3	-0.049537312
144	0x3eabe5bc	0.3357371
145	0x3f296e51	0.66183954
146	0x3d4645b8	0.048406333
147	0x3f888492	1.0665457
148	0xbd6b95f7	-0.057516064
149	0x3e0fa634	0.14028245
150	0x3ead7065	0.33874813
151	0x3f1e97b1	0.6195021
152	0x3f200b5b	0.6251733
153	0xbeec4398	-0.4614532
154	0x3ec49187	0.3839228
155	0x3f757a02	0.95889294
156	0x3eb29dd6	0.34886044
157	0x3eb4efe1	0.35339263
158	0x3f38d0dd	0.721937
159	0x3f0b8549	0.5450025
160	0xbaa3861e	-0.0012475883
161	0x39ad985e	0.00033110654
162	0x3d8a9774	0.06767169
163	0x3a8a8b6e	0.0010570118
164	0xbecb3e1c	-0.39695823
165	0xbb81e458	-0.0039639883
166	0x3855224e	5.0815106e-05
167	0xbe1706a3	-0.14748625
168	0x398a30d0	0.0002635778
169	0x39ada05f	0.00033116617
170	0x3a26988c	0.0006355129
171	0xbaa38ca4	-0.0012477827
172	0x3a3a4606	0.0007105771
173	0xba1410cb	-0.00056482543
174	0x39f57649	0.0004681817
175	0x390a4fbb	0.00013190407
176	0x39cae566	0.00038699358
177	0xba1410c5	-0.0005648251
178	0x3998ea8c	0.0002916645
179	0x3994197a	0.0002824774
180	0x38ce99ca	9.851491e-05
181	0xb9df3b69	-0.00042578139
182	0x3a778a01	0.00094428664
183	0x3a7789fb	0.0009442863
184	0x397ad895	0.00023922541
185	0xb994197c	-0.00028247747
186	0x3a932ac4	0.0011227955
187	0x3a14111d	0.0005648302
188	0x399b9921	0.00029677994
189	0x3a33898a	0.0006848803
190	0x3a14108c	0.00056482176
191	0x3a5eb8da	0.0008496173
192	0x397ad993	0.0002392291
193	0xbaefaf58	-0.001828651
194	0x39ada077	0.00033116687
195	0x398a30e6	0.00026357843
196	0x3a4fabe2	0.0007922036
197	0x39ada05d	0.0003311661
198	0x3a5eb8da	0.0008496173
199	0x3a1410d8	0.0005648262
200	0xbaf50cc7	-0.0018695825
201	0x38cf3e73	9.882161e-05
202	0x39944d6f	0.00028286452
203	0x3a01cf4b	0.00049518485
204	0xb998eb76	-0.0002916713
205	0xb998ea9a	-0.0002916649
206	0x3a5eb8cf	0.00084961666
207	0xb99b9929	-0.00029678017
208	0xb855215e	-5.0814233e-05
209	0xbab29f56	-0.0013627808
210	0x38983292	7.257344e-05
211	0x3998eb4b	0.00029167006
212	0x3998ea84	0.00029166427
213	0xb94dfb8c	-0.00019644032
214	0xba14e172	-0.0005679346
215	0xba269881	-0.00063551223
216	0xc0247f57	-2.5702722
217	0xbf4e3ca0	-0.80561256
218	0xc029b101	-2.6514285
219	0xc04d3c16	-3.2067924
220	0x3dc456a8	0.09586841
221	0x3f4ae8b1	0.7926131
222	0x400f539b	2.2394779
223	0x39a91b14	0.00032254367
224	0xbd72e7a3	-0.059302937
225	0xbdcb4889	-0.09925944
226	0x3f575197	0.8410887
227	0x403453ae	2.8176074
228	0xc0535b94	-3.3024645
229	0xc024556c	-2.5677137
230	0xbf46bb87	-0.77629894
231	0xc00bbc9d	-2.183387
232	0xba14def8	-0.0005678977
233	0x3a14e167	0.00056793395
234	0x3671ac44	3.601207e-06
235	0x3a5eb2e6	0.0008495286
236	0x3e1e0989	0.15433325
237	0xbd60d689	-0.054892097
238	0xb97e1f5e	-0.00024235013
239	0x3c55f0dc	0.013057914
240	0xbf6b3db3	-0.9189102
241	0x4041b227	3.0264986
242	0x3f10da8e	0.5658349
243	0x3f936182	1.1514132
244	0xc04b7738	-3.1791515
245	0xbe631fb0	-0.22180057
246	0x3fcc9458	1.5982771
247	0x3f9aa427	1.2081345
248	0x3fd968c6	1.6985099
249	0xbfce3509	-1.6109935
250	0xbf2395e4	-0.6390059
251	0x40264492	2.5979352
252	0x3ef7bbce	0.4838547
253	0xbf3780e1	-0.7168103
254	0x403fd9f0	2.9976768
255	0x3ec2d2cc	0.3805145

bias f4 [128]
0	0xbf98b94b	-1.1931547
1	0xbebed406	-0.37271136
2	0xbe03e58d	-0.12880535
3	0xc0bfd24a	-5.99442
4	0xbf0e5404	-0.5559695
5	0xc071ff49	-3.7812064
6	0xbf49e2ab	-0.7886149
7	0xbd1b390d	-0.037896205
8	0xbd8717b7	-0.0659632
9	0xbed92914	-0.42414153
10	0xc06b2fc2	-3.67479
11	0xbf8ef8cd	-1.1169678
12	0xbf81bad7	-1.0135144
13	0xbef17c35	-0.47165075
14	0xc08482a0	-4.1409454
15	0xbe511819	-0.20419349
16	0x3f6d99fb	0.9281308
17	0xbf2bb135	-0.6706727
18	0xbfc324ac	-1.5245566
19	0xc051b581	-3.2767031
20	0xbf0615e5	-0.5237716
21	0xbdafdfa6	-0.085875794
22	0xbf849268	-1.035718
23	0x3f90ac21	1.130253
24	0xbea43344	-0.32070363
25	0xbe8df742	-0.27727705
26	0xbf69d067	-0.9133362
27	0x3f3ee037	0.74560875
28	0xbfc73c42	-1.5565264
29	0xbdbf55fb	-0.09342571
30	0xbe0f2ab3	-0.13981132
31	0xbf5bd697	-0.85874313
32	0xbda90ec6	-0.08254771
33	0xc0d25669	-6.573048
34	0xbeaf5341	-0.34243205
35	0xbeb3a946	-0.35090083
36	0xc076e086	-3.8574538
37	0xc086c475	-4.2114816
38	0xbf16f2b9	-0.58964115
39	0xbf301d04	-0.68794274
40	0xbe86787e	-0.26263803
41	0xbf253f68	-0.64549875
42	0xbf2dd9e1	-0.6791058
43	0xbd50edb0	-0.051007926
44	0xc074e756	-3.8266196
45	0xc0a4b485	-5.147036
46	0xc08731d5	-4.224833
47	0xbcccfb73	-0.025022244
48	0xbed07b28	-0.4071896
49	0xbe2bd0ff	-0.16778944
50	0xbfb619d8	-1.4226637
51	0xbe83afed	-0.25720158
52	0xbfc87f2a	-1.5663807
53	0xc0a66c05	-5.200686
54	0xbf7dc3b5	-0.9912675
55	0xbff43773	-1.9079422
56	0xbf792d67	-0.97334903
57	0xbd9f784f	-0.07786619
58	0xc0828239	-4.0783963
59	0xbf1d0fa9	-0.6135202
60	0xc07b997d	-3.9312432
61	0xc08397cf	-4.1122813
62	0xbfc3f594	-1.530932
63	0xc08bed61	-4.372727
64	0x3f21a591	0.6314326
65	0x3f80b7e6	1.0056121
66	0x3eee5ef9	0.46556833
67	0xbf41d1bd	-0.7571066
68	0xbd6c32d7	-0.057665672
69	0xbfef036a	-1.8672917
70	0xbf3f6897	-0.74768966
71	0xbf886f5e	-1.0658987
72	0xbd9104b2	-0.07080974
73	0xbf3a0903	-0.7267
74	0x3f8e9516	1.1139247
75	0xbe838687	-0.25688574
76	0xbfbfc90f	-1.4983233
77	0xbf1afbd3	-0.60540503
78	0x3f387dd9	0.7206703
79	0xbf6d8a00	-0.92788696
80	0xc0864ac3	-4.196626
81	0xc08888d5	-4.266703
82	0xbde6ea18	-0.112751186
83	0xbd54c0d1	-0.051941697
84	0xc04e5759	-3.2240813
85	0xbf61fdc2	-0.8827783
86	0xbf8bd6fb	-1.0924982
87	0x3f1d4496	0.6143278
88	0xbea3f2e6	-0.32021254
89	0xbe953052	-0.29138428
90	0xbeb5cd09	-0.35507992
91	0xc08fe884	-4.4971333
92	0xbf11ae9f	-0.56907076
93	0xbe822d8c	-0.25425375
94	0xc081af2b	-4.052633
95	0xbe46488a	-0.19363609
96	0xbfbf3ab9	-1.4939796
97	0xbf7c858a	-0.98641264
98	0xc0903fc5	-4.5077844
99	0xc0696d10	-3.6472816
100	0xbf03a5f6	-0.5142511
101	0x3fa4d42c	1.287725
102	0xbf7e926b	-0.99442166
103	0xbf71aec9	-0.94407326
104	0xbf767b58	-0.9628196
105	0xbe215fdf	-0.15759228
106	0xbd7d1a23	-0.061792504
107	0xbf60fe9a	-0.8788849
108	0xbf21cbb1	-0.63201433
109	0xbe2c9118	-0.16852224
110	0xbf3a78c7	-0.7284054
111	0xbf340956	-0.70326746
112	0xbf4720f3	-0.7778465
113	0xc0745b76	-3.8180823
114	0xc07d36d8	-3.9564724
115	0xbe00ab51	-0.12565352
116	0xc078a0de	-3.8848186
117	0xba300478	-0.0006714533
118	0xbf18974b	-0.59605855
119	0xbe9b7a58	-0.30366778
120	0xbd84c3d4	-0.06482664
121	0xbe531637	-0.20613943
122	0xbf76a0c8	-0.9633908
123	0xbf5b812f	-0.85743994
124	0x3fbe123e	1.4849317
125	0xc09c8fa7	-4.8925357
126	0xc037c733	-2.8715332
127	0xbe86f85a	-0.26361352

weight f4 [1, 128]
0	0x3f9a2a96	1.2044246
1	0x3f67c40d	0.90533525
2	0xc0be2dd9	-5.9430966
3	0x40b86194	5.7619114
4	0x3f77ffd5	0.96874744
5	0x4079072d	3.891063
6	0x3f86fddd	1.0546223
7	0x3a4aecbb	0.0007740964
8	0xb998ea20	-0.00029166136
9	0xc0e76a60	-7.231735
10	0x407a7766	3.9135375
11	0x3f9e2c9c	1.2357364
12	0x3f91b652	1.1383765
13	0xc0a62f79	-5.193295
14	0x4051ab9e	3.2760997
15	0x3f5b1c84	0.85590386
16	0xc086bd55	-4.210612
17	0x3f710af5	0.94157344
18	0xc0d0b912	-6.5225916
19	0x4093f367	4.623462
20	0x3f711465	0.94171745
21	0x3998ea88	0.0002916644
22	0x3f921fb9	1.1415931
23	0xc03650a7	-2.8486726
24	0xc0da2d57	-6.8180346
25	0x3f5c169c	0.85972
26	0x3f8c1ea0	1.0946846
27	0xc02fdcf2	-2.7478604
28	0x409ed876	4.9639235
29	0x3f70552c	0.9387996
30	0x3a3a460b	0.0007105774
31	0x3f8574f1	1.0426313
32	0x3998ea54	0.00029166287
33	0x417992a8	15.598305
34	0xc0c18b27	-6.0482364
35	0x3f63fc08	0.89056444
36	0x406bd12d	3.684642
37	0x405d769b	3.460364
38	0x3f7a3411	0.977357
39	0x3f85b7a1	1.0446664
40	0x3f54454e	0.8291825
41	0x3f70eed4	0.9411442
42	0x3f763103	0.96168536
43	0xc0cf34ae	-6.4751806
44	0x4081f550	4.0611954
45	0x40b849f5	5.759028
46	0x405c75f4	3.4446993
47	0x3f747692	0.95493424
48	0x3f6420ff	0.8911285
49	0xc0a18b32	-5.0482416
50	0x3fc85288	1.5650187
51	0xba1410f9	-0.0005648281
52	0x3fb428ce	1.4074953
53	0xc1292c1d	-10.57327
54	0x3fa0f489	1.2574626
55	0x4050f9e1	3.2652514
56	0x3f8884ed	1.0665566
57	0xba661f6f	-0.00087784877
58	0x405ac252	3.4181104
59	0xc0bacc04	-5.8374043
60	0x4089ca9e	4.3059835
61	0x405549bc	3.3326254
62	0xc0cd5263	-6.416307
63	0x40a26e81	5.0759892
64	0xc03fd5be	-2.9974208
65	0xc01407ba	-2.3129716
66	0xc032ae73	-2.7918975
67	0x3f8b689b	1.0891298
68	0x3f6b6a4d	0.9195908
69	0xc0cf2ab1	-6.4739614
70	0x3f731093	0.94947165
71	0x3fa7c7f8	1.3107901
72	0xb83e2f2b	-4.534346e-05
73	0x3f67d5fc	0.9056089
74	0xc038bac0	-2.8863983
75	0x3f6bde96	0.92136514
76	0xc1398c46	-11.596746
77	0x3f6f5a58	0.9349723
78	0xc03f67dc	-2.990714
79	0x3f8afd63	1.0858577
80	0x406366a6	3.5531402
81	0x405ea8a7	3.4790437
82	0xc0de666c	-6.9500027
83	0x3f4c608a	0.79834807
84	0x40706bf7	3.7565897
85	0xc0a761b5	-5.230677
86	0x3f9f1a80	1.2429962
87	0xc03735a7	-2.8626497
88	0xc0a36354	-5.105875
89	0x3f7db52a	0.9910456
90	0x3f6ad5b8	0.9173236
91	0x4051a28b	3.2755458
92	0xc0ed5084	-7.4160786
93	0xc0a07330	-5.014061
94	0x40603fb0	3.5038872
95	0xbb083940	-0.0020786077
96	0x3fa0ee78	1.2572775
97	0x3f98baab	1.1931967
98	0x4055c382	3.3400578
99	0x4095dc70	4.683159
100	0x3f7d2353	0.98882025
101	0xc05f2b93	-3.4870346
102	0x3f93ff25	1.1562239
103	0x3fa3372e	1.2751215
104	0x3f96b820	1.177494
105	0x3b083934	0.002078605
106	0x39944d3f	0.00028286313
107	0x3f8da5a1	1.1066171
108	0x3f826195	1.018603
109	0x3f66eabe	0.9020194
110	0x3f8b86bc	1.0900493
111	0x3f7c737e	0.9861373
112	0x3f81c927	1.0139512
113	0x406dd928	3.7163792
114	0x4082d3ea	4.0883684
115	0x39cae452	0.00038698554
116	0x40837946	4.108554
117	0xc0b2ab46	-5.5834074
118	0x3f719f73	0.94383925
119	0x3f751811	0.9573985
120	0xba2696da	-0.0006354876
121	0x3f7f796b	0.99794644
122	0x3f8d850d	1.1056229
123	0xc0c1cd6a	-6.056325
124	0xbfcaef32	-1.5854247
125	0x4058b6e1	3.386162
126	0x4066143b	3.5949848
127	0x3f58ebcc	0.847348
