data/pp/nn_p_n1_sd7.pt (torch, 7903 bytes, 3 tensors)

weight f4 [64, 19]
000000 09 72 e1 b9 09 72 e1 b9 30 71 e1 39 30 71 e1 39
       -0.00043000307 -0.00043000307 0.00042999675 0.00042999675
000010 09 72 e1 b9 09 72 e1 b9 30 71 e1 39 09 72 e1 b9
       -0.00043000307 -0.00043000307 0.00042999675 -0.00043000307
000020 30 71 e1 39 09 72 e1 b9 09 72 e1 39 30 71 e1 39
       0.00042999675 -0.00043000307 0.00043000307 0.00042999675
000030 30 71 e1 39 09 72 e1 b9 09 72 e1 b9 30 71 e1 39
       0.00042999675 -0.00043000307 -0.00043000307 0.00042999675
000040 30 71 e1 b9 09 72 e1 b9 09 72 e1 39 ef 19 00 bc
       -0.00042999675 -0.00043000307 0.00043000307 -0.007818683
000050 e3 f9 75 40 44 9e 23 bf be 30 ef 3f c1 27 0a c0
       3.8433769 -0.6391337 1.868675 -2.1586764
000060 93 ad a3 3f 98 0c 36 40 a8 05 95 40 83 3d 97 3f
       1.2787346 2.8445187 4.6569405 1.1815647
000070 a4 26 15 c0 8e 50 40 bf c7 70 85 40 3b 21 35 bf
       -2.3304834 -0.75122917 4.170017 -0.7075383
000080 0b de d9 3b 44 39 71 40 5e 85 6b 3f 25 8e fb bf
       0.006648784 3.7691202 0.9200038 -1.9652754
000090 95 c9 a2 3a 54 68 92 bb e0 2c 00 40 8f 48 81 3f
       0.0012419695 -0.0044680033 2.002739 1.0100268
0000a0 b0 5d 87 bd 9d c5 12 40 94 db de 3d 80 77 b7 3e
       -0.06609666 2.2933114 0.10881725 0.3583336
0000b0 10 bd 22 3f af 74 fb 3f 51 fa 48 be 25 44 85 bf
       0.63569736 1.9644984 -0.19626738 -1.0411421
0000c0 73 50 c1 3f 60 78 c7 3f 18 0a 7e 3f d5 2c 00 40
       1.5102676 1.558361 0.9923415 2.0027363
0000d0 ba 4c 81 3f 44 f1 06 40 25 b0 de be 5f 73 76 b9
       1.010154 2.1084757 -0.43493763 -0.00023503367
0000e0 69 82 cb 3b d7 16 01 bf 82 b3 9c 40 c2 25 bc 3f
       0.0062106145 -0.50425476 4.8969126 1.4699023
0000f0 a7 a2 0d bf 94 15 5e bf ce 69 40 bf 0d 71 88 40
       -0.5532631 -0.86751676 -0.75161445 4.2638
000100 08 72 e1 b9 09 72 e1 39 08 72 e1 b9 4a 78 47 bf
       -0.00043000304 0.00043000307 -0.00043000304 -0.7791792
000110 60 5c 9d 40 83 3c 00 bf cf e3 f1 be 40 27 9c 40
       4.9175262 -0.50092334 -0.47244117 4.8797913
000120 18 f5 f3 3f eb e8 ac 3f ae 92 43 bd c5 51 da bc
       1.9059172 1.3508581 -0.047747307 -0.026650319
000130 30 71 e1 b9 09 72 e1 39 09 72 e1 39 09 72 e1 39
       -0.00042999675 0.00043000307 0.00043000307 0.00043000307
000140 09 72 e1 39 30 71 e1 39 09 72 e1 39 30 71 e1 39
       0.00043000307 0.00042999675 0.00043000307 0.00042999675
000150 09 72 e1 39 09 72 e1 b9 09 72 e1 39 09 72 e1 39
       0.00043000307 -0.00043000307 0.00043000307 0.00043000307
000160 09 72 e1 39 30 71 e1 b9 30 71 e1 b9 09 72 e1 39
       0.00043000307 -0.00042999675 -0.00042999675 0.00043000307
000170 30 71 e1 39 30 71 e1 39 09 72 e1 b9 30 71 e1 b9
       0.00042999675 0.00042999675 -0.00043000307 -0.00042999675
000180 09 72 e1 b9 09 72 e1 b9 09 72 e1 39 09 72 e1 39
       -0.00043000307 -0.00043000307 0.00043000307 0.00043000307
000190 08 72 e1 b9 30 71 e1 b9 20 71 e1 b9 08 72 e1 b9
       -0.00043000304 -0.00042999675 -0.0004299963 -0.00043000304
0001a0 09 72 e1 39 30 71 e1 39 09 72 e1 39 09 72 e1 b9
       0.00043000307 0.00042999675 0.00043000307 -0.00043000307
0001b0 30 71 e1 39 30 71 e1 39 09 72 e1 b9 c5 70 e1 b9
       0.00042999675 0.00042999675 -0.00043000307 -0.00042999364
0001c0 08 72 e1 b9 c4 70 e1 39 30 71 e1 39 30 71 e1 39
       -0.00043000304 0.0004299936 0.00042999675 0.00042999675
0001d0 09 72 e1 39 30 71 e1 b9 09 72 e1 b9 30 71 e1 b9
       0.00043000307 -0.00042999675 -0.00043000307 -0.00042999675
0001e0 09 72 e1 39 30 71 e1 39 30 71 e1 39 30 71 e1 b9
       0.00043000307 0.00042999675 0.00042999675 -0.00042999675
0001f0 30 71 e1 39 30 71 e1 b9 09 72 e1 b9 30 71 e1 39
       0.00042999675 -0.00042999675 -0.00043000307 0.00042999675
000200 09 72 e1 b9 09 72 e1 39 30 71 e1 39 08 72 e1 39
       -0.00043000307 0.00043000307 0.00042999675 0.00043000304
000210 08 72 e1 b9 74 2c 10 3e 5b d3 8e 40 25 28 da 3f
       -0.00043000304 0.14079458 4.4633 1.7043501
000220 5a 7d af be de 9d 8a bf 6e f1 a2 bc 55 5c 98 40
       -0.34275323 -1.0829427 -0.019890513 4.761271
000230 0a 72 e1 39 0a 72 e1 39 77 ab e1 b9 a2 e9 17 3d
       0.0004300031 0.0004300031 -0.00043043096 0.037088044
000240 9f 0b ac 40 bd 58 e9 be ac 38 49 3e 00 8f 94 40
       5.3764186 -0.45575514 0.19650525 4.642456
000250 40 d8 13 40 3d 2d f2 3f 78 dc a4 bd e2 8e f2 bb
       2.3100739 1.8920056 -0.080498636 -0.007402287
000260 2c 67 ff 3e 9d f3 02 3e 22 70 9b bc 10 9d 42 3f
       0.498834 0.12788244 -0.018974368 0.7602091
000270 9d fe b6 3e 5e 0d 2b 3c 1c d4 a3 3c be 0f 81 3e
       0.3574113 0.010440199 0.019998603 0.25207323
000280 fd 2c 3f be 11 32 6a be 94 4f c9 3e fa 1a be 3e
       -0.18669505 -0.22870661 0.39318526 0.37129956
000290 e9 99 cd 3e 2c 67 ff 3e 9d f3 02 3e 4b 07 de 3e
       0.40156487 0.498834 0.12788244 0.4336494
0002a0 61 dd cd 3d b7 c8 a6 3d e9 e1 95 3d 73 0b 8d c0
       0.1005199 0.08143752 0.073184796 -4.4076476
0002b0 60 f3 c8 3f 16 50 92 c0 8b 07 90 c0 1b 75 c4 3f
       1.5699272 -4.572276 -4.500921 1.5348238
0002c0 f8 c9 53 be e5 6d 90 40 c3 70 e1 39 c3 70 e1 b9
       -0.20682514 4.513415 0.00042999358 -0.00042999358
0002d0 09 72 e1 b9 a3 2c 23 3e d5 f6 99 40 13 31 87 c0
       -0.00043000307 0.15934996 4.811381 -4.2247405
0002e0 03 f6 8c c0 ba ee bf 3f d2 21 8a c0 5b a8 58 be
       -4.4050307 1.4994729 -4.3166285 -0.21157973
0002f0 7e 5e ef bc e1 93 d2 39 28 54 81 be 94 48 7b 3f
       -0.029219862 0.000401645 -0.2525952 0.9815762
000300 34 50 7a bf 9a 12 9b 40 15 f3 65 be fc 14 0f be
       -0.9777863 4.8460207 -0.2245601 -0.13972849
000310 d6 12 8a 40 a5 e9 95 bf fe 03 54 bf 3e a2 8c bf
       4.3147993 -1.1711928 -0.8281859 -1.0987012
000320 10 95 a1 3d 8f 3a a4 40 68 d2 a6 40 6a 52 81 be
       0.078897595 5.1321483 5.2131844 -0.2525819
000330 fc 4a 7b 3f 72 ca 73 be 2b c7 e1 c0 6b 86 59 bc
       0.9816129 -0.23807696 -7.0555625 -0.013276677
000340 e7 65 4d bc e3 70 fc 3f d6 0c 9d 3f df dd 0a 3d
       -0.012536502 1.972195 1.2269542 0.033903
000350 35 84 1f 40 4c 86 8d bd d6 38 4b 3f 31 ec 49 3f
       2.4924443 -0.06910381 0.793836 0.78876024
000360 7c 7d 09 40 d6 bd 37 3e 7a f4 60 bf ec 2a c0 3f
       2.148284 0.1794351 -0.8787304 1.5013099
000370 9d f4 da 3f af 02 68 3f f2 88 fd 3f 8a 09 a0 3f
       1.71059 0.90629095 1.9807417 1.2502911
000380 6a 1c 0d 40 f2 2f c6 bf 52 8d 3b bb be 03 9f 3c
       2.2048593 -1.5483382 -0.002861817 0.019410964
000390 30 71 e1 39 30 71 e1 39 30 71 e1 39 30 71 e1 39
       0.00042999675 0.00042999675 0.00042999675 0.00042999675
0003a0 30 71 e1 39 30 71 e1 39 09 72 e1 b9 30 71 e1 39
       0.00042999675 0.00042999675 -0.00043000307 0.00042999675
0003b0 09 72 e1 39 09 72 e1 b9 30 71 e1 39 30 71 e1 39
       0.00043000307 -0.00043000307 0.00042999675 0.00042999675
0003c0 09 72 e1 39 09 72 e1 b9 30 71 e1 39 30 71 e1 39
       0.00043000307 -0.00043000307 0.00042999675 0.00042999675
0003d0 09 72 e1 b9 08 72 e1 39 09 72 e1 b9 30 71 e1 39
       -0.00043000307 0.00043000304 -0.00043000307 0.00042999675
0003e0 30 71 e1 b9 09 72 e1 39 30 71 e1 b9 30 71 e1 39
       -0.00042999675 0.00043000307 -0.00042999675 0.00042999675
0003f0 09 72 e1 b9 09 72 e1 b9 30 71 e1 b9 09 72 e1 39
       -0.00043000307 -0.00043000307 -0.00042999675 0.00043000307

bias f4 [64]
000000 dc 48 de bc 21 f4 18 bf 72 39 f4 be 91 65 8a bf
       -0.027134351 -0.5974751 -0.47700077 -1.0812246
000010 74 e5 ef bd 91 ab 1c be 4d 2c 86 be 4d bd 91 bf
       -0.117136866 -0.15299822 -0.26205674 -1.1385895
000020 ea e6 91 be 0e 39 d0 3e c1 df 1c be df b5 52 bf
       -0.28496486 0.4066853 -0.1531973 -0.82308763
000030 e1 02 2a bd 5a b1 5b be 1e 2f 09 bf 41 14 35 bf
       -0.04150665 -0.21454373 -0.5358752 -0.7073403
000040 01 7d 07 bf d6 e9 90 bf d0 6e 51 be 43 56 55 bf
       -0.52925116 -1.1321361 -0.20452428 -0.8333475
000050 35 5b ee bd 4c 4e 25 bd 37 2c 27 bf 3d 8c de bd
       -0.1163849 -0.040357873 -0.6530184 -0.10866592
000060 0c e7 be 3e 71 a4 f0 bc ca f5 ec be ff 23 52 be
       0.3728565 -0.029375287 -0.46281272 -0.20521544
000070 e2 0a 8b be ad 36 69 be d9 a0 fd bc 53 fb 27 be
       -0.2715674 -0.22774763 -0.030960487 -0.16404466
000080 46 2e 48 3f a8 a8 13 3f af 8c 48 be cb 52 93 be
       0.7819561 0.57679224 -0.19584917 -0.28774104
000090 c7 2f cb be 74 26 35 bf 91 df 5a bd d7 27 f1 be
       -0.3968489 -0.707618 -0.053435866 -0.47100708
0000a0 16 66 a5 3e 93 d8 6c bf 64 e7 b6 be 42 f7 f7 bc
       0.32304448 -0.92517966 -0.35723412 -0.030269269
0000b0 f1 76 21 be d8 97 4d bf ec c4 03 bd 29 ad 88 bf
       -0.15768029 -0.8030982 -0.03217022 -1.0677844
0000c0 a6 7f af 3d c5 f5 f1 be ef c4 95 bd 17 02 ac bd
       0.08569269 -0.4725782 -0.07312953 -0.08398836
0000d0 3c 24 1b bf 1e 78 88 be a4 bc 08 be 38 63 e7 3e
       -0.60602164 -0.26654142 -0.1335321 0.45192885
0000e0 de 6f e6 3e 53 e6 5f bd f0 e5 26 bf 6a 75 4d 3d
       0.45007223 -0.054663014 -0.65194607 0.050160803
0000f0 c8 6e b8 be 26 7f bb be fa a4 b3 be 2a 1d 2d bf
       -0.3602202 -0.36620444 -0.35086805 -0.67622626

weight f4 [1, 64]
000000 08 72 e1 39 fc 13 48 40 97 d5 a8 3f ee 7c 96 40
       0.00043000304 3.1262197 1.3190182 4.70275
000010 09 72 e1 b9 d6 70 e1 39 08 72 e1 39 c2 46 9a 40
       -0.00043000307 0.00042999414 0.00043000304 4.8211374
000020 f0 df 2e 3e 6c 9c 3f c1 25 d7 3b 41 97 24 aa 3f
       0.17077613 -11.975689 11.7400255 1.3292416
000030 08 72 e1 b9 09 72 e1 39 9a f2 67 40 a8 33 d4 3f
       -0.00043000304 0.00043000307 3.6241822 1.6578264
000040 39 70 c1 3e 60 af b3 40 c4 70 e1 39 1e 46 d9 40
       0.37780932 5.615158 0.0004299936 6.789809
000050 42 45 c6 c0 a4 07 29 c0 39 43 c9 3f 95 55 47 41
       -6.1959543 -2.6410913 1.572364 12.458394
000060 05 ef 42 c1 c4 70 e1 b9 44 61 2e 40 30 71 e1 b9
       -12.183354 -0.0004299936 2.7246866 -0.00042999675
000070 2e 27 35 41 30 71 e1 39 c4 70 e1 b9 30 71 e1 39
       11.322065 0.00042999675 -0.0004299936 0.00042999675
000080 41 e0 0b c1 04 c9 cd c0 f0 65 56 41 73 7f 28 3e
       -8.7422495 -6.430788 13.399887 0.16454868
000090 5f cf 20 41 f1 ad 43 40 09 72 e1 39 af b2 bb 3f
       10.050628 3.0574915 0.00043000307 1.4663905
0000a0 19 c5 65 c0 45 7b 54 40 af 27 44 40 c5 70 e1 b9
       -3.590155 3.3200238 3.064922 -0.00042999364
0000b0 c4 70 e1 b9 76 4f c0 3f 09 72 e1 39 51 8b a1 40
       -0.0004299936 1.502425 0.00043000307 5.0482564
0000c0 55 72 49 41 2e 07 04 40 cf dd 2b c0 08 72 e1 b9
       12.590413 2.0629382 -2.6854131 -0.00043000304
0000d0 43 97 9d 3f ac f2 51 41 e9 59 5d 41 89 54 e8 c0
       1.2311786 13.121746 13.834451 -7.260319
0000e0 d6 70 0b c1 c4 70 e1 39 95 59 5a 40 bc b2 61 41
       -8.715048 0.0004299936 3.4117177 14.106136
0000f0 89 38 ec 3f 1d 45 94 3f 49 6b 62 3f fc 36 ae 3f
       1.8454753 1.1583592 0.88444954 1.361053
