data/sslp/nn_e_l5_c25_nsp10000_nse5000_sd7.pt (torch, 77647 bytes, 7 tensors)

weight f4 [64, 25]
0	0xbb242e5a	-0.0025052042
1	0xbb2030f3	-0.0024443239
2	0xbb238d5d	-0.0024956085
3	0xbb2402ac	-0.0025026007
4	0xbb240d08	-0.0025032181
5	0xbb1d66ed	-0.0024017647
6	0xbb1d04e0	-0.0023959205
7	0x3b1cb335	0.0023910527
8	0xbb22f8e0	-0.002486758
9	0x3b1fe3b0	0.0024397187
10	0xbb2322a8	-0.0024892483
11	0x3b225765	0.002477133
12	0x3b22f201	0.0024863484
13	0xbb1df30c	-0.0024101166
14	0x3b20f92f	0.0024562587
15	0xbb1ecf78	-0.0024232548
16	0xbb203e28	-0.002445111
17	0x3b2401b1	0.0025025422
18	0x3b215ede	0.0024623196
19	0x3b2125aa	0.00245891
20	0xbb21dd77	-0.0024698654
21	0x3b201562	0.0024426808
22	0x3b22ded7	0.0024852061
23	0xbb1f0556	-0.0024264655
24	0x3b276d0e	0.002554718
25	0x3cd7d747	0.02634777
26	0xbca230db	-0.019798687
27	0xbc8bcc81	-0.017065288
28	0x3cd92965	0.026508996
29	0x3cac6e1b	0.021048596
30	0x3cd3753a	0.025812734
31	0xbca68e7c	-0.020331614
32	0x3cc88272	0.024476264
33	0x3c91ae76	0.017783385
34	0xbcdb7eba	-0.026793826
35	0xbcd774ce	-0.026300814
36	0x3cc827e9	0.024433093
37	0x3ca2fc59	0.01989572
38	0x3cd59443	0.026071673
39	0x3ca4c635	0.020114044
40	0x3ca6da48	0.020367756
41	0x3c9cfe0b	0.019164106
42	0xbcb9e8f4	-0.022694089
43	0x3ccf8fb3	0.025337076
44	0x3ca10b16	0.019658606
45	0xbccdc8ea	-0.025120217
46	0xbca31c7c	-0.019911043
47	0xbcaf5383	-0.021402126
48	0x3cac45f2	0.021029446
49	0x3cd6e8b9	0.026234018
50	0x3f182057	0.59424347
51	0x3ecc563e	0.39909548
52	0x3ec3a911	0.38214925
53	0x3f18c145	0.59669906
54	0x3f1c4be2	0.6105329
55	0x3f10e63f	0.5660133
56	0x3eb5f557	0.35538742
57	0x3ed727dd	0.420226
58	0x3f15ed61	0.58565336
59	0x3e878a46	0.26472682
60	0x3f132bca	0.5748869
61	0x3eb3c633	0.35112152
62	0x3e9c2a4f	0.3050103
63	0x3f1a70ea	0.60328543
64	0x3f1bfabc	0.60929465
65	0x3ebe5124	0.3717128
66	0x3f17386c	0.5907047
67	0x3f1a7b61	0.6034451
68	0x3f1895f1	0.5960379
69	0x3f12fbbd	0.5741537
70	0x3f1947fe	0.59875476
71	0x3f14e146	0.5815624
72	0x3f0f0181	0.5586167
73	0x3f15955d	0.58431035
74	0x3eba9d1e	0.36447996
75	0xbd28eef3	-0.041243505
76	0x3d27d559	0.04097495
77	0x3d28323c	0.041063532
78	0xbd260922	-0.040536053
79	0x3d27ab6a	0.040934958
80	0x3d26d68b	0.040731948
81	0xbd27569b	-0.040854078
82	0xbd255e22	-0.040372975
83	0x3d27d3f2	0.04097361
84	0x3d24ffc4	0.04028298
85	0x3d22ddfc	0.039762482
86	0x3d0b8446	0.034061693
87	0x3d2aad3b	0.04166911
88	0xbd13fefc	-0.036131844
89	0xbd291722	-0.041281827
90	0x3d295055	0.041336376
91	0x3d291330	0.041278064
92	0xbd29857f	-0.041387077
93	0xbd28ea6b	-0.041239183
94	0x3d293f72	0.04132027
95	0xbd293661	-0.041311625
96	0xbd2908d9	-0.041268203
97	0x3d28784c	0.04113035
98	0x3d121f83	0.035674583
99	0x3d293774	0.04131265
100	0x3c8ca70b	0.017169496
101	0xbc8839e8	-0.016629174
102	0x3c6e4ab4	0.014544178
103	0x3c6e3d5e	0.014540998
104	0xbc8b15d9	-0.016978191
105	0x3c87acae	0.016561832
106	0x3c8cc484	0.01718355
107	0x3c729968	0.014807083
108	0x3c6c0434	0.014405299
109	0xbc6c54bd	-0.0144245
110	0x3c8d2ff3	0.017234778
111	0x3c6df2aa	0.014523188
112	0x3c6ebd70	0.014571533
113	0xbc6bffe6	-0.014404273
114	0x3c895b2b	0.016767105
115	0x3c885502	0.016642097
116	0xbc6c65cf	-0.01442857
117	0x3c720799	0.014772319
118	0xbc86cb52	-0.016454373
119	0xbc6dc3cf	-0.014512016
120	0x3c70123c	0.014652785
121	0x3c8b1df9	0.016982066
122	0x3c8826ef	0.016620127
123	0xbc6c9d10	-0.0144417435
124	0x3c6e880c	0.014558803
125	0xbc125bce	-0.008933021
126	0xbc1c9e92	-0.0095592905
127	0xbc120418	-0.008912109
128	0xbc24be6c	-0.010055166
129	0xbc1b1193	-0.009464639
130	0xbc18e294	-0.009331364
131	0xbc1fc988	-0.009752639
132	0xbc21a9a1	-0.009867103
133	0x3c0a533c	0.008442696
134	0xbc1628ab	-0.009164969
135	0x3c268be8	0.010165192
136	0x3c283a14	0.010267753
137	0xbc1b3ace	-0.009474469
138	0xbc100dd1	-0.008792357
139	0x3c23f461	0.010006995
140	0x3c0bc845	0.008531635
141	0x3c114d82	0.008868577
142	0x3c16647d	0.009179232
143	0x3c1c5f0e	0.009544147
144	0x3c12844a	0.008942673
145	0x3c0e576b	0.008687834
146	0x3c174200	0.009232044
147	0xbc25d144	-0.010120694
148	0xbc1c09b7	-0.009523801
149	0xbc10625a	-0.008812511
150	0x3d2baeaf	0.041914638
151	0xbd2bb231	-0.041917983
152	0xbd2bb35b	-0.041919094
153	0xbd2bb2bc	-0.0419185
154	0xbd2bb32c	-0.04191892
155	0x3d2bab67	0.04191151
156	0x3d2bab9b	0.041911703
157	0x3d2ba902	0.041909225
158	0x3d2ba7b8	0.041907996
159	0xbd2bb25c	-0.041918144
160	0xbd2bb337	-0.04191896
161	0xbd2bb41b	-0.04191981
162	0xbd2bb3b0	-0.04191941
163	0x3d2ba75b	0.04190765
164	0x3d2baa41	0.041910414
165	0xbd2bb36f	-0.041919168
166	0xbd2bb2f3	-0.041918706
167	0x3d2ba631	0.04190654
168	0xbd2bb28f	-0.041918334
169	0xbd2ba3bb	-0.041904192
170	0x3d2bad5c	0.041913375
171	0xbd2bb2b6	-0.04191848
172	0x3d2ba6ed	0.04190724
173	0x3d2bad2a	0.04191319
174	0xbd2bb331	-0.041918937
175	0x3b3a54b6	0.002843184
176	0x3b82fc52	0.003997364
177	0x3b86ffda	0.0041198554
178	0x3b89703b	0.004194287
179	0x3b655390	0.0034992434
180	0xbb93dc04	-0.004512312
181	0xbb4091e3	-0.002938383
182	0xbb66e548	-0.0035231877
183	0xbb54166d	-0.0032362
184	0x3b82c096	0.003990243
185	0xbb6d65f2	-0.0036224094
186	0x3b6b9d44	0.0035951892
187	0xbb7694ca	-0.0037625306
188	0x3b365be3	0.0027825765
189	0xbb850690	-0.00405962
190	0x3b59b82f	0.0033221354
191	0xbb8d33d4	-0.004309157
192	0xbb74e8da	-0.0037370236
193	0x3b70ccb3	0.0036743104
194	0xbb56924e	-0.0032741013
195	0xbb4aab7f	-0.0030924974
196	0xbb5bc309	-0.0033532998
197	0x3b70e1bb	0.003675564
198	0x3b731d8b	0.0037096466
199	0x3b46feea	0.0030364343
200	0xbb902632	-0.0043990845
201	0xbb678b50	-0.003533084
202	0x3b9b066b	0.0047309897
203	0x3b639bd9	0.0034730344
204	0x3b594fc9	0.0033159128
205	0xbb666a6f	-0.0035158654
206	0xbb6c6b4d	-0.0036074698
207	0x3b76258a	0.0037558996
208	0x3b99deb7	0.004695739
209	0x3b8a1829	0.004214306
210	0x3b83b866	0.0040197847
211	0xbb8f5ca9	-0.0043750596
212	0xbb858c61	-0.0040755724
213	0xbb69a1ae	-0.0035649347
214	0x3bb3c5d9	0.0054862318
215	0x3baae31b	0.0052150614
216	0x3b9e61e7	0.004833448
217	0x3b8622c1	0.0040934985
218	0x3b8e9524	0.004351275
219	0x3b7f3507	0.003894152
220	0x3b92389c	0.004462315
221	0x3ba2f2d0	0.004972793
222	0x3b863904	0.0040961523
223	0x3b672e3c	0.003527536
224	0x3ba44db3	0.0050141453
225	0xbfce612d	-1.6123406
226	0xbfd2d361	-1.6470758
227	0xbfcdbf44	-1.6073995
228	0xbf1b38c2	-0.6063348
229	0xbf209eeb	-0.6274249
230	0xbfd36b51	-1.6517125
231	0xbf1ebbd7	-0.6200537
232	0xbf196cde	-0.59931743
233	0xbfd303f0	-1.6485577
234	0xbfd24568	-1.6427431
235	0xbf1ad172	-0.6047584
236	0xbfd1b24d	-1.6382538
237	0xbf02749a	-0.5095917
238	0xbfd1da3c	-1.6394725
239	0xbf0fdaf9	-0.561935
240	0xbf1df13a	-0.6169621
241	0xbf137ffb	-0.5761716
242	0xbf008743	-0.50206393
243	0xbf1f38e9	-0.62196213
244	0xbef2cc2c	-0.47421396
245	0xbf0acd50	-0.5421953
246	0xbf02ff7d	-0.51171094
247	0xbef07a72	-0.46968418
248	0xbfd43696	-1.6579158
249	0xbf2098ca	-0.6273314
250	0xbbdc02f9	-0.0067142216
251	0xbbf448e4	-0.0074549783
252	0xbbda4758	-0.006661337
253	0x3bd29ec3	0.0064276173
254	0x3bf0a296	0.0073436005
255	0x3be23875	0.006903703

weight f4 [128, 64]
0	0x3d2bb450	0.041920006
1	0xbd2b469c	-0.041815385
2	0x3d2bb41d	0.041919816
3	0xbc9bf975	-0.019039849
4	0xbd2745ab	-0.040837925
5	0xbce0637a	-0.027391184
6	0x3d2bb419	0.0419198
7	0xbc97c86f	-0.018528191
8	0xbc974880	-0.018467188
9	0xbd1fc00f	-0.03900152
10	0xbc9698d7	-0.018383427
11	0xbc93e710	-0.018054515
12	0xbd2bb450	-0.041920006
13	0xbd2b9f15	-0.04189976
14	0xbd2b67f4	-0.041847184
15	0xbd2bb0de	-0.04191672
16	0xbc97960c	-0.018504165
17	0x3d251840	0.04030633
18	0x3c98bf47	0.018645896
19	0x3c9771d0	0.018486887
20	0xbd2bb460	-0.041920066
21	0xbd284e3e	-0.041090243
22	0x3c97545f	0.018472848
23	0x3d2a7176	0.04161211
24	0xbd1f5fb0	-0.038909614
25	0xbd04a7fd	-0.03238677
26	0xbc9aa23c	-0.018876188
27	0x3d28f87c	0.0412526
28	0x3d2bb450	0.041920006
29	0x3c9bac50	0.019003063
30	0x3d17bc37	0.03704473
31	0xbd2ba91d	-0.041909326
32	0xbd1e13f8	-0.038593262
33	0x3d28e01c	0.041229352
34	0xbd2bb41d	-0.041919816
35	0x3d2bb41d	0.041919816
36	0x3ccf7857	0.025325937
37	0xbd1f18be	-0.038841955
38	0x3c9a0611	0.01880172
39	0x3d278c2c	0.040905163
40	0x3d2bb419	0.0419198
41	0x3d14fdcf	0.036374863
42	0x3d2bb419	0.0419198
43	0x3c981f99	0.018569754
44	0x3d2bb44f	0.041920003
45	0xbd2bb30e	-0.041918807
46	0x3c98a578	0.01863359
47	0x3d22732b	0.039660614
48	0x3c93d45d	0.018045599
49	0x3c9be4cf	0.019030003
50	0x3d28bf3f	0.04119801
51	0x3d2baed4	0.041914776
52	0xbd283aca	-0.04107169
53	0x3d24dfeb	0.040252607
54	0xbcda0786	-0.026614916
55	0x3d19c9d5	0.037545998
56	0x3d2a12c1	0.04152179
57	0x3d2bb419	0.0419198
58	0xbc94625c	-0.018113308
59	0x3d1df82e	0.03856676
60	0x3d2bb379	0.041919205
61	0x3d2bb41d	0.041919816
62	0x3d2bb450	0.041920006
63	0x3c9d7295	0.019219676
64	0x3d2bb450	0.041920006
65	0xbd2acca1	-0.041699056
66	0x3d2bb450	0.041920006
67	0xbc6c5f73	-0.014427054
68	0x3d23008e	0.03979545
69	0xbcb38e86	-0.021918546
70	0x3d2bb41a	0.041919805
71	0x3c657611	0.0140052
72	0x3c64478d	0.013933075
73	0xbd159998	-0.03652343
74	0x3c637577	0.013882986
75	0x3c5eadd4	0.013591249
76	0x3d2bb450	0.041920006
77	0x3cc2948e	0.023752477
78	0x3d2b16cf	0.0417698
79	0x3d2bad89	0.041913543
80	0x3c64c926	0.013963973
81	0xbd1f0d00	-0.038830757
82	0xbc6698e2	-0.014074536
83	0x3c64e285	0.013970022
84	0x3d2bb41d	0.041919816
85	0x3d24f126	0.04026904
86	0x3c645c61	0.0139380405
87	0x3d293153	0.041306805
88	0x3d14ef96	0.0363613
89	0xbcdf6b66	-0.027272891
90	0x3c6a2349	0.014290639
91	0x3d263cd2	0.040585347
92	0x3d2bb44f	0.041920003
93	0xbc6c65e7	-0.014428592
94	0xbd092765	-0.033484835
95	0xbd2b9d38	-0.041897982
96	0x3d12abfe	0.035808556
97	0xbd26322f	-0.040575203
98	0x3d2bb40b	0.04191975
99	0x3d2bb450	0.041920006
100	0x3ca32327	0.019914223
101	0x3d147d97	0.036252584
102	0x3c69334b	0.014233421
103	0xbd2361af	-0.03988808
104	0x3d2bb450	0.041920006
105	0xbd051ba1	-0.032497052
106	0xbd2bb450	-0.041920006
107	0xbc660cb3	-0.014041114
108	0xbd2bb44f	-0.041920003
109	0x3baf5c67	0.0053515914
110	0xbc66d5ec	-0.014089089
111	0x3d1ed461	0.03877676
112	0x3c5eff24	0.013610635
113	0x3c6bca26	0.014391458
114	0xbd25bcc6	-0.04046323
115	0xbb8f39d3	-0.004370907
116	0x3d24b24a	0.040209092
117	0xbd1e5090	-0.03865105
118	0xbcad6378	-0.021165594
119	0xbd0c5b78	-0.03426692
120	0xbd2857fe	-0.04109954
121	0x3d2bb44f	0.041920003
122	0x3c5fd88b	0.013662468
123	0x3d131045	0.035904188
124	0xbd2bb2d7	-0.0419186
125	0xbd2bb352	-0.04191906
126	0x3d2bb450	0.041920006
127	0x3c6e4fc2	0.014545383
128	0x3d2bb44f	0.041920003
129	0x3c626ac9	0.013819405
130	0xba8d631a	-0.0010786981
131	0x3c94c708	0.018161312
132	0xbd26b389	-0.04069856
133	0x3cd8a559	0.026446031
134	0xbd2bb3f1	-0.041919652
135	0xbc91082b	-0.01770409
136	0x3c908d28	0.017645434
137	0xbd1e4f5b	-0.038649898
138	0x3c8f999a	0.017529298
139	0xbc8d4381	-0.017244102
140	0x3d2bb450	0.041920006
141	0xbf4feac3	-0.8121759
142	0xbd2b5d3a	-0.041836955
143	0xbf3803ba	-0.71880686
144	0xbc908f14	-0.01764635
145	0xbd24499a	-0.040109254
146	0x3c91f9c2	0.01781929
147	0x3c90b5a8	0.017664745
148	0xbf42f719	-0.7615829
149	0x3d27df9b	0.04098473
150	0xbc903e05	-0.017607698
151	0xbd2a474e	-0.041571908
152	0xbf341f54	-0.703603
153	0x3d013486	0.03154423
154	0x3c938632	0.018008325
155	0x3d28a583	0.04117347
156	0x3d2bb419	0.0419198
157	0xbc9528ec	-0.01820799
158	0x3d15c05b	0.036560398
159	0x3d2ba7b8	0.041907996
160	0x3d1c7ee6	0.038206957
161	0x3d288a7b	0.04114769
162	0xbf5cce31	-0.86252123
163	0x3d2bb461	0.04192007
164	0x3cc78181	0.024353744
165	0x3d1db32c	0.03850095
166	0x3c9385f3	0.018008208
167	0x3d2706ae	0.040777855
168	0x3d2bb44f	0.041920003
169	0xbd12b360	-0.035815597
170	0x3d2bb450	0.041920006
171	0x3c91123c	0.01770889
172	0x3d2bb450	0.041920006
173	0xbf510154	-0.8164265
174	0xbc91e0ba	-0.017807353
175	0xbde093f9	-0.109657235
176	0x3c8d3352	0.017236385
177	0x3aa91213	0.0012899063
178	0xbd28588c	-0.04110007
179	0xbf522354	-0.82085156
180	0xbd27cc73	-0.040966462
181	0x3d241665	0.04006042
182	0xbcd279a2	-0.025692765
183	0xbd17cb3e	-0.03705906
184	0x3d29db62	0.041468985
185	0x3d2bb44f	0.041920003
186	0x3c8dbe22	0.017302576
187	0xbd1c6dd7	-0.03819069
188	0xbf401df3	-0.750457
189	0x3d982ceb	0.074304424
190	0x3d2bb44f	0.041920003
191	0xbc968c2f	-0.018377392
192	0xba939672	-0.0011260046
193	0x3c432050	0.011909559
194	0x3a83be1c	0.0010051164
195	0x3d22f576	0.03978487
196	0x3d2bb0c0	0.04191661
197	0x3d2ae9eb	0.041726988
198	0x3d2bb465	0.041920085
199	0x3d0e2b7c	0.03470944
200	0xbd136e2d	-0.035993744
201	0xba2fdadc	-0.0006708333
202	0x3d04fe57	0.03246912
203	0x3cbd05ac	0.023073994
204	0xbac0a7dc	-0.0014698463
205	0xbcb0d2b0	-0.021584839
206	0xbd2bb40b	-0.04191975
207	0xbf3a6f45	-0.72826034
208	0xbd1cdeb3	-0.03829832
209	0x3c9e6178	0.019333586
210	0xbd2641b1	-0.040589992
211	0xbd0856ec	-0.03328602
212	0xbf5ccc6b	-0.8624942
213	0xbd2bb156	-0.041917168
214	0xbd076ba7	-0.03306165
215	0x3d2bb338	0.041918963
216	0xbf3c17f9	-0.7347408
217	0x3d2b495a	0.041818
218	0x3d2a6b08	0.04160598
219	0x3d2bb20a	0.04191784
220	0x3d25b6f7	0.040457692
221	0x3c168e0c	0.00918914
222	0x3d2ba043	0.041900884
223	0x3d2bb41d	0.041919816
224	0xbd40dfda	-0.04708848
225	0xbd2bb1da	-0.04191766
226	0xbf5e943c	-0.8694494
227	0xbd2bb3b3	-0.04191942
228	0x3d2b2e7c	0.041792378
229	0xbac8cdad	-0.0015320085
230	0xbd28d460	-0.04121816
231	0x3d2bb0c2	0.041916616
232	0xbd00e56f	-0.031468805
233	0x3b3260e4	0.0027218396
234	0x3d2badca	0.041913785
235	0x3d08735f	0.03331315
236	0x3a07ae4a	0.00051758124
237	0x3df72648	0.120678484
238	0x3d1a57e3	0.03768147
239	0xbd5e5a05	-0.054285068
240	0xbca22fe2	-0.019798223
241	0xbe8ad8d2	-0.27118546
242	0xbbcaccf2	-0.006188982
243	0x3e8ff6ed	0.28118077
244	0xbd2bb16e	-0.041917257
245	0xbd2bae6e	-0.041914396
246	0xbd2b4016	-0.041809164
247	0x3d2ba28d	0.041903067
248	0xbd2bb23f	-0.041918036
249	0xbbf296f3	-0.0074032485
250	0x3cb5d46c	0.022196017
251	0xbaec2f5a	-0.0018019483
252	0xbf335e28	-0.70065546
253	0x3c3780f8	0.011200182
254	0xbb82ddec	-0.0039937403
255	0x3bdbd899	0.00670917

weight f4 [8, 128]
0	0xbc9eccec	-0.019384824
1	0x3d2b651e	0.04184448
2	0xbdea3e28	-0.114376366
3	0x3b619358	0.00344201
4	0xbd59bffb	-0.053161602
5	0xbd1fc133	-0.03900261
6	0xbf488e0b	-0.7834174
7	0xbd2bb41d	-0.041919816
8	0xbf571c9b	-0.84028023
9	0x3d2bb450	0.041920006
10	0xbf5e8191	-0.8691645
11	0x3d2bb450	0.041920006
12	0xbecc559e	-0.3990907
13	0x3d2bb41a	0.041919805
14	0xbf480909	-0.78138787
15	0xbd27ec83	-0.04099704
16	0x3d2bb41c	0.041919813
17	0x3d2bb41a	0.041919805
18	0xbf4edda4	-0.80806947
19	0x3c8fe7b5	0.017566541
20	0xbcef5ac9	-0.029218094
21	0x3d1a40d2	0.037659474
22	0x3d26be32	0.040708728
23	0x3d2bb41c	0.041919813
24	0x3d115143	0.035477888
25	0x3d21269c	0.03934346
26	0xbd2bb41c	-0.041919813
27	0xbcbb295d	-0.022846872
28	0x3d2b581e	0.041832082
29	0xbf507c03	-0.81439227
30	0xbd2bb44f	-0.041920003
31	0x3d2acd23	0.04169954
32	0x3b406a8e	0.0029360387
33	0xbd16007b	-0.036621552
34	0x3d089d8c	0.033353373
35	0x3bb9f1be	0.00567457
36	0x3d2653fe	0.040607445
37	0xbe9f5023	-0.31115827
38	0xbc0dd10c	-0.008655798
39	0x3d28e790	0.04123646
40	0x3d2bb44f	0.041920003
41	0x3d10c4a5	0.035343785
42	0xbd2b614e	-0.041840844
43	0xbd2b7ca1	-0.041866902
44	0x3d2b6bbc	0.04185079
45	0x3d013be9	0.031551275
46	0xbf49229b	-0.7856843
47	0xbf4e79fb	-0.8065488
48	0xbd000a14	-0.03125961
49	0xbf49681c	-0.78674483
50	0x3d2b7deb	0.04186813
51	0xbd52676a	-0.051368155
52	0xbf53a45e	-0.8267268
53	0x3d2bb450	0.041920006
54	0xbf3f2b57	-0.74675506
55	0xbe0d6748	-0.1380893
56	0x3d2afd14	0.04174526
57	0xbd2bb450	-0.041920006
58	0xbf45b8a9	-0.77234894
59	0x3cde960b	0.027171155
60	0xbb1b4a0f	-0.0023695265
61	0x3d07380a	0.033012427
62	0xbf5790fa	-0.8420559
63	0x3cee4e36	0.029090028
64	0x3d2aff5e	0.041747443
65	0xbf502da6	-0.81319654
66	0xbee703b2	-0.45120007
67	0xbd212aa4	-0.039347306
68	0xbd2bb450	-0.041920006
69	0xbd2bb41c	-0.041919813
70	0xbde5cc83	-0.11220648
71	0x3d0a9352	0.0338319
72	0x3d2bb450	0.041920006
73	0xbd2bb41d	-0.041919816
74	0xbf589e2a	-0.8461634
75	0xbf5f6542	-0.8726388
76	0xba1e6ad4	-0.00060431403
77	0xbed4a5e1	-0.41532806
78	0xbb5ddfd4	-0.0033855336
79	0x3c6ee491	0.014580862
80	0xbf50a00a	-0.814942
81	0x3d2bb41a	0.041919805
82	0x3d2bb450	0.041920006
83	0xbd086dbd	-0.03330778
84	0xbcdf67c9	-0.027271168
85	0x3d07dbc9	0.033168588
86	0xbd2bb419	-0.0419198
87	0xbf5eeb11	-0.8707743
88	0x3d2bb419	0.0419198
89	0xbf47b10b	-0.7800452
90	0xbe1723bb	-0.14759724
91	0x3bb56538	0.005535748
92	0xbe02a752	-0.1275914
93	0xbd934e14	-0.071926266
94	0x3d20b049	0.03923062
95	0x3bee543f	0.0072732265
96	0xbd2bb450	-0.041920006
97	0x3d2bb41d	0.041919816
98	0xbd26316f	-0.040574487
99	0xbf519b2d	-0.81877404
100	0xbd2bb41c	-0.041919813
101	0x3cbe07e7	0.023197128
102	0xba9eb7e5	-0.0012109248
103	0xbd2bb41c	-0.041919813
104	0xbea1844d	-0.3154625
105	0xbcafd2ec	-0.02146288
106	0xbf4da162	-0.80324376
107	0xbd0cbe10	-0.034360945
108	0xbeb12bbf	-0.34603688
109	0x3d2ae83c	0.041725382
110	0xbe983c36	-0.29733437
111	0x3d2b5c67	0.04183617
112	0xbf5de89c	-0.8668306
113	0x3d29e6e0	0.041479945
114	0xbd2bb450	-0.041920006
115	0xbf156cc9	-0.5836912
116	0xbcdc732a	-0.026910383
117	0xbd780153	-0.060548138
118	0xbd181f17	-0.037139025
119	0xbc6ddceb	-0.014518003
120	0xbd2bb215	-0.04191788
121	0x3d2af64c	0.041738793
122	0xbf4446c8	-0.76670504
123	0x3c136be4	0.008997891
124	0x3d2bb41a	0.041919805
125	0xbf59b2f0	-0.8503866
126	0xbf521916	-0.8206953
127	0x3d1d4890	0.03839928
128	0x3bc5dd26	0.006038326
129	0xbd139201	-0.036027912
130	0x3c8a079d	0.016849333
131	0xbd0be9df	-0.034158584
132	0xbc10a77e	-0.008828996
133	0x3c3fa25f	0.011696427
134	0xbd2bb41a	-0.041919805
135	0xbd2bb416	-0.04191979
136	0x3bd0151d	0.006350173
137	0xbd2bb41a	-0.041919805
138	0x3d2bb41c	0.041919813
139	0x3d2bb41a	0.041919805
140	0x3beb6bf9	0.007184502
141	0x3d2bb41a	0.041919805
142	0xbf4bb017	-0.79565567
143	0x3c34f67b	0.011045094
144	0xbd2bb41c	-0.041919813
145	0x3d2bb41a	0.041919805
146	0x3c84bbe0	0.016202867
147	0x3bd77fde	0.0065765223
148	0xbba8857c	-0.0051428657
149	0xbd2bb405	-0.041919727
150	0xbc8b674f	-0.017017035
151	0x3d2bb41c	0.041919813
152	0xbc017588	-0.007901557
153	0x3d2a1339	0.04152224
154	0x3d2bb41d	0.041919816
155	0x3c14d628	0.009084262
156	0x3d2bb41c	0.041919813
157	0xbf4bb8b6	-0.7957872
158	0x3d2bb450	0.041920006
159	0x3cf2c242	0.029633645
160	0x3ba05d90	0.004893966
161	0x3c0f5eba	0.008750612
162	0x3bdba6c1	0.006703228
163	0x3b062ca8	0.0020473395
164	0x3d0b694e	0.034035973
165	0x3b9a4d95	0.0047089555
166	0x3c8c019e	0.017090615
167	0x3cacb5c0	0.021082759
168	0xbd2bb450	-0.041920006
169	0x3bfffad8	0.0078118853
170	0xbc10165b	-0.008794392
171	0x3d198c03	0.03748704
172	0x3d1505b9	0.03638241
173	0x3c6d628b	0.0144888265
174	0xbf613519	-0.87971646
175	0x3c1f77d6	0.009733161
176	0x3c3a757f	0.011380552
177	0xbd2bb450	-0.041920006
178	0x3d19efb6	0.03758212
179	0xbc15022f	-0.009094759
180	0xbd14979b	-0.036277395
181	0x3d2bb450	0.041920006
182	0xbba58625	-0.0050513917
183	0x3bc67271	0.006056123
184	0x3d2bb450	0.041920006
185	0xbd2bb450	-0.041920006
186	0xbf4bc237	-0.79593223
187	0x3b8d490a	0.0043116855
188	0xbfa385c0	-1.2775192
189	0xbbd5e7e7	-0.006527889
190	0x3cfd4321	0.030915799
191	0xbba74083	-0.005104126
192	0xbd2bb41a	-0.041919805
193	0x3ba9516f	0.0051671783
194	0x3c25845a	0.010102356
195	0xbc4ae01b	-0.0123825325
196	0x3d2bb41c	0.041919813
197	0x3d2bb450	0.041920006
198	0xbbdaecd1	-0.0066810627
199	0xbd2528b9	-0.04032204
200	0xbd2bb41a	-0.041919805
201	0x3d2bb450	0.041920006
202	0xbf5060bf	-0.8139762
203	0xbd2ba84d	-0.04190855
204	0x3d2bb41a	0.041919805
205	0xbbc8c1e8	-0.006126631
206	0xbd2bb2e5	-0.041918654
207	0x3bb468fe	0.00550568
208	0x3c15e6a5	0.009149228
209	0xbd2bb44f	-0.041920003
210	0x3d2bb41c	0.041919813
211	0xbbdae6cf	-0.0066803466
212	0x3b962efd	0.004583238
213	0xbbd8c420	-0.006615177
214	0xbd2bb41a	-0.041919805
215	0xbd2bb41a	-0.041919805
216	0xbd2bb41a	-0.041919805
217	0xbf4b86d3	-0.795026
218	0xbbbf15e5	-0.0058314675
219	0x3c07d66f	0.008290871
220	0xbbd339ee	-0.0064461147
221	0xbf8904bd	-1.0704571
222	0x3d2bb450	0.041920006
223	0x3c3f6453	0.011681634
224	0xbd2bb41a	-0.041919805
225	0x3d2bb44f	0.041920003
226	0x3c85ac4c	0.01631751
227	0xbf4bb978	-0.7957988
228	0x3d2bb41a	0.041919805
229	0xbd0ec0d0	-0.03485185
230	0xbf569101	-0.8381501
231	0xbd2bb450	-0.041920006
232	0xbc0959a3	-0.008383187
233	0x3c8ed701	0.017436506
234	0xbcd1739c	-0.025567822
235	0x3c86a28c	0.01643493
236	0xbbf8e50e	-0.007595665
237	0x3d2bb41a	0.041919805
238	0x3b9af928	0.004729409
239	0xbd2bb41a	-0.041919805
240	0x3d2bb44f	0.041920003
241	0xbd2bb41a	-0.041919805
242	0x3d2bb41a	0.041919805
243	0x3b875df6	0.004131074
244	0x3b937e8d	0.00450117
245	0x3cc2aadd	0.023763115
246	0xbc8ff543	-0.017573005
247	0xbc0e6c8f	-0.008692875
248	0x3d2ad9f5	0.041711766
249	0x3d2bb450	0.041920006
250	0xbf4bb981	-0.7957993
251	0xbc8e565f	-0.01737517
252	0x3d2bb41c	0.041919813
253	0x3be77eca	0.007064675
254	0x3bcb0a53	0.006196299
255	0x3d295c9c	0.041348085

bias f4 [8]
0	0xbfd3f3c9	-1.6558772
1	0xbf51f562	-0.8201505
2	0xbf4d347e	-0.8015822
3	0xbfd6d889	-1.6784831
4	0xbdb5816c	-0.08862576
5	0xbdc39a3c	-0.09550902
6	0xbc8fa910	-0.01753667
7	0xbd6e8bd8	-0.058238834

weight f4 [512, 13]
0	0xbf33adcd	-0.70187074
1	0xbf304dcf	-0.68868726
2	0xbf331fd8	-0.69970465
3	0xbf2fee14	-0.68722653
4	0xbf2f6e2c	-0.68527484
5	0xbe7ef865	-0.24899442
6	0x3cdaff5b	0.026733091
7	0x3e407524	0.18794686
8	0xbf1344d7	-0.57526916
9	0x3f3c3690	0.73520756
10	0x3f3fc075	0.7490304
11	0x3f5461b7	0.829616
12	0x3f549299	0.8303619
13	0x3d2bb41c	0.041919813
14	0x3d2bb41c	0.041919813
15	0xbd2bb41c	-0.041919813
16	0x3d2bb41c	0.041919813
17	0xbd2bb41a	-0.041919805
18	0x3d2b8097	0.04187068
19	0xbc9409de	-0.018071111
20	0x3c872ac2	0.01649988
21	0x3d29078f	0.041266974
22	0x3c87a2a3	0.016557043
23	0x3cfcac22	0.030843798
24	0x3ca21a33	0.019787883
25	0x3c8aa337	0.01692353
26	0x3d1328a6	0.035927437
27	0x3d143bb4	0.03618975
28	0x3d1346b8	0.035956115
29	0x3d191238	0.03737089
30	0x3d174663	0.03693236
31	0x3d2bb44f	0.041920003
32	0xbd2bb450	-0.041920006
33	0xbd2bb44f	-0.041920003
34	0x3a517be5	0.0007991179
35	0xbd2bb41a	-0.041919805
36	0x3d2bb450	0.041920006
37	0xbd2bb450	-0.041920006
38	0xbd2bb450	-0.041920006
39	0xbec06588	-0.37577462
40	0xbe5822e3	-0.21107058
41	0xbeb2daad	-0.3493246
42	0xbeb99e73	-0.362537
43	0xbea6082d	-0.32428113
44	0xbe8bff6b	-0.27343306
45	0xbf0c0f46	-0.54710805
46	0x3ec11497	0.3771102
47	0xbe83e6d1	-0.25762036
48	0x3f27dc07	0.6557011
49	0x3ef87905	0.4852983
50	0xbf365631	-0.7122527
51	0x3f0c7d1d	0.5487841
52	0x3c92b175	0.017906884
53	0x3da615db	0.08109637
54	0x3c021240	0.007938921
55	0x3d3e9829	0.04653183
56	0x3cd1dfa8	0.025619343
57	0x3f611b61	0.879324
58	0xbd2bb450	-0.041920006
59	0x3d2bb450	0.041920006
60	0x3a53fcde	0.00080866914
61	0x3d2bb450	0.041920006
62	0xbd2bb450	-0.041920006
63	0x3d2bb44f	0.041920003
64	0xbd2bb450	-0.041920006
65	0x3d8eb636	0.06968348
66	0x3efd4467	0.4946625
67	0xbe9ec934	-0.3101288
68	0xbf1882ef	-0.5957479
69	0xbf5959f4	-0.8490288
70	0xbf33617a	-0.7007061
71	0xbd2bb2e9	-0.04191867
72	0x3d2bafae	0.041915588
73	0x3f368541	0.7129708
74	0x3d1c707d	0.038193215
75	0xbd1847b8	-0.03717777
76	0xbd163728	-0.036673695
77	0x3d16e113	0.03683574
78	0xbd254ef1	-0.040358488
79	0xbd284321	-0.041079644
80	0xbd24951c	-0.040181264
81	0xbd25d836	-0.040489398
82	0x3d25f935	0.040520865
83	0x3d16cb7c	0.03681515
84	0xbcbd4b14	-0.02310709
85	0xbc85dbcd	-0.01634016
86	0xbd2bb41c	-0.041919813
87	0xbaa4c3a8	-0.0012570517
88	0xbcf390ed	-0.029732192
89	0xbd017f7e	-0.031615727
90	0xbd186a9f	-0.037211057
91	0xbe846b29	-0.25863007
92	0xbdddcf02	-0.10830499
93	0xbe77e811	-0.2420962
94	0xbe82725f	-0.25477883
95	0xbe5fcf90	-0.21856523
96	0xbe478404	-0.19483954
97	0x3ec407a1	0.3828707
98	0x3eb8a713	0.36064968
99	0xbe88f104	-0.2674638
100	0x3f106d0b	0.56416386
101	0xbf538a3e	-0.82632816
102	0xbf2760ed	-0.6538227
103	0xbf268eb9	-0.6506153
104	0x3d2bb41a	0.041919805
105	0x3d2bb41a	0.041919805
106	0x3d2bb41a	0.041919805
107	0x3d2bb41c	0.041919813
108	0x3d2bb41a	0.041919805
109	0x3d2b7642	0.041860826
110	0xbc8a8b9b	-0.016912272
111	0x3c7c731c	0.015408304
112	0x3d288655	0.041143734
113	0x3c7d5b0e	0.015463604
114	0x3cf296e3	0.029612964
115	0xbc98074e	-0.01855817
116	0xbc818926	-0.015812468
117	0xbfc1da7e	-1.5144804
118	0xbfa87168	-1.3159609
119	0xbf843932	-1.0329955
120	0xbf866321	-1.0499002
121	0xbfedf112	-1.8589194
122	0xbf1451f7	-0.5793757
123	0x3f023ef6	0.5087732
124	0x3edece1a	0.43516618
125	0x3fc058f4	1.5027146
126	0x3f2ff5a2	0.6873418
127	0x3ebe181a	0.37127763
128	0x3f594a0d	0.8487862
129	0x3f5ff659	0.8748527
130	0xbf28d616	-0.6595167
131	0xbf2a6e53	-0.6657459
132	0xbf288475	-0.65827113
133	0xbf2a74d4	-0.66584516
134	0xbf2a1603	-0.6643984
135	0xbf5093eb	-0.81475705
136	0x3c8b143c	0.016977422
137	0x3c7cb9d9	0.015425169
138	0x3d288d2a	0.04115025
139	0x3c285182	0.010273339
140	0xbc2a454e	-0.0103925
141	0xbc198c25	-0.009371792
142	0x3c10de96	0.008842131
143	0x3d295d71	0.04134888
144	0x3d2a69ae	0.04160469
145	0x3d296a08	0.041360885
146	0x3d294fab	0.041335743
147	0x3d299df9	0.04141042
148	0x3d246698	0.040136904
149	0x3d03ccc8	0.032177716
150	0x3ccebb78	0.025235876
151	0xbd2b0b64	-0.04175891
152	0x3ae84348	0.0017720247
153	0x3a8eaf41	0.001088597
154	0xbabaf1a2	-0.0014262686
155	0x3aa36938	0.0012467271
156	0xbd2bb13a	-0.041917063
157	0x3d2bb41a	0.041919805
158	0xbd2bb13a	-0.041917063
159	0xbd2bb13a	-0.041917063
160	0x3d2bb41a	0.041919805
161	0x3d2b7680	0.041861057
162	0xbc8ac14b	-0.016937872
163	0xbc7c64fc	-0.015404936
164	0xbd06cd7b	-0.032910805
165	0x3c7d4abc	0.015459713
166	0xbcf28c63	-0.029607957
167	0xbc97febf	-0.01855409
168	0xbc818027	-0.015808178
169	0x3d226226	0.039644383
170	0x3d2348c6	0.039864324
171	0xbd1ccf75	-0.038283784
172	0x3d20ac57	0.039226856
173	0xbd20de90	-0.039274752
174	0x3cf9b760	0.030482948
175	0x3c7d6045	0.015464847
176	0xbc2b0c34	-0.010439921
177	0xbd2bb41a	-0.041919805
178	0xbdde209c	-0.108460635
179	0xbe584cc1	-0.2112303
180	0xbe5bfcc7	-0.21483146
181	0xbe5e686f	-0.21719526
182	0xbcfa2208	-0.030533805
183	0x3cf976b0	0.030452102
184	0x3cf8a67e	0.030352827
185	0xbcfc503f	-0.030799983
186	0xbcfdafb3	-0.030967569
187	0xbea3e729	-0.320123
188	0xbc91dc57	-0.017805262
189	0xbc84d358	-0.016214058
190	0x3c4ead66	0.012614584
191	0x3c843f9e	0.016143616
192	0xbcfa3733	-0.0305439
193	0x3c9fd155	0.019508997
194	0x3c8891c2	0.016671065
195	0x3d6fefe0	0.058578372
196	0x3dfb840e	0.12281047
197	0x3d21fa0d	0.039545108
198	0x3da889b5	0.082293905
199	0x3d8e1cbe	0.06939076
200	0x3f5fb767	0.87389225
201	0xbd2bb450	-0.041920006
202	0xbd2bb44f	-0.041920003
203	0x3e05f4a7	0.13081609
204	0xbd2bb41c	-0.041919813
205	0x3d2bb41a	0.041919805
206	0x3d2bb41a	0.041919805
207	0xbd2bb41c	-0.041919813
208	0xbb3d5608	-0.002889039
209	0x3b419061	0.002953552
210	0xbb3e8330	-0.0029069893
211	0xbb59e6f5	-0.0033249233
212	0xbb4da020	-0.003137596
213	0x3d2b7644	0.041860834
214	0x3d2bb41a	0.041919805
215	0x3d2bb41c	0.041919813
216	0x388f2e45	6.82739e-05
217	0xbd2bb41a	-0.041919805
218	0x3d2bb41c	0.041919813
219	0x3d2bb41c	0.041919813
220	0xbd2bb41a	-0.041919805
221	0x3d208687	0.039190795
222	0xbd1e9fee	-0.03872674
223	0xbd20fe3f	-0.039304968
224	0x3d1eec9c	0.038799867
225	0xbd1fb498	-0.038990587
226	0xbeec164e	-0.46110767
227	0x3c8c3d0e	0.017118957
228	0x3c7f2c31	0.015574501
229	0xbd289c7a	-0.041164853
230	0xbc7fa20f	-0.015602603
231	0x3cf42e08	0.029807106
232	0x3c99924d	0.01874652
233	0xbc82affd	-0.015953058
234	0x3b597c9e	0.003318585
235	0x3b30e64e	0.002699274
236	0x3b616b1c	0.0034396118
237	0x3b72fb87	0.0037076192
238	0x3b474dec	0.0030411435
239	0xbb3ed77c	-0.0029120138
240	0x3c8d740e	0.017267253
241	0x3c80abc4	0.015706904
242	0x3fb37c76	1.4022357
243	0x3c816325	0.015794346
244	0x3cf5bcb5	0.02999721
245	0x3c9b174e	0.018932011
246	0x3c844a3e	0.016148683
247	0xbd1700ba	-0.036865927
248	0x3d1f2fa5	0.038863797
249	0x3d173ca7	0.036923077
250	0xbd167e06	-0.03674128
251	0xbd18c3cb	-0.037296098
252	0xbcfc7122	-0.030815665
253	0x3c7f5eb7	0.015586547
254	0x3c2cb88a	0.010542044
255	0x3aa70b60	0.0012744479

bias f4 [512]
0	0xbf76e30c	-0.96440196
1	0xbf84db0b	-1.0379347
2	0xbf90e4c5	-1.1319815
3	0xc0212d76	-2.5183997
4	0xbf1ba575	-0.6079934
5	0x40078e1e	2.1180491
6	0xc0164779	-2.3481123
7	0xc02a6f3a	-2.6630387
8	0xbe87905f	-0.26477334
9	0x4044e0c1	3.076218
10	0xbfd78282	-1.6836703
11	0xbf9e3e4a	-1.2362759
12	0xbf76de55	-0.96433
13	0xc026898f	-2.602146
14	0xbeb07997	-0.34467766
15	0xbf2b0951	-0.6681109
16	0xbfc661ee	-1.5498636
17	0xbf88855e	-1.06657
18	0xbdacb8dd	-0.084336974
19	0xbfb86ef1	-1.4408857
20	0xbfad4f09	-1.3539745
21	0xbe8935ae	-0.26798767
22	0xc002036c	-2.0314589
23	0xbf89f4a7	-1.0777787
24	0xbedaac75	-0.427097
25	0xbf6344c4	-0.88776803
26	0xbf574d58	-0.8410239
27	0xbfba3865	-1.454846
28	0xbf742e4f	-0.9538316
29	0xbfd57d33	-1.6678833
30	0xbf355dc4	-0.708462
31	0xbfe0e6f5	-1.7570482
32	0xbf84e421	-1.038212
33	0xbeb3f585	-0.35148254
34	0xbe5681d5	-0.20947964
35	0xbf876968	-1.0579042
36	0xc066180e	-3.5952182
37	0xbe6a44f5	-0.22877868
38	0xbe841ef3	-0.25804862
39	0xbf6ea30c	-0.9321754
40	0xbf6322d0	-0.88724995
41	0x3eb0a6f9	0.3450239
42	0xc0007d4b	-2.0076473
43	0xbe5632c7	-0.20917808
44	0xbf946acb	-1.1595091
45	0xbfdcffb0	-1.726553
46	0xbe828b9a	-0.25497133
47	0x3edfc55e	0.43705267
48	0xbe177051	-0.14788939
49	0xbf591e6d	-0.8481205
50	0xc04d30d2	-3.2061048
51	0xbff68ca0	-1.9261665
52	0xbfd86a87	-1.690751
53	0xbf76da03	-0.9642641
54	0xbf909a03	-1.1297001
55	0xbfb7c07c	-1.4355617
56	0xbf7e1e36	-0.9926485
57	0x3f3059c0	0.6888695
58	0xbfb798b5	-1.4343477
59	0xbe435b10	-0.19077706
60	0xbf6725eb	-0.90292233
61	0xbfab9f2a	-1.3407948
62	0xbfe31cf9	-1.7743217
63	0xbf7d5f2c	-0.98973346
64	0xbe749158	-0.23883569
65	0xbe0efb54	-0.13963062
66	0xbfc86d58	-1.5658369
67	0xbfe8dc21	-1.8192178
68	0x3fbffe0d	1.4999405
69	0xbfd4eec1	-1.6635362
70	0xbfe1a6ac	-1.7628989
71	0xc010d2ef	-2.2628744
72	0xbfabbcaf	-1.3416957
73	0xc02cdc7b	-2.700957
74	0xbf564153	-0.83693427
75	0xbfb100e5	-1.3828398
76	0xbf8236b4	-1.0172944
77	0xc003bafd	-2.0582879
78	0xbe80a19d	-0.251233
79	0xbeacde70	-0.33763456
80	0xbff5a408	-1.9190683
81	0xbf70574a	-0.9388319
82	0xbfbd920f	-1.4810199
83	0xbe1c4f9d	-0.15264745
84	0xbf672fdd	-0.9030741
85	0xc0314535	-2.769849
86	0xc02c3372	-2.69064
87	0x3fa3423e	1.275459
88	0xbfd1c276	-1.638747
89	0x3f10668f	0.5640649
90	0x40def404	6.967287
91	0xbeb436fd	-0.35198203
92	0xbe78399c	-0.24240726
93	0xc0199f9f	-2.4003675
94	0xbeb5076e	-0.3535723
95	0xbf827209	-1.0191051
96	0xc018d29a	-2.387854
97	0xbf540884	-0.82825494
98	0xbf4c2b94	-0.79753995
99	0xbfcdf910	-1.6091633
100	0x3f31383c	0.6922643
101	0xbfd27c2e	-1.6444147
102	0xbfc82a46	-1.5637901
103	0xbf956b69	-1.1673404
104	0xbeed87f2	-0.4639278
105	0xbf2b351a	-0.668779
106	0xbf8d0a8d	-1.1018845
107	0x3e409d15	0.18809922
108	0xc053bf10	-3.3085365
109	0x403b4ad7	2.9264429
110	0xbe80ef94	-0.25182784
111	0xbe8f3f96	-0.279782
112	0xbf869426	-1.0513961
113	0xc052bc4e	-3.2927432
114	0xbe00f222	-0.12592366
115	0xbf3e4323	-0.7432119
116	0xbf784d44	-0.969929
117	0xc015d60c	-2.3411894
118	0xbe08e176	-0.13367257
119	0xbe8bc22d	-0.27296582
120	0x3f904d48	1.1273584
121	0xbfc931ea	-1.5718358
122	0xbef31503	-0.47476968
123	0xbfb90444	-1.4454427
124	0xc0286a6f	-2.6314962
125	0xc0244934	-2.566968
126	0xbfdf325b	-1.7437242
127	0xbe82a037	-0.2551286
128	0xc01d9800	-2.4624023
129	0xbfe0336f	-1.7515696
130	0xbfc5d5bb	-1.545585
131	0x3ec370bc	0.38171947
132	0xbce4b0d3	-0.027916348
133	0xc02ed871	-2.7319605
134	0xbfc509fa	-1.539367
135	0xbfeca0e2	-1.8486598
136	0xbe642c85	-0.22282608
137	0xbf889287	-1.0669717
138	0xbeb9e9a6	-0.36311072
139	0xbf57ea86	-0.8434223
140	0xbf79cd93	-0.97579306
141	0xbf73750a	-0.9510046
142	0xbf1688fa	-0.5880276
143	0xbf90c254	-1.1309304
144	0x40f2f7cf	7.59275
145	0xbfa2b539	-1.2711555
146	0xbfa6626a	-1.2998784
147	0x3f28fed6	0.6601385
148	0xbf1f5011	-0.62231547
149	0xbfd872b5	-1.6910006
150	0xbf7829d8	-0.9693885
151	0x3f734a46	0.9503521
152	0x3ebc5bdb	0.3678883
153	0xbf78d56b	-0.9720065
154	0xbf74c914	-0.9561932
155	0xc014476d	-2.3168595
156	0xbf889d65	-1.0673033
157	0xbe13fa54	-0.14450961
158	0xc01c4c25	-2.4421475
159	0xbee12433	-0.4397293
160	0xbe7d9cf8	-0.2476691
161	0x403a2dc1	2.9090426
162	0x401f0d3f	2.4851835
163	0xbf881b5a	-1.0633347
164	0xbf86a002	-1.051758
165	0xbfd0ce07	-1.6312875
166	0xbf7e8f22	-0.99437153
167	0xc023d419	-2.5598204
168	0xbfaa6e2d	-1.3314873
169	0xbe6e310c	-0.23260897
170	0xbecbbb36	-0.39791268
171	0x40351643	2.8294837
172	0xbfa68b90	-1.3011341
173	0x404d19ee	3.2047076
174	0xbf777c76	-0.9667429
175	0xbfaaf670	-1.3356457
176	0xbfee5312	-1.8619101
177	0xbfa2330b	-1.2671827
178	0xbeac3470	-0.33633757
179	0xbf181265	-0.5940307
180	0xbd3440db	-0.044007163
181	0xc02c77de	-2.694816
182	0xbeeca44b	-0.46219096
183	0xbea04fdf	-0.31310937
184	0xc05ac895	-3.4184926
185	0xbfa109ac	-1.2581077
186	0xbfe490ea	-1.7856724
187	0xbf9e2986	-1.2356422
188	0xbf859fdc	-1.043941
189	0xbf85cf9b	-1.0453981
190	0x3f5cbc52	0.86224854
191	0xbf5d6174	-0.86476827
192	0x400bfa36	2.1871467
193	0xbf81cfc9	-1.0141536
194	0xbf4d8bab	-0.8029124
195	0x3f1c6dc9	0.6110502
196	0xbe50ee9e	-0.20403525
197	0xbf5c56e7	-0.860701
198	0xc011353b	-2.268874
199	0xbfeb9e06	-1.84076
200	0xbedb7b84	-0.42867672
201	0x40429992	3.0406232
202	0xbff3a367	-1.9034241
203	0xbff3a73c	-1.9035411
204	0xbfd156c8	-1.6354609
205	0xbf95d47e	-1.1705472
206	0xbfc37f28	-1.527318
207	0x3ff3c293	1.9043754
208	0xc00bcf57	-2.18453
209	0xbfc206af	-1.515829
210	0xbfbdd6a1	-1.4831125
211	0xbf7b2672	-0.9810554
212	0x40e3ce04	7.1188984
213	0xbecfc91d	-0.40583125
214	0x3e9afa90	0.3026929
215	0xbf1243d8	-0.5713477
216	0xbfd7f078	-1.687026
217	0xbf625429	-0.8840967
218	0xbf66d44f	-0.9016771
219	0xbffcbe4e	-1.9745576
220	0xbfe02715	-1.7511927
221	0xbf874d43	-1.0570453
222	0xbfaee53c	-1.3663707
223	0x3f35f913	0.7108318
224	0x40f000de	7.500106
225	0xbff023c7	-1.8760918
226	0xc0011a52	-2.0172315
227	0xbf9b8d35	-1.2152468
228	0xbfc46bb2	-1.5345366
229	0xbe77947b	-0.24177735
230	0xbf420638	-0.7579074
231	0xbf6921fe	-0.9106749
232	0xc023682d	-2.5532334
233	0xbfb68c10	-1.4261494
234	0xbed2eddb	-0.41197094
235	0xbf7929dc	-0.973295
236	0xbe422973	-0.18961124
237	0xc0356301	-2.8341677
238	0xbf87fed9	-1.0624648
239	0xbf7aa52a	-0.9790827
240	0xbfc7ba16	-1.5603664
241	0xbfef4381	-1.8692476
242	0xbf5bca64	-0.858557
243	0xbf884436	-1.0645816
244	0xbf775edf	-0.96629137
245	0xbff87c6b	-1.9412969
246	0xbf3c3b96	-0.7352842
247	0xbed2d980	-0.41181564
248	0xbff2a742	-1.8957293
249	0xbdfbdee7	-0.122983746
250	0xbe9846c5	-0.29741493
251	0x3e999a0a	0.30000335
252	0xc0159b16	-2.3375907
253	0xc0150ea2	-2.329018
254	0xc013fd14	-2.3123217
255	0xbd8d5d2c	-0.06902537

weight f4 [1, 512]
0	0x3d15202a	0.036407627
1	0xbbcddf46	-0.00628272
2	0x3aceadef	0.0015768389
3	0xbe28e82e	-0.1649482
4	0x3f93b96f	1.1540965
5	0xbe112303	-0.14173512
6	0xbed6ca13	-0.41951045
7	0xbe7b6111	-0.24548747
8	0xbbb0a2ff	-0.0053905244
9	0x3f76cd3f	0.9640693
10	0x372fd947	1.0481402e-05
11	0xbf4a295e	-0.7896937
12	0x3b5d2c8a	0.0033748471
13	0x3ae440e6	0.0017414361
14	0x3f52ea2a	0.82388556
15	0x3fc3399a	1.5251954
16	0x3c8373ff	0.016046522
17	0x3f527f50	0.82225513
18	0x3f96c98a	1.1780255
19	0xbf3297b0	-0.69762707
20	0x3f4badeb	0.7956225
21	0xbc8e77cf	-0.017391114
22	0xbf179fd9	-0.59228283
23	0x3db78395	0.08960644
24	0xbc24ab6a	-0.010050634
25	0x3efe3507	0.49649832
26	0xbf4bbcbf	-0.7958488
27	0xbbecaf59	-0.0072230515
28	0x3f52d2bf	0.82352823
29	0xbeaa87c4	-0.33306706
30	0x3f192d61	0.5983487
31	0x3c8857a0	0.016643345
32	0x3f52d4c8	0.8235593
33	0xbb47771f	-0.0030435992
34	0xbc482198	-0.012215041
35	0x3fadcf84	1.3578954
36	0x3d5520dc	0.05203329
37	0x3d2b4594	0.0418144
38	0xbb8358b6	-0.004008378
39	0xbd868ddf	-0.065700285
40	0xbf4b5101	-0.7942048
41	0xbd987078	-0.07443327
42	0xbf486151	-0.78273493
43	0x3a9750c4	0.0011544456
44	0x3ddee4bf	0.108834736
45	0xbdda52d4	-0.106603295
46	0x3a909bba	0.0011032738
47	0xbd79f9b0	-0.061029136
48	0xbc746266	-0.014916038
49	0x3f412d35	0.75459605
50	0x3e6d9acd	0.23203583
51	0x3d70a609	0.058752093
52	0xbe606c3b	-0.21916287
53	0x3f52bacb	0.82316273
54	0x3f143f06	0.57908666
55	0x3f219ecc	0.6313293
56	0x3f52b285	0.8230365
57	0xbd9b656e	-0.075877056
58	0x3f438631	0.76376635
59	0x3bf6c902	0.007531286
60	0xbb43c89d	-0.0029874214
61	0x3d790630	0.060796916
62	0x3c1e9dd9	0.0096811885
63	0xbf527c00	-0.8222046
64	0xbf492640	-0.7857399
65	0xbd15e8c5	-0.03659894
66	0x3c02c764	0.007982109
67	0x3d0e34f5	0.034718473
68	0x3f571135	0.8401063
69	0x3f3ece8a	0.74533904
70	0x3ed8f990	0.423779
71	0xbd3035f0	-0.04302019
72	0xbebafdfd	-0.36521903
73	0x3f4fce99	0.8117462
74	0x3f12e3ef	0.5737905
75	0x3f03be1b	0.5146195
76	0xbce9eb19	-0.028554486
77	0x3d589558	0.0528768
78	0x3fa6b57f	1.3024138
79	0x3f9d3fc0	1.228508
80	0x3d5553f3	0.052082013
81	0x3e87c959	0.26520804
82	0xbd2bb41d	-0.041919816
83	0xbd2bb3f1	-0.041919652
84	0x3f9dee61	1.2338372
85	0x3f3ceebc	0.7380178
86	0xbe0a0ee3	-0.13482241
87	0x3f4e55c2	0.80599606
88	0x3f2de2cb	0.67924184
89	0x3f9a434c	1.2051787
90	0xc0688137	-3.6328866
91	0xbb5888d7	-0.0033040547
92	0x3f3e6ead	0.7438763
93	0xbf3a6dd3	-0.7282383
94	0x3f3e2b5f	0.7428493
95	0xbf43903d	-0.76391965
96	0x3f36d080	0.71411896
97	0xbf474359	-0.7783714
98	0xbf16c4d3	-0.5889408
99	0x3d2bb38c	0.041919276
100	0xbe4eddb6	-0.20201764
101	0x3dbaf71a	0.09129162
102	0x3f3e2cf2	0.7428733
103	0x3fad825d	1.3555409
104	0x3b494ace	0.0030714753
105	0xba15b947	-0.00057115074
106	0x3f408ec9	0.7521787
107	0xbcb305cf	-0.021853356
108	0x3f52b5ac	0.8230846
109	0x3f79a01a	0.9750992
110	0x3b6ae687	0.0035842971
111	0x3c071043	0.008243623
112	0xbd43925e	-0.04774701
113	0x3f3a3b35	0.7274659
114	0xbb72dec4	-0.0037059048
115	0x3fb451bc	1.4087443
116	0x3f52b75e	0.82311046
117	0x3de1154f	0.109903924
118	0x3f4fd814	0.81189084
119	0x3c51bb14	0.012800951
120	0xbe8d9c67	-0.27658388
121	0x3d3f6796	0.046729647
122	0xbd3326a2	-0.043738015
123	0xbe9381cd	-0.28809968
124	0x3f4e6671	0.80625063
125	0x3f4f9c5f	0.8109798
126	0x3f3808da	0.71888506
127	0xbc6de428	-0.014519729
128	0xbeff81da	-0.49903756
129	0x3f51d308	0.81962633
130	0x3f3f9556	0.74837244
131	0xbdbf3d7e	-0.093379006
132	0xbe4b5488	-0.19856465
133	0xbdf04787	-0.11732393
134	0xbf2699fc	-0.6507871
135	0xbb560a4c	-0.0032659946
136	0x3b564457	0.0032694542
137	0x3c113340	0.008862317
138	0x3d2bb419	0.0419198
139	0xbf30bebf	-0.69041055
140	0xbf0b4729	-0.54405457
141	0xbd1a6961	-0.037698153
142	0xbf47fa1b	-0.78116006
143	0x3f5379c6	0.82607687
144	0xc06d0e30	-3.703991
145	0x3d9aefc3	0.07565262
146	0xbb19479f	-0.0023388637
147	0x3f7bb368	0.9832063
148	0xbffcd9a0	-1.9753914
149	0x3d8133e0	0.063087225
150	0xbc34a7d0	-0.011026338
151	0x3f04e864	0.519171
152	0x3f6525a8	0.89510584
153	0x3c181c65	0.0092841135
154	0x3f34f180	0.70681
155	0x3f3da364	0.7407744
156	0x3ac26a35	0.0014832678
157	0x3ba35914	0.004984984
158	0x3c310f79	0.010806912
159	0xbed10b42	-0.40828902
160	0xbd2bb32f	-0.04191893
161	0x3f740bc9	0.9533048
162	0x3fb3514e	1.4009187
163	0xbf3786cf	-0.71690077
164	0xbf3af8de	-0.7303599
165	0xba02000b	-0.0004959113
166	0xbf15f443	-0.5857584
167	0x3f5077dd	0.81432897
168	0x3fa3f6df	1.2809714
169	0x3f3e8834	0.7442658
170	0x3f40e183	0.75344104
171	0x3f70599f	0.9388675
172	0x3fc3f278	1.530837
173	0xbf58e045	-0.8471721
174	0xbf440dc2	-0.7658349
175	0x3f512240	0.81692886
176	0x3c43ab83	0.011942747
177	0xbc94e6b7	-0.01817642
178	0x3f3c6254	0.73587537
179	0xbb4a8bd0	-0.0030906089
180	0x3faab337	1.3335942
181	0xbe2bb5f4	-0.16768628
182	0x3f3f80eb	0.7480609
183	0xbf2c70c3	-0.6735956
184	0xbda1d5ca	-0.07902105
185	0xbaa9c37c	-0.0012951936
186	0x3c4c688a	0.012476096
187	0x3dbe75e4	0.092998296
188	0x3f4288fc	0.7599027
189	0x3f3f2a07	0.74673504
190	0xbe42f4ef	-0.19038747
191	0xbd017a6d	-0.031610895
192	0x3f6fe2f9	0.9370571
193	0x3f3f4f02	0.7472993
194	0x3f3ded5c	0.74190307
195	0x3e30f90c	0.17282504
196	0xbc749024	-0.014926944
197	0x3fb3eef7	1.4057301
198	0x3f50dbc8	0.8158536
199	0xbf40e9ea	-0.75356925
200	0x3f3f3dc7	0.7470364
201	0xbf612a34	-0.8795502
202	0xbd22c6e4	-0.039740458
203	0xbd00a4e3	-0.03140725
204	0xbe363d58	-0.17796838
205	0x3f46cfb0	0.77660656
206	0xbf2ca074	-0.6743233
207	0x3f626f68	0.8845124
208	0xbbc8f4fe	-0.006132721
209	0x3f540cee	0.8283223
210	0xbaf56744	-0.0018722792
211	0x3f52db7c	0.82366157
212	0xbfc1d344	-1.5142598
213	0x3f506c1f	0.8141498
214	0xbd9dc1b0	-0.077029586
215	0x3f04a79e	0.51818264
216	0xbf4101d8	-0.7539344
217	0xbf500d58	-0.8127036
218	0xbf4e84cd	-0.8067139
219	0x3d125925	0.035729546
220	0xbcc5a06d	-0.024124349
221	0x3ee1ab12	0.4407583
222	0xbf2acd5b	-0.667196
223	0x4002eb13	2.0455978
224	0xc01051d7	-2.254995
225	0x3ca77cf6	0.020445328
226	0xbc641ed0	-0.013923362
227	0xbdf66275	-0.12030498
228	0xbe871e96	-0.26390523
229	0x3d2bb418	0.041919798
230	0x38889fb6	6.514734e-05
231	0x3f1acf0c	0.6047218
232	0x3d584ca0	0.05280745
233	0xbe1a739b	-0.15083162
234	0x3f5567da	0.8336159
235	0x3f290be9	0.660338
236	0x3b77b65a	0.00377979
237	0x3b5c3631	0.0033601637
238	0xbc74b4d4	-0.014935691
239	0x3f1047be	0.5635947
240	0xbd2bb3bf	-0.041919466
241	0xbc3a505d	-0.011371699
242	0xbf51d1f9	-0.8196102
243	0x3f52b753	0.8231098
244	0x3fb9ca5f	1.4514884
245	0x3c8b210c	0.016983531
246	0xbd2ae8f3	-0.041726064
247	0xbb6dda35	-0.0036293392
248	0x3d2bb41d	0.041919816
249	0x3f9c9f5c	1.2236133
250	0xbf3fc29e	-0.7490634
251	0xbd908a72	-0.07057656
252	0x3f48abde	0.7838725
253	0xbbf3fae4	-0.00744568
254	0x3d57d694	0.052694872
255	0xbe85076b	-0.25982222
