data/sslp/nn_e_l15_c45_nsp10000_nse5000_sd7.pt (torch, 173327 bytes, 7 tensors)

weight f4 [256, 45]
000000 bd e5 3c 3d 46 a4 9f bc c8 d0 94 3a 08 75 ed 3b
       0.046117533 -0.019487511 0.0011353726 0.007246617
000010 d8 52 78 3c 0c 38 53 3c 8e c3 33 bc 15 f4 bf bb
       0.01515647 0.012891781 -0.010971917 -0.0058579543
000020 2e 8e 91 bb b7 c4 0c 3c 26 53 78 bc 61 0a 75 3b
       -0.004441998 0.008591822 -0.015156543 0.003739022
000030 21 b3 1b 3c 9e 8a 9a bc 58 fe 29 bd 53 c5 33 3c
       0.009503157 -0.018864926 -0.041502327 0.010972339
000040 43 0b 81 3c 19 88 9a 3c 43 75 4e bc 3d 8a 4e 3c
       0.01575244 0.018863725 -0.0126012 0.012606201
000050 16 6d 8c 3c 57 ab cb bc 47 6a bb bb 37 87 4e bc
       0.01714186 -0.024861975 -0.0057194564 -0.01260548
000060 c4 29 f1 3b 2a 0d 81 bc a5 d3 94 3a f0 0c df 3b
       0.007359715 -0.015753347 0.0011354579 0.006806962
000070 8a fc 29 3d 5b 72 4d bc 8c 30 f1 3b 6f c6 33 bc
       0.041500606 -0.0125394715 0.0073605236 -0.010972603
000080 69 82 29 bc aa ec 23 bc de f2 bf bb 25 4d 5e 3c
       -0.010346034 -0.010005156 -0.0058578094 0.013568197
000090 89 24 c2 bc ac d9 7a bc cb 47 d4 3b 61 85 9a 3c
       -0.023699062 -0.015310686 0.006478285 0.018862428
0000a0 de 4a d4 bb 72 a9 cd 3b 3a ab cd 3b fc f7 8f 3c
       -0.0064786514 0.006276303 0.0062765153 0.017574303
0000b0 c0 82 4f ba d8 4f 6b bb d7 d1 d9 ba 75 c1 1b bc
       -0.00079159066 -0.0035905745 -0.0016618323 -0.009506573
0000c0 c5 05 c0 3b f4 86 4d 3c f5 87 4d 3c 36 db 1b 3b
       0.005860063 0.012544382 0.012544622 0.0023781783
0000d0 11 4e 53 3c bd 5b d4 3b 4a 2e 0f bb 50 96 4e 3c
       0.01289703 0.0064806626 -0.0021847659 0.0126090795
0000e0 e6 ed 0f bc 14 3b e3 3c 0f 4c 67 bc ab 02 c0 bb
       -0.008784747 0.027738132 -0.014117255 -0.005859693
0000f0 d2 14 a0 3c 63 16 2a bc 8c 36 0d 3a e7 e5 67 39
       0.019541178 -0.010381314 0.0005386851 0.00022115522
000100 d8 87 4d bc aa 42 f1 3b 9f bf c4 bc 6d 93 9a bc
       -0.012544595 0.0073626833 -0.024017153 -0.018869126
000110 b9 99 91 bb 5a 57 d4 3b 32 3f f1 3b c5 cf 0c bc
       -0.004443374 0.0064801397 0.00736227 -0.008594458
000120 51 9a 91 bb 7d d7 10 3b 65 94 9a 3c 96 4c 53 bc
       -0.004443445 0.0022101097 0.018869588 -0.0128966775
000130 91 9d 4e ba 1a d8 94 3a de 89 4f 3a ff 33 03 3d
       -0.00078817556 0.0011355907 0.0007916967 0.03203201
000140 d7 78 bb bb 4b 2e 0f bb 5e ba 9c bb 54 86 4d bc
       -0.0057211923 -0.002184766 -0.004782959 -0.012544233
000150 d8 ce 0c bc 29 87 ed bb 4c 42 f1 bb 4c cc f7 bc
       -0.008594237 -0.0072487784 -0.0073626395 -0.030248784
000160 43 e4 d7 bb 26 31 c2 3c e3 54 f1 bb 82 cc 1b 3c
       -0.00658849 0.023705076 -0.0073648556 0.009509208
000170 b1 d0 ab 3c b9 0f c0 3b a8 cb cd 3b 73 a0 9a 3c
       0.020973535 0.0058612493 0.006280381 0.018875336
000180 7c dc 0c 3c 09 69 d4 bb 8c 4b e3 3c 7f 18 ce bb
       0.008597489 -0.0064822477 0.027745984 -0.0062895413
000190 5a 97 4d 3c 09 69 d4 bb 1b cd c4 bc ff 69 d4 bb
       0.012548292 -0.0064822477 -0.024023583 -0.0064823623
0001a0 b1 d0 ab bc 5a 97 4d 3c 6c 91 c4 bc 09 69 d4 bb
       -0.020973535 0.012548292 -0.023995124 -0.0064822477
0001b0 ff 69 d4 3b 5a 97 4d 3c 42 ef 94 3a d6 3b 26 3d
       0.0064823623 0.012548292 0.0011362808 0.040584408
0001c0 d0 95 d5 3b f1 8e 08 3b c5 a8 4e 3c 31 d1 ab bc
       0.006518103 0.0020837153 0.01261348 -0.020973774
0001d0 03 b3 4f 3a 19 89 bb bb 01 dc 0c bc d6 97 4d bc
       0.0007923098 -0.0057231304 -0.008597375 -0.012548408
0001e0 3a f5 d7 bb 95 4b e3 3c 39 06 24 3c e9 d0 ab bc
       -0.0065905126 0.027746001 0.010011249 -0.02097364
0001f0 32 e3 33 bc 7c 53 f1 bb d5 97 4d 3c d5 97 4d 3c
       -0.010979461 -0.0073646884 0.012548407 0.012548407
000200 58 e4 33 bc 52 96 34 bc 74 cc 1b bc e2 55 f1 3b
       -0.010979734 -0.011022167 -0.009509195 0.0073649744
000210 5a 26 2a 3c 09 69 d4 bb 32 e3 33 3c 6a c9 28 3c
       0.01038512 -0.0064822477 0.010979461 0.010301927
000220 1d e7 1b 3b 18 d5 03 3c 56 a0 9a 3c a5 57 6b bb
       0.0023788877 0.008046411 0.018875282 -0.0035910395
000230 16 dd 0c bc ba 64 d4 3b e3 54 f1 3b 9a 3d 03 bd
       -0.008597633 0.006481734 0.0073648556 -0.03204117
000240 ce c5 c4 3c 79 25 2a 3c a5 6b d4 3b d8 53 f1 bb
       0.024020102 0.010384911 0.006482559 -0.0073647313
000250 6a 10 c0 3b 0d a6 4e bc 29 e0 f7 3c a6 3a 26 bd
       0.0058613317 -0.012612832 0.030258255 -0.040583275
000260 d3 26 67 3c c7 fa de bb 1c 2d ae 3b b6 94 4d 3c
       0.0141083775 -0.0068047973 0.005315436 0.0125476625
000270 9c 84 8c bc 7b cf ab 3c 0c 11 c0 3b 1f cd c4 3c
       -0.017153077 0.020972958 0.005861407 0.02402359
000280 0b 3e c2 3c 24 df f7 bc 73 e3 33 bc 04 27 67 bc
       0.023711225 -0.030257769 -0.010979521 -0.014108423
000290 e0 c2 39 3c 20 3e c2 bc 31 cc cd 3b 5d 78 be bc
       0.011337966 -0.023711264 0.006280445 -0.023250753
0002a0 1f df f7 bc d9 6a d4 3b 5f 39 20 3a 0e ac b1 bb
       -0.03025776 0.006482464 0.00061120646 -0.005422122
0002b0 e2 d9 0c 3c d8 3a 26 bd 26 a9 4e bc 53 d8 10 3b
       0.008596869 -0.04058346 -0.01261357 0.0022101596
0002c0 5f 94 88 bc 59 20 81 bc 8a 02 3d bd b5 26 2a bc
       -0.016672311 -0.015762495 -0.046145 -0.010385205
0002d0 2d 6b 78 bc e0 9b 91 3b e5 d8 33 bc 70 8f 4d 3c
       -0.015162271 0.0044436306 -0.010977005 0.012546405
0002e0 3f f5 7a 3c 48 d5 0c bc 9e 37 0f bb e4 5e d4 3b
       0.01531726 -0.008595772 -0.0021853219 0.0064810384
0002f0 25 4b f1 3b 71 0c c0 3b f7 f0 0f 3c 55 17 c0 bc
       0.0073636943 0.005860858 0.008785478 -0.023448626
000300 2d d6 0c bc a2 ad 31 3c 9b 9c 4e bc 6d 23 41 3b
       -0.008595985 0.01084462 -0.01261058 0.0029470578
000310 e5 e0 1b bb dc d4 0c 3c b0 60 d4 bb 44 6c 78 3c
       -0.002378517 0.0085956715 -0.0064812526 0.015162531
000320 ac 06 90 bc 3f 99 9a bc 4e 36 0f bb c9 d5 0c bc
       -0.017581306 -0.018871902 -0.0021852436 -0.008595892
000330 c9 d5 0c bc 96 97 9a 3c 29 8e 4d bc c6 9f 4e 3c
       -0.008595892 0.01887111 -0.012546101 0.012611335
000340 de d5 0c 3c 01 8e 4d bc f5 37 0f 3b f8 8d 4d bc
       0.008595912 -0.012546063 0.0021853421 -0.012546055
000350 e3 7d 8c bc b6 7d 8c 3c 00 98 9a 3c 83 74 46 bc
       -0.017149871 0.017149787 0.018871307 -0.0121127395
000360 ff 5f d4 bb af 37 03 3d 4c 8e 88 3c 28 5e d4 3b
       -0.00648117 0.032035526 0.016669415 0.006480951
000370 f6 6a 78 bc 9b 06 90 bc 1f 60 d4 3b c8 9d 4e 3c
       -0.01516222 -0.017581275 0.006481185 0.01261086
000380 3d d9 33 bc e9 38 b4 3b a0 d1 29 3c f9 72 2f ba
       -0.010977087 0.0054999483 0.01036492 -0.00066928525
000390 94 75 44 39 4e 01 2e bc f9 2a ae 3c 1c 4b b6 bb
       0.00018735818 -0.010620428 0.021260725 -0.005563153
0003a0 a4 31 a3 3b 94 d4 31 3c 40 cd 28 bc 6b 1f cd bb
       0.004980283 0.010853905 -0.010302842 -0.006259849
0003b0 b6 d2 84 3b 68 ec f0 b9 30 62 84 bc 6c 78 2f bc
       0.004053439 -0.00045952504 -0.0161601 -0.010709863
0003c0 6c e4 b4 bb 59 5b 2f bc 61 16 83 3c 23 ff 91 bc
       -0.005520394 -0.010702931 0.016001882 -0.017821854
0003d0 15 d2 ef bb 5a b1 f3 3a ed ba 07 ba dc 68 48 bb
       -0.007318745 0.0018592284 -0.00051776954 -0.003058008
0003e0 2d 0e ee 3b 69 b8 ce 3b c3 44 f0 3b bf 7d f2 bb
       0.0072648735 0.0063086045 0.007332416 -0.007400244
0003f0 4d 37 97 3b c8 71 2f 3c 53 af 25 3b 34 ec 28 3c
       0.0046147467 0.01070828 0.0025281503 0.010310221

weight f4 [64, 256]
000000 1d 06 cf bb 3d 18 2a 3d fd d0 ab 3c dc ab b1 3b
       -0.0063178674 0.04152702 0.020973677 0.0054220986
000010 7e 36 0f bb 6c 91 c4 3c 01 dc 0c 3c d1 db 10 3b
       -0.0021852548 0.023995124 0.008597375 0.0022103677
000020 4d bd 9f 3c ff 69 d4 bb 09 69 d4 3b 81 a8 4e 3c
       0.019499445 -0.0064823623 0.0064822477 0.012613417
000030 69 23 41 bb d0 27 67 3c 32 95 49 39 0d 33 19 b9
       -0.002947057 0.014108613 0.00019224433 -0.00014610235
000040 5a 97 4d 3c d5 97 4d 3c 09 69 d4 3b 1c 20 3f bc
       0.012548292 0.012548407 0.0064822477 -0.01166537
000050 d5 97 4d 3c 9c bf c7 39 6a 77 78 bc 9b 3f 03 3d
       0.012548407 0.00038098998 -0.015165189 0.03204308
000060 c2 18 2a bd 0e a8 4e 3c d5 97 4d bc 7c dc 0c bc
       -0.041527517 0.01261331 -0.012548407 -0.008597489
000070 7c dc 0c 3c bc cd cd 3b 3a a0 9a 3c 65 7c 46 bc
       0.008597489 0.006280629 0.01887523 -0.012114619
000080 4f a0 9a 3c 0f a7 91 3b 90 2a 0d ba 60 97 15 ba
       0.01887527 0.0044449638 -0.00053850655 -0.00057064556
000090 ff 69 d4 bb c2 d0 ab bc fb cc cb bc 70 3f c2 3c
       -0.0064823623 -0.020973567 -0.024878016 0.02371189
0000a0 5a 97 4d bc 01 dc 0c bc 6f 31 ae 3a 0a 94 3a bc
       -0.012548292 -0.008597375 0.0013289879 -0.011387834
0000b0 36 55 f1 3b b8 d0 ab 3c ad 0e 90 3c 88 27 67 3c
       0.0073648943 0.020973548 0.017585123 0.014108546
0000c0 de db 10 bb d6 f7 fa bb fa cc cb 3c 09 69 d4 bb
       -0.0022103707 -0.007658939 0.024878014 -0.0064822477
0000d0 b7 d0 ab 3c d5 97 4d 3c 01 dc 0c 3c 4d 55 f1 3b
       0.020973546 0.012548407 0.008597375 0.007364905
0000e0 b6 d0 ab bc 46 3f 03 3d 17 c4 9c 3b f9 cc cb 3c
       -0.020973545 0.032042764 0.004784118 0.024878012
0000f0 2e aa 4f 3a d5 97 4d bc 41 18 2a 3d 8a b9 90 ba
       0.0007921782 -0.012548407 0.041527037 -0.0011041623
000100 98 54 f1 bb 6c d6 d9 3a eb 53 f1 bb ea 32 02 c0
       -0.0073648207 0.0016619689 -0.00736474 -2.0343575
000110 01 dc 0c bc 7c dc 0c 3c 09 69 d4 bb 01 dc 0c 3c
       -0.008597375 0.008597489 -0.0064822477 0.008597375
000120 01 dc 0c 3c fe 50 20 3a 8b 2a 0b c0 f5 0c 90 3c
       0.008597375 0.00061155844 -2.1744716 0.017584303
000130 35 06 24 3c 47 ea 1b 3b 7c ff 85 37 5e a8 4e 3c
       0.0100112455 0.0023790763 1.5973805e-05 0.012613384
000140 d5 97 4d bc 5a 97 4d bc 84 2f 96 39 49 c3 d5 bb
       -0.012548407 -0.012548292 0.0002864563 -0.006523524
000150 e9 2b 18 39 f2 d0 ab 3c 64 77 78 bc ed de f7 3c
       0.00014512207 0.020973656 -0.015165184 0.030257666
000160 43 32 8e 39 87 d0 ab 3c c7 de 0c 3c 0f ca 9c bb
       0.00027121798 0.020973457 0.008598036 -0.0047848294
000170 f8 d0 ab 3c 2c a9 4e bc 87 d0 ab 3c 21 7c 46 3c
       0.020973668 -0.012613576 0.020973457 0.012114556
000180 df 3b 26 3d 9d 7e eb bb b5 3d 03 3d 5f 25 3a b8
       0.04058444 -0.0071867243 0.03204127 -4.438066e-05
000190 9d 1b ce bb ee d0 ab 3c 70 a0 9a 3c 14 cc cd 3b
       -0.006289913 0.020973649 0.01887533 0.0062804315
0001a0 9c 26 2a 3c 5a 97 4d 3c 70 3b 06 38 d5 97 4d bc
       0.010385182 0.012548292 3.2003445e-05 -0.012548407
0001b0 d8 e3 33 3c 77 a8 4e bc 4e e3 33 3c 09 69 d4 3b
       0.010979615 -0.012613407 0.010979487 0.0064822477
0001c0 87 1b e0 bb f5 c9 9c bb fa cc cb 3c 77 1b e0 bb
       -0.006839219 -0.0047848173 0.024878014 -0.0068392116
0001d0 f2 5f 53 bc e1 81 b8 3b c7 66 4c b9 34 18 2a 3d
       -0.012901293 0.005630717 -0.00019493244 0.04152699
0001e0 09 69 d4 3b ff 69 d4 3b 5a 97 4d bc 01 dc 0c bc
       0.0064822477 0.0064823623 -0.012548292 -0.008597375
0001f0 7c dc 0c 3c 7c dc 0c 3c a4 30 88 b9 70 d0 ab bc
       0.008597489 0.008597489 -0.00025976181 -0.020973414
000200 c7 e1 fa b9 b5 2d ae 3b ff 69 d4 3b 7c f6 d7 3b
       -0.00047851933 0.0053155073 0.0064823623 0.0065906625
000210 ff a8 4f 3a 10 27 2a bc 54 21 81 bc 07 a0 9a 3c
       0.0007921606 -0.01038529 -0.015762962 0.018875135
000220 09 69 d4 bb 76 f1 94 ba e9 d0 ab bc 2e d1 ab 3c
       -0.0064822477 -0.0011363465 -0.02097364 0.020973768
000230 70 3f c2 bc 11 21 41 bb 2f 56 f1 bb a1 88 bb bb
       -0.02371189 -0.0029469172 -0.00736501 -0.0057230745
000240 a6 e3 33 bc 09 69 d4 3b 37 6f 5e bc 49 96 11 c0
       -0.010979569 0.0064822477 -0.01357632 -2.2747977
000250 c6 33 0f 3b ff 69 d4 bb 80 26 2a bc a0 e3 33 bc
       0.0021850928 -0.0064823623 -0.010385156 -0.010979563
000260 7c dc 0c bc 08 81 eb bb 7a 27 2a 3c 36 62 42 ba
       -0.008597489 -0.0071870126 0.0103853885 -0.0007415147
000270 be e3 33 3c 74 cc c4 bc c9 93 4e bc 38 52 29 c0
       0.010979591 -0.024023272 -0.012608477 -2.6456432
000280 6f 31 ae 3a 7c dc 0c 3c 4c 79 b5 b8 2f 33 99 39
       0.0013289879 0.008597489 -8.653346e-05 0.0002922057
000290 d5 97 4d 3c b8 cd cd bb ff 69 d4 3b cb 7b 46 bc
       0.012548407 -0.006280627 0.0064823623 -0.0121144755
0002a0 45 a8 4e 3c ff 69 d4 bb 7c dc 0c bc 49 a8 4e bc
       0.012613361 -0.0064823623 -0.008597489 -0.0126133645
0002b0 1e e4 33 3c bc d0 ab bc 49 7d 4d 3c 81 97 03 c0
       0.01097968 -0.020973556 0.012542077 -2.056122
0002c0 19 7a be 3c 1f da bd bc 81 a8 4e bc d5 97 4d bc
       0.02325158 -0.023175297 -0.012613417 -0.012548407
0002d0 09 69 d4 bb ec 04 57 bc cd a7 4e 3c b7 a8 4e bc
       -0.0064822477 -0.013123732 0.012613249 -0.012613467
0002e0 09 69 d4 3b 52 bd 9f 3c f6 5c aa 38 e5 d0 ab 3c
       0.0064822477 0.019499455 8.123547e-05 0.020973632
0002f0 d5 97 4d 3c f9 84 8c 3c ff 0a ce b8 2a a7 91 3b
       0.012548407 0.01715325 -9.824894e-05 0.0044449763
000300 79 2c ae bb 7c dc 0c 3c 47 3f 03 bd 31 b2 12 c0
       -0.00531536 0.008597489 -0.032042768 -2.292126
000310 19 22 41 bb 15 2b ae bb d5 7b 46 bc 5a 97 4d 3c
       -0.0029469787 -0.0053151944 -0.012114485 0.012548292
000320 a3 5b 6b bb c7 c6 e7 bb 09 69 d4 3b 31 06 24 bc
       -0.0035912774 -0.0070732567 0.0064822477 -0.010011242
000330 5f a2 4f 3a b6 d0 ab 3c df d0 ab 3c 7e 2f ae 3b
       0.00079206185 0.020973545 0.020973621 0.00531572
000340 db a7 4e 3c 22 d1 ab bc 34 d1 ab 3c 53 c7 c4 bc
       0.012613262 -0.020973746 0.02097378 -0.024020826
000350 83 cc cd 3b 09 69 d4 3b 9c 4b e3 bc 69 f8 0f 3c
       0.006280483 0.0064822477 -0.027746014 0.008787253
000360 6c 3f c2 3c d0 4b e3 bc f5 c9 9c 3b 7c dc 0c bc
       0.023711883 -0.027746111 0.0047848173 -0.008597489
000370 e0 d0 ab 3c 61 a8 4e 3c 09 69 d4 bb 7b 7c 46 3c
       0.020973623 0.012613387 -0.0064822477 0.012114639
000380 db ab b1 3b 26 f0 94 3a 13 ab c7 b7 e2 03 3d 3d
       0.005422098 0.0011363074 -2.3802311e-05 0.04614628
000390 d4 03 41 3b 10 cd cd bb 08 a9 4e bc 6e 34 0f 3b
       0.0029451745 -0.006280549 -0.012613542 0.002185132
0003a0 22 05 d0 39 2a a7 91 3b 9c a8 4e bc ed eb 94 3a
       0.00039676676 0.0044449763 -0.012613442 0.0011361815
0003b0 7c cc 1b 3c 8d e4 8b ba 73 a0 9a 3c 8a 54 f1 3b
       0.009509202 -0.0010672972 0.018875336 0.007364814
0003c0 4d 60 e1 38 d5 97 4d 3c a9 24 41 3b 33 cd c4 3c
       0.000107467735 0.012548407 0.0029471314 0.024023628
0003d0 b2 4c a3 b8 9b 5b 6b bb 50 2a 0d 3a 1c 2d ae 3b
       -7.786731e-05 -0.0035912755 0.0005385028 0.005315436
0003e0 19 89 bb bb c2 7c 46 bc d8 cd c1 3a 93 ff de 3b
       -0.0057231304 -0.0121147055 0.0014786078 0.006805369
0003f0 7c dc 0c bc 3a a0 9a bc 09 69 d4 bb 76 54 f1 bb
       -0.008597489 -0.01887523 -0.0064822477 -0.007364805

weight f4 [64, 64]
000000 88 79 eb bb 74 d0 ab bc c6 4b e3 bc 0a cb 87 3c
       -0.0071861185 -0.020973422 -0.027746093 0.016576309
000010 01 dc 0c 3c c3 f1 67 39 b6 e9 94 ba c2 18 2a 3d
       0.008597375 0.0002211994 -0.0011361155 0.041527517
000020 76 54 f1 bb 09 69 d4 3b 3b 21 81 bc 3b 6f 5e 3c
       -0.007364805 0.0064822477 -0.015762916 0.013576324
000030 ec d0 ab 3c fa 84 8c bc 6b 91 c4 bc b9 10 c0 3b
       0.020973645 -0.017153252 -0.023995122 0.0058613685
000040 31 89 bb bb 5a 97 4d 3c d5 97 4d bc d9 20 81 3c
       -0.0057231416 0.012548292 -0.012548407 0.015762733
000050 ba b9 a7 3a 54 21 c0 bc 10 27 2a bc 09 69 d4 3b
       0.001279644 -0.023453392 -0.01038529 0.0064822477
000060 30 f8 0f 3c 10 2a 0d ba a6 ea 94 ba d8 20 81 3c
       0.0087872 -0.0005384991 -0.0011361435 0.015762731
000070 3a ca 28 3c 98 d0 ab 3c 8f cf c4 3c c8 e7 94 3a
       0.010302121 0.020973489 0.024024753 0.001136058
000080 52 21 c0 bc a1 23 41 bb 09 69 d4 3b 6e a0 9a 3c
       -0.023453388 -0.00294707 0.0064822477 0.018875327
000090 5a 97 4d 3c b9 24 41 3b 49 e0 f7 bc 01 dc 0c 3c
       0.012548292 0.0029471351 -0.030258315 0.008597375
0000a0 bf 3d 03 3d f8 84 8c 3c d7 23 41 3b f0 4d 91 bb
       0.032041308 0.017153248 0.0029470825 -0.0044343397
0000b0 76 3f c2 3c 59 3f 03 3d 16 27 2a 3c fd c9 9c bb
       0.023711901 0.032042835 0.010385295 -0.004784821
0000c0 69 a8 4e bc 37 06 24 bc 7c dc 0c 3c c3 b2 70 3c
       -0.012613394 -0.010011247 0.008597489 0.014691058
0000d0 67 a0 9a 3c 3e 33 0f bb 5a 97 4d bc ff 69 d4 bb
       0.018875314 -0.002185061 -0.012548292 -0.0064823623
0000e0 3a a0 9a 3c b7 0b 90 bc 31 21 41 3b d0 7c 46 3c
       0.01887523 -0.017583711 0.0029469247 0.012114719
0000f0 ba 95 d5 3b 24 60 67 3c 66 77 78 3c 9b 5b 6b bb
       0.006518093 0.014122043 0.015165186 -0.0035912755
000100 63 a0 9a 3c 7c dc 0c 3c 50 cd cd 3b 68 77 78 bc
       0.018875306 0.008597489 0.0062805787 -0.015165187
000110 8f 1b 75 bf d6 6d 85 3e 39 7c 46 3c bc d0 ab 3c
       -0.95745176 0.2606036 0.012114578 0.020973556
000120 b0 54 f1 3b 52 bf 9c bb d4 ab b1 bb 6c 91 c4 bc
       0.007364832 -0.0047835493 -0.005422095 -0.023995124
000130 21 e1 f7 3c 27 3a 7b bb c5 d0 ab bc 7c e4 33 3c
       0.030258717 -0.0038334222 -0.020973573 0.010979768
000140 5a 97 4d 3c 75 62 92 3c 04 c8 c7 bb 8e 79 39 ba
       0.012548292 0.017869214 -0.006096842 -0.0007075303
000150 93 da d0 39 6d 91 c4 bc 53 bd 9f 3c d8 5f 36 3b
       0.00039835702 -0.023995126 0.019499457 0.0027828123
000160 56 3d c7 bb 11 68 11 3d f7 db fa 3b 06 db 0c bc
       -0.00608031 0.035499636 0.0076556164 -0.008597141
000170 bd 29 ae 3b a7 55 f1 3b 5a 97 4d bc d5 97 4d bc
       0.005315034 0.007364947 -0.012548292 -0.012548407
000180 d5 4b c5 3b d9 cb 8e ba 5a 97 4d 3c a1 2a ae 3b
       0.006021003 -0.0010894492 0.012548292 0.0053151404
000190 78 cf c4 3c ae 95 d5 3b fa 36 31 bb 38 06 24 bc
       0.02402471 0.0065180873 -0.0027040825 -0.010011248
0001a0 77 63 4d 3c 7f 5b 6b bb bc e4 92 bc 45 18 49 3a
       0.012535921 -0.003591269 -0.017931335 0.0007671158
0001b0 e0 cd cd 3b b6 ef 94 3a ef ce c4 bc 40 e4 33 bc
       0.0062806457 0.0011362943 -0.024024455 -0.010979712
0001c0 23 26 0d bb 67 82 eb bb 72 c0 9c bb 2f 06 24 3c
       -0.0021537624 -0.007187176 -0.0047836835 0.01001124
0001d0 78 cc 1b 3c 05 c3 9c 3b 5b ed ec bb a1 c6 09 3c
       0.009509198 0.0047839903 -0.0072304434 0.008409173
0001e0 00 ce cd bb 00 45 25 3b 8e 02 09 3c 50 7e f9 3b
       -0.0062806606 0.002521813 0.0083624255 0.0076139346
0001f0 f0 32 1c 3c 0a 37 31 bb cb c6 e7 3b 51 c3 d5 3b
       0.009533629 -0.0027040862 0.0070732585 0.0065235277
000200 c6 d0 ab bc 8e bf 61 bb d5 97 4d 3c 82 97 4d bc
       -0.020973574 -0.003444645 0.012548407 -0.012548329
000210 33 ca 28 3c 6f 77 78 bc 7c dc 0c 3c 46 ec 94 ba
       0.010302114 -0.015165194 0.008597489 -0.0011361919
000220 dc 54 f1 bb 93 c3 2e 3c 4b 2a 0d 3a 5f a0 9a bc
       -0.0073648524 0.010666746 0.0005385025 -0.018875299
000230 d3 d4 90 38 32 dc 0c bc da a7 4e 3c 8b 64 0d bc
       6.906097e-05 -0.0085974205 0.012613261 -0.008629928
000240 58 a0 9a bc 5a 97 4d 3c f2 20 81 3c f7 26 2a 3c
       -0.018875286 0.012548292 0.01576278 0.0103852665
000250 6a 82 b8 bb 5f 62 9b b9 9b 1b ce bb d1 36 2d b8
       -0.005630781 -0.00029637196 -0.006289912 -4.1297466e-05
000260 e9 78 b3 ba 36 f9 de bf fc 14 89 3a da a7 4e bc
       -0.001369265 -1.7419803 0.0010458524 -0.012613261
000270 ba ff db 38 f3 b2 4f 3a 45 a0 9a bc 88 a0 9a 3c
       0.000104903665 0.0007923089 -0.01887525 0.018875375
000280 23 35 0f bb b5 39 41 ba 61 0f c0 3b 1e 21 81 bc
       -0.002185174 -0.0007370965 0.0058612083 -0.015762862
000290 0c 0d 90 bc 85 69 d4 3b 88 a0 9a bc 9a 81 eb 3b
       -0.017584346 0.0064823055 -0.018875375 0.0071870806
0002a0 ef 5f 53 bc 3c a6 e5 bb 07 e3 eb 3b 01 dc 0c 3c
       -0.01290129 -0.007008342 0.0071986946 0.008597375
0002b0 46 98 4d 3c e5 cb a9 bc ff 69 d4 3b 88 5b 6b bb
       0.012548512 -0.020727107 0.0064823623 -0.0035912711
0002c0 b8 6e 82 38 2a 2f 3c 3c fd 8e 66 b8 75 69 d4 bb
       6.219506e-05 0.011485854 -5.496944e-05 -0.006482298
0002d0 fd c9 9c bb f4 8d 08 bb 3a a0 9a 3c 6b d0 ab 3c
       -0.004784821 -0.0020836564 0.01887523 0.020973405
0002e0 a1 a8 4e bc f8 84 8c 3c aa c3 91 b9 69 c2 9c bb
       -0.012613446 0.017153248 -0.00027802336 -0.0047839177
0002f0 8f 63 13 ba 05 5e c5 b8 14 c0 3f bb b7 a8 4e 3c
       -0.00056224404 -9.4112045e-05 -0.0029258775 0.012613467
000300 ec d0 ab bc c2 a8 4e bc ec d0 ab 3c 1c 28 67 bc
       -0.020973645 -0.012613477 0.020973645 -0.014108684
000310 45 0d 90 bc f8 26 67 bc 55 a8 4e bc 35 c1 9c bb
       -0.017584452 -0.014108412 -0.012613376 -0.0047837743
000320 de 36 0f bb 23 4a 53 3c 37 41 c0 3b 67 39 2a 38
       -0.0021852772 0.012896094 0.005867149 4.058462e-05
000330 52 bd 9f bc ff 69 d4 3b 01 dc 0c 3c 01 dc 0c bc
       -0.019499455 0.0064823623 0.008597375 -0.008597375
000340 51 bf 9c 3b c6 de f7 bc a2 a0 9a 3c 42 6e 71 b9
       0.004783549 -0.030257594 0.018875424 -0.00023024625
000350 98 18 2a bd 46 ea 94 ba 09 69 d4 bb 56 a0 9a bc
       -0.04152736 -0.0011361323 -0.0064822477 -0.018875282
000360 73 55 f1 3b 5a 97 4d bc 92 cb bd bb 0a 2d ae bb
       0.0073649227 -0.012548292 -0.0057920897 -0.0053154277
000370 d6 e3 33 bc 9c cb cd 3b 09 c1 9c 3b 5f ef 25 3b
       -0.010979613 0.0062803756 0.004783754 0.0025319678
000380 1c 60 67 3c 58 21 81 3c be 27 67 3c f9 cc cb bc
       0.014122035 0.01576297 0.014108596 -0.024878012
000390 d6 aa 4f 3a f2 1d d2 bb 8b 9d 9a bc ff 69 d4 bb
       0.000792188 -0.006412261 -0.01887395 -0.0064823623
0003a0 3a a0 9a bc fd db 0c bc d5 97 4d bc 43 55 f1 3b
       -0.01887523 -0.008597371 -0.012548407 0.0073649003
0003b0 9b 7b 46 3c e8 54 f1 bb 74 3f c2 bc da a7 4e 3c
       0.012114431 -0.007364858 -0.023711897 0.012613261
0003c0 37 6f 5e 3c 7c dc 0c bc 74 cc 1b bc 80 c1 9c bb
       0.01357632 -0.008597489 -0.009509195 -0.004783809
0003d0 ff 69 d4 3b bc d0 ab 3c 1c 21 81 bc ea 17 2a bd
       0.0064823623 0.020973556 -0.015762858 -0.041526712
0003e0 ff 69 d4 bb b6 ef 94 3a 76 3f c2 3c d5 97 4d 3c
       -0.0064823623 0.0011362943 0.023711901 0.012548407
0003f0 e8 ea 94 3a 09 69 d4 bb da a7 4e 3c f6 84 8c 3c
       0.0011361511 -0.0064822477 0.012613261 0.017153244

bias f4 [64]
000000 62 15 0d c1 96 78 08 c1 92 8c 2a c1 11 f6 1b c1
       -8.81772 -8.52944 -10.659319 -9.747575
000010 0e 67 1e c1 0d 70 26 c1 fa 40 fd c0 47 13 34 c1
       -9.90016 -10.402356 -7.9141817 -11.254706
000020 2f a1 20 c1 f0 b6 84 c0 c8 82 bc c0 af 7f c8 c0
       -10.039351 -4.147331 -5.8909645 -6.2655864
000030 fa 9b 2e c1 b7 9b 0a c1 4a 38 c6 c0 77 36 15 c1
       -10.91308 -8.663016 -6.194371 -9.325797
000040 f5 06 d5 c0 7f da 8f c0 07 da 11 c1 4c c2 24 c1
       -6.6570992 -4.495422 -9.115729 -10.297436
000050 de c5 69 c1 3d 30 46 c1 cb ff 0b c1 b6 bf 27 c1
       -14.610807 -12.386777 -8.749949 -10.484304
000060 1f d4 05 c1 db 92 01 c1 41 26 03 c1 47 e6 1f c1
       -8.364287 -8.098353 -8.196839 -9.99372
000070 f6 31 46 c1 7b 87 03 c1 bd b5 52 c1 01 8f be c0
       -12.3871975 -8.220576 -13.16937 -5.9549565
000080 c6 d1 0c c1 4c 18 1a c1 36 37 00 c1 f1 d6 2b c1
       -8.801214 -9.630932 -8.013479 -10.739976
000090 d9 1f ca c0 26 98 00 c1 9d 00 cc c0 7b 9d 32 c1
       -6.3163877 -8.037146 -6.375075 -11.163447
0000a0 74 28 0f c1 b0 7a 29 c1 4f b3 f0 c0 99 55 d5 c0
       -8.947376 -10.592453 -7.5218883 -6.666699
0000b0 20 25 2a c1 92 8c d8 c0 6b cc 09 c1 43 ef 3e c1
       -10.634064 -6.7671595 -8.612407 -11.9334135
0000c0 47 50 53 c1 6a 37 ff c0 70 f7 20 c1 ac dd fc c0
       -13.207099 -7.9755144 -10.06041 -7.9020596
0000d0 c3 7b 95 c0 8a b9 35 c1 02 f8 15 c1 5c 87 c4 c0
       -4.6713576 -11.357798 -9.373049 -6.1415234
0000e0 b9 6d bc c0 1e 62 15 c1 f0 00 06 c1 29 09 37 c1
       -5.888394 -9.336454 -8.375229 -11.439736
0000f0 fa 68 53 c1 9e 28 0a c1 99 03 18 c1 ff b2 22 c1
       -13.213129 -8.634916 -9.500878 -10.1687

weight f4 [128, 79]
000000 37 a0 9a bc a1 24 41 bb 46 ef 94 ba 26 2e ae 3b
       -0.018875225 -0.0029471295 -0.0011362813 0.00531556
000010 01 dc 0c bc 07 89 e9 ba b8 db 10 bb dc a8 91 3b
       -0.008597375 -0.0017817327 -0.0022103619 0.0044451784
000020 61 c2 9c 3b 0e 35 0f bb 50 2b ae bb 7e 26 2a bc
       0.004783914 -0.0021851691 -0.005315222 -0.010385154
000030 21 7c 46 bc 8b 5b 6b 3b ff 69 d4 bb 7a 5b 6b 3b
       -0.012114556 0.0035912718 -0.0064823623 0.0035912679
000040 1f da bd bc 37 6f 5e bc 04 d1 ab 3c 01 dc 0c 3c
       -0.023175297 -0.01357632 0.02097369 0.008597375
000050 73 f8 0f bc fd a7 4e 3c 72 a0 9a bc 1f 11 c0 bb
       -0.008787262 0.012613294 -0.018875334 -0.005861416
000060 36 97 4d 3c a6 22 a0 3c b2 3d 03 bd bc 4b e3 3c
       0.0125482585 0.019547772 -0.03204126 0.027746074
000070 5d a8 4e 3c 4b a8 4e bc 6e a0 9a bc 7c dc 0c bc
       0.012613383 -0.012613366 -0.018875327 -0.008597489
000080 c2 a8 4e 3c a4 3f 03 bd f8 d0 ab bc 2c 27 67 bc
       0.012613477 -0.032043114 -0.020973668 -0.01410846
000090 1f a0 4f ba 6e c2 9c 3b 01 dc 0c 3c 5e c3 d5 bb
       -0.0007920283 0.00478392 0.008597375 -0.0065235337
0000a0 01 dc 0c bc ff 69 d4 3b 7d 0f c0 bb a5 56 f1 3b
       -0.008597375 0.0064823623 -0.0058612213 0.007365065
0000b0 ea 2a ae 3b 7c dc 0c bc 35 a9 4e 3c bb a6 91 bb
       0.0053151743 -0.008597489 0.012613584 -0.0044449246
0000c0 0f ca 9c bb 6b a8 4e bc 70 2a 0d ba c9 88 bb bb
       -0.0047848294 -0.012613396 -0.0005385047 -0.005723093
0000d0 26 eb 94 3a ce db 10 3b a3 c1 9c 3b 7c dc 0c 3c
       0.0011361584 0.002210367 0.0047838255 0.008597489
0000e0 43 a7 91 bb 01 dc 0c bc 58 80 eb 3b 20 60 67 3c
       -0.004444988 -0.008597375 0.0071869306 0.014122039
0000f0 ff 69 d4 bb 95 7c 46 3c 7c dc 0c 3c d5 a8 4e 3c
       -0.0064823623 0.012114664 0.008597489 0.012613495
000100 4b a8 4e bc d9 db 10 bb a9 cc c4 3c f6 84 8c 3c
       -0.012613366 -0.0022103696 0.02402337 0.017153244
000110 7f 69 d4 bb 14 98 4d bc 85 0d 90 3c 07 bd 9f 3c
       -0.0064823027 -0.012548465 0.017584572 0.019499315
000120 c5 54 f1 bb 05 a9 4e 3c d7 3b 26 3d ed d0 ab bc
       -0.0073648416 0.01261354 0.04058441 -0.020973647
000130 ff 69 d4 3b 5a 97 4d 3c ff 69 d4 bb e1 e1 f7 bc
       0.0064823623 0.012548292 -0.0064823623 -0.030259075
000140 97 41 bb bb b3 3e 03 bd 1a 37 31 3b ef d0 ab bc
       -0.005714606 -0.032042217 0.00270409 -0.02097365
000150 69 77 78 bc a3 5b 6b 3b 5f d6 03 bc f5 b8 d0 bb
       -0.015165188 0.0035912774 -0.0080467155 -0.006369705
000160 20 21 81 bc 01 dc 0c 3c 14 3e 03 3d 5a 97 4d bc
       -0.015762866 0.008597375 0.032041624 -0.012548292
000170 31 2f ae 3b 69 91 c4 bc 7c dc 0c bc 2d 68 d4 3b
       0.0053156842 -0.023995118 -0.008597489 0.0064821453
000180 0a 37 31 3b 31 cf c4 3c 09 69 d4 3b d7 e5 cb 39
       0.0027040862 0.024024578 0.0064822477 0.0003889042
000190 58 82 eb bb 12 ed 94 3a 1a 54 f1 3b 0e 34 0f 3b
       -0.007187169 0.0011362156 0.007364762 0.0021851095
0001a0 fb 84 8c bc a1 a8 4e bc ed d0 ab 3c 01 dc 0c bc
       -0.017153254 -0.012613446 0.020973647 -0.008597375
0001b0 42 a0 9a bc c9 55 f1 bb ff 69 d4 3b 36 a0 9a 3c
       -0.018875245 -0.0073649627 0.0064823623 0.018875223
0001c0 23 54 f1 bb e2 bf 9c bb 31 a0 9a 3c 84 55 f1 bb
       -0.007364766 -0.0047836164 0.018875213 -0.0073649306
0001d0 7e 3b 26 3d 75 27 67 3c 09 69 d4 bb 09 69 d4 3b
       0.04058408 0.014108528 -0.0064822477 0.0064822477
0001e0 a9 a8 4e 3c af c1 9c 3b 64 77 78 bc 0e 37 0f 3b
       0.012613454 0.004783831 -0.015165184 0.0021852884
0001f0 e8 a7 4e bc 98 54 f1 3b 3d dc 0c bc d4 cc cd bb
       -0.012613274 0.0073648207 -0.008597431 -0.006280521
000200 37 a0 9a bc 56 21 c0 bc c6 c1 9c 3b 91 ff de bb
       -0.018875225 -0.023453396 0.004783842 -0.0068053682
000210 d8 cf c4 3c ff 69 d4 bb d5 97 4d 3c 6e d0 ab 3c
       0.024024889 -0.0064823623 0.012548407 0.02097341
000220 ff 69 d4 3b 9c a8 4e bc e5 81 b8 3b 80 d0 ab bc
       0.0064823623 -0.012613442 0.005630719 -0.020973444
000230 d5 97 4d 3c a1 21 41 bb 53 a0 9a bc 67 a0 9a bc
       0.012548407 -0.0029469507 -0.018875277 -0.018875314
000240 5a 97 4d 3c 7c dc 0c bc 02 27 67 bc 3d dc 0c 3c
       0.012548292 -0.008597489 -0.014108421 0.008597431
000250 d5 97 4d bc ff 69 d4 3b 78 cc 1b bc c9 55 f1 3b
       -0.012548407 0.0064823623 -0.009509198 0.0073649627
000260 01 dc 0c 3c 95 ff de 3b b2 a0 9a bc aa a8 4e bc
       0.008597375 0.00680537 -0.018875454 -0.012613455
000270 d6 3b 26 bd 5d cd c4 bc 8a 32 75 bb 8f 2c ae bb
       -0.040584408 -0.024023706 -0.0037414157 -0.0053153704
000280 6b 91 c4 3c fd b8 d0 bb 17 56 f1 3b 70 3f c2 3c
       0.023995122 -0.0063697086 0.007364999 0.02371189
000290 3c ca 28 bc 09 69 d4 3b 7c dc 0c 3c 09 ca 9c 3b
       -0.010302123 0.0064822477 0.008597489 0.0047848267
0002a0 4a 27 2a bc 39 06 24 bc ae 36 0f 3b 39 a0 9a 3c
       -0.010385344 -0.010011249 0.002185266 0.018875228
0002b0 f6 4e ad bb 7c dc 0c 3c 59 0f c0 bb 05 11 ac 3b
       -0.005288954 0.008597489 -0.0058612046 0.0052510523
0002c0 01 dc 0c bc ed d0 ab bc 23 33 0f bb 40 ca 28 bc
       -0.008597375 -0.020973647 -0.0021850548 -0.010302126
0002d0 3e 37 0f 3b e4 d0 ab 3c 37 a0 9a 3c db 3b 26 3d
       0.0021852995 0.02097363 0.018875225 0.040584426
0002e0 c1 d0 ab bc e1 09 af bb 59 21 81 3c 35 74 a1 bc
       -0.020973565 -0.005341754 0.015762972 -0.019708732
0002f0 31 dc 0c 3c b2 d0 ab 3c 6f 91 c4 bc 09 69 d4 3b
       0.00859742 0.020973537 -0.02399513 0.0064822477
000300 ff 69 d4 3b da 3b 26 3d f7 7b 46 bc 57 21 c0 3c
       0.0064823623 0.040584423 -0.012114516 0.023453398
000310 05 32 38 3c 5a 97 4d 3c d7 ab b1 3b 95 69 d4 3b
       0.011242394 0.012548292 0.0054220962 0.006482313
000320 c2 a8 4e bc 95 0f c0 bb ff 69 d4 3b cb c6 e7 bb
       -0.012613477 -0.0058612325 0.0064823623 -0.0070732585
000330 d5 97 4d bc d4 a8 4e 3c d0 c1 9c bb 97 2d ae 3b
       -0.012548407 0.012613494 -0.0047838464 0.0053154933
000340 3d 61 2e bc 6e da 0c bc 5a 97 4d 3c 08 21 81 bc
       -0.010643301 -0.008597 0.012548292 -0.01576282
000350 ba a9 33 bb 2c b7 32 bc 5a 97 4d 3c 09 69 d4 3b
       -0.0027414397 -0.010907929 0.012548292 0.0064822477
000360 98 58 d9 bc 1e 28 67 3c f2 5f 53 bc 32 27 2a 3c
       -0.026531503 0.014108686 -0.012901293 0.010385321
000370 42 56 f1 3b 37 6f 5e 3c d3 ab b1 3b 04 21 81 bc
       0.007365019 0.01357632 0.0054220944 -0.015762813
000380 24 f2 17 bc f8 af 4f 3a ef 5f 53 3c a2 fb 16 3b
       -0.009274039 0.0007922645 0.01290129 0.0023038168
000390 01 dc 0c 3c e7 a5 e8 bb 92 f0 94 3a 12 37 31 bb
       0.008597375 -0.007099855 0.00113632 -0.002704088
0003a0 bc c5 ea ba c8 03 3d bd a7 53 f1 3b 76 3f 03 bd
       -0.0017911713 -0.046146184 0.0073647085 -0.032042943
0003b0 66 3f c2 3c ff 69 d4 3b ff 69 d4 bb b3 a7 91 3b
       0.023711871 0.0064823623 -0.0064823623 0.00444504
0003c0 58 e3 33 bc be 20 81 bc ed d0 ab 3c d8 03 3d bd
       -0.010979496 -0.015762683 0.020973647 -0.046146244
0003d0 eb dc 0c 3c 6b 26 2a 3c d5 97 4d 3c ff 69 d4 3b
       0.008597593 0.010385136 0.012548407 0.0064823623
0003e0 e3 20 81 bc 7c dc 0c 3c 09 69 d4 3b 09 69 d4 3b
       -0.015762752 0.008597489 0.0064822477 0.0064822477
0003f0 4e 55 f1 3b 3d 89 bb 3b ff 7b 46 bc 25 01 7b bc
       0.0073649054 0.005723147 -0.012114524 -0.015320097

bias f4 [128]
000000 90 89 da c0 37 a9 d9 c0 46 4b 02 c1 74 83 fa c0
       -6.8292923 -6.801906 -8.143377 -7.8285465
000010 bc cb b3 41 6b bd f9 c0 b4 fb e1 41 96 33 83 c0
       22.47448 -7.8043723 28.247902 -4.100047
000020 8a e9 7d c1 e1 8a cf c0 d6 f4 08 c1 1e 02 0d c1
       -15.869516 -6.485703 -8.559774 -8.813017
000030 8c 06 50 c1 13 6e f1 c0 3f 1b 01 c1 66 d6 dd c0
       -13.001598 -7.544687 -8.069152 -6.9324217
000040 a6 84 dd c0 07 c1 c0 c0 c4 6e 17 c1 96 42 b9 c0
       -6.9224424 -6.023563 -9.464542 -5.789378
000050 66 74 b4 c0 f9 5e c0 c0 64 1c e2 c0 e9 a7 ce c0
       -5.639209 -6.0115933 -7.0659657 -6.457997
000060 ff ef 64 c0 23 65 36 c1 f2 ca 3c c0 78 ff 0e c1
       -3.5771482 -11.399692 -2.9498868 -8.93737
000070 dd f5 de c0 d6 97 e8 c0 1d ac c7 c0 fc dd fd bf
       -6.9675126 -7.2685347 -6.23976 -1.9833369
000080 d0 1f 13 c1 54 23 15 c1 e9 23 d9 c0 9d fd d0 c0
       -9.195267 -9.321125 -6.7856336 -6.5309587
000090 77 15 d2 c0 28 45 cf c0 9e 5a c9 c0 ba eb 44 40
       -6.56512 -6.477192 -6.2923117 3.0768876
0000a0 87 d5 d7 c0 54 81 6c c0 97 d7 19 c1 8b ef ee 41
       -6.7448153 -3.6953936 -9.615134 29.866964
0000b0 b1 1e c9 c0 56 54 c1 c0 d1 67 ea c0 5c 98 51 c1
       -6.2849965 -6.041545 -7.325173 -13.099697
0000c0 a6 23 0b c1 25 e8 cf c0 bd 13 fc c1 30 5f 9b c0
       -8.696203 -6.497088 -31.509638 -4.8553696
0000d0 56 44 cd c0 0e 8e 24 c0 d5 d0 3e c0 3a d9 2d c1
       -6.414592 -2.5711703 -2.981496 -10.865534
0000e0 ab df 7b c0 54 05 03 c1 4a 06 f1 bf b9 8d f9 c0
       -3.9355266 -8.188801 -1.8830044 -7.79855
0000f0 2c 00 18 c1 70 89 d4 c0 45 2e 18 c1 53 66 24 c1
       -9.500042 -6.641777 -9.511296 -10.2749815
000100 49 49 d9 c0 0e cb 13 42 b3 72 17 c1 73 ee c3 c0
       -6.790196 36.948296 -9.465503 -6.1228576
000110 10 62 89 41 1e 21 14 c1 e7 52 12 c1 3e c9 0b c1
       17.172882 -9.258085 -9.14524 -8.736631
000120 e3 f7 21 c1 bb 26 8a c0 b1 2f c9 c0 c0 2d 04 c1
       -10.123019 -4.317228 -6.2870717 -8.261169
000130 25 e4 8a c0 2e 03 e6 c0 a4 1b 9c c0 d3 57 03 c1
       -4.3403497 -7.187888 -4.878374 -8.208941
000140 18 47 e3 c0 12 a6 08 42 d5 93 0e c1 f3 fd 25 c1
       -7.1024284 34.162178 -8.911092 -10.374499
000150 11 47 de c0 b7 5a c9 41 65 e5 bf c0 7e 52 c9 c0
       -6.946175 25.169294 -5.9967523 -6.29132
000160 81 df a7 41 6f 93 91 c0 35 b6 d5 c0 5a 69 07 c1
       20.984133 -4.5492473 -6.678492 -8.463221
000170 32 fe 3d c0 de e7 f9 c0 4a aa de c0 58 23 c3 c0
       -2.9686399 -7.809554 -6.9582872 -6.0980644
000180 9b c6 92 c0 9d 3b c0 c0 0a 01 01 c1 6b 3f d7 c0
       -4.586744 -6.007277 -8.062754 -6.7264915
000190 e6 4d 79 c0 d5 85 02 c1 5a 69 f3 c0 d8 52 00 c1
       -3.8953795 -8.157674 -7.6066103 -8.020226
0001a0 26 2a f2 c0 98 fc d7 c0 b0 0c 0a c1 13 41 d7 c0
       -7.567645 -6.749584 -8.628098 -6.7266936
0001b0 69 f1 01 c1 dc 77 01 c1 39 66 d6 41 2f 6d 52 40
       -8.121438 -8.091763 26.799913 3.287914
0001c0 cc 7f 15 c1 60 32 2c c0 07 25 d0 c1 5b 60 dd c0
       -9.3437 -2.6905746 -26.01808 -6.918012
0001d0 b7 1f 24 c1 a4 94 63 c1 c3 cd ca c0 10 eb c2 c0
       -10.257743 -14.223789 -6.3376174 -6.091194
0001e0 b3 2e bf 41 61 73 ad c0 1c 9e f7 c0 09 ea 76 c0
       23.897802 -5.4203343 -7.7380505 -3.8580344
0001f0 95 90 23 c1 d7 10 e4 41 a1 b5 e2 c0 aa 2a 02 c2
       -10.222798 28.508223 -7.0846715 -32.541664

weight f4 [1, 128]
000000 ce 33 0f bb 84 55 f1 bb f7 65 34 b9 5a 97 4d 3c
       -0.0021850946 -0.0073649306 -0.00017204123 0.012548292
000010 d8 76 0d 41 b1 d0 ab bc 48 79 90 40 e6 77 9c b8
       8.841515 -0.020973535 4.514805 -7.4609925e-05
000020 74 47 93 b8 39 6f 5e bc e7 6a 15 bb 83 5b 6b 3b
       -7.0228154e-05 -0.013576322 -0.0022799314 0.00359127
000030 c3 5e 8c b9 f3 ea 9f bc 5e b2 29 3c 19 06 cf bb
       -0.00026773484 -0.019521212 0.010357467 -0.0063178656
000040 a7 f4 2e 3b 09 69 d4 bb bc 6a bf 38 c3 0a 0f bb
       0.0026696117 -0.0064822477 9.1274705e-05 -0.0021826483
000050 ac 79 eb bb 63 3f 03 3d 01 dc 0c bc 01 dc 0c 3c
       -0.0071861353 0.032042872 -0.008597375 0.008597375
000060 bc ae 0e ba f9 df ec 39 54 8a bc bb ce a4 4f ba
       -0.00054429076 0.000451803 -0.0057537947 -0.0007920981
000070 7a d0 ab bc 86 eb 94 ba e3 7e 41 ba 6b d4 38 bc
       -0.020973433 -0.0011361695 -0.00073812733 -0.011281113
000080 01 dc 0c 3c b8 2b ae 3b fa 64 ab 3c 47 3a d4 3b
       0.008597375 0.0053152703 0.020922173 0.0064766738
000090 8b 9e 8c 3a 48 bd 6c 3a d5 97 4d bc e2 43 a7 bf
       0.0010728402 0.00090308907 -0.012548407 -1.3067591
0000a0 98 cc c4 3c 01 dc 0c 3c 4b a8 4e bc 6d d1 ed 40
       0.02402334 0.008597375 -0.012613366 7.4318147
0000b0 5f 3e 02 3a 58 21 c0 bc 41 12 d4 bb ed d2 ab b9
       0.00049684005 -0.0234534 -0.0064719026 -0.00032772814
0000c0 28 a2 a2 b9 80 3f c2 3c 1c e6 c4 b9 5c 2b ae bb
       -0.00031019864 0.02371192 -0.00037555478 -0.0053152274
0000d0 7c dc 0c 3c 65 9e 21 bb 86 d0 50 bb e3 be bc 3a
       0.008597489 -0.002466106 -0.003186257 0.001440015
0000e0 da 54 f1 bb ec 4c cc 3a e4 aa 83 3c 06 f1 94 ba
       -0.0073648514 0.0015586889 0.016072698 -0.0011363334
0000f0 2e d1 19 bc 35 5e 1b 3b f1 2d 87 bb 2d ca d2 3b
       -0.009388251 0.0023707275 -0.0041253497 0.0064327926
000100 c7 5a d4 3b 1a c4 34 40 fb cc cb bc 36 45 ec 38
       0.006480548 2.824469 -0.024878016 0.000112662485
000110 30 f3 24 c2 c6 04 ae b8 74 cd cd bb 90 36 4d bc
       -41.237488 -8.297856e-05 -0.0062805954 -0.012525216
000120 fb cc cb bc d5 97 4d bc 7f dc 0c bc cc e1 ad 3a
       -0.024878016 -0.012548407 -0.008597492 0.0013266145
000130 51 a8 4e 3c 09 69 d4 bb 67 e0 0e bb bf 8b 9a bc
       0.012613372 -0.0064822477 -0.0021801235 -0.018865464
000140 5a 97 4d bc 12 2c e3 40 6c 1a c4 3c c4 1e f1 3b
       -0.012548292 7.0991297 0.02393838 0.007358404
000150 86 53 f1 3b f1 36 09 41 ff 69 d4 3b 35 18 2a bd
       0.007364693 8.575913 0.0064823623 -0.041526992
000160 4b 69 6d 40 0a e4 33 3c 05 a0 9a 3c dd 43 09 bc
       3.7095516 0.010979662 0.018875131 -0.008377996
000170 24 96 37 bc 0c 62 e6 39 39 6f 5e 3c 73 55 f1 3b
       -0.01120523 0.0004394207 0.013576322 0.0073649227
000180 41 eb 35 bc 38 1c 02 3b c6 f9 0b bc 8e b5 64 ba
       -0.011103452 0.0019853245 -0.008543437 -0.00087245635
000190 4d bd 9f 3c 50 4a d4 3b 4e 34 0f 3b b7 d0 ab bc
       0.019499445 0.0064785853 0.0021851244 -0.020973546
0001a0 2f 55 9f 3c 79 3f 03 bd 64 e3 33 bc 90 a8 91 bb
       0.019449798 -0.032042954 -0.010979507 -0.004445143
0001b0 50 08 3b bb b6 cf 65 bc 1a 13 fd 40 e8 b6 9e bf
       -0.002853889 -0.014026573 7.9085817 -1.2399569
0001c0 fc 43 5c bc ae 4d 0b bc 35 92 02 b9 79 24 41 3b
       -0.013443943 -0.008502407 -0.00012452232 0.0029471202
0001d0 c5 33 88 39 89 eb b3 b6 05 2c ae bb b9 20 81 3c
       0.00025978513 -5.3620356e-06 -0.005315306 0.015762674
0001e0 d6 c6 02 41 80 f6 d7 3b 15 f9 2a bb 04 b1 11 ba
       8.173544 0.0065906644 -0.0026088406 -0.00055576884
0001f0 27 3a d2 3b d9 97 1d 40 01 dc 0c bc 17 5b a2 b9
       0.0064156237 2.462393 -0.008597375 -0.00030966915
