data/sslp/nn_p_l5_c25_nsp10000_nse5000_sd7.pt (torch, 10719 bytes, 3 tensors)

weight f4 [64, 30]
00000000: 88dc 74c2 7b00 6dc2 8ab2 b1c2 bbf9 cbc2
00000010: c7b8 67c2 5e49 1441 c974 7f40 eb75 fa40
00000020: 981c 0041 8676 0341 f16e b0be ccc3 1f41
00000030: ea35 2241 73a3 cbbf 482b 6841 6dc4 4041
00000040: 95a3 6541 53aa 2a41 36c4 ae40 6f1f 1d41
00000050: 686d 4f41 b51a 5e40 0912 4741 ceda af40
00000060: b93c 8841 dece c641 a2e8 bc41 eecb 9e40
00000070: 3016 6a41 d25e f840 9460 8d40 ea16 4340
00000080: 0ddc cd3f 1ef5 7940 2141 2b40 7480 3440
00000090: f665 1540 4422 1340 9a47 6240 e2f9 5b40
000000a0: d3b6 8440 9a0c db3f 773f 9240 c0a9 3740
000000b0: 59b4 5c40 8f6a 3540 662b 1840 de49 2840
000000c0: 7fd2 b83f 26cc 4240 ba73 4b40 92f7 5740
000000d0: 35b0 4940 6853 8a3f 6924 9040 a862 5340
000000e0: b3a6 7040 1fb2 e33f e3b7 8540 8edd 5740
000000f0: 726b bfbc 93e0 ae3c e68e a6bc 7ebf b23c
00000100: 77b1 b23c 37ee a8bc 30ae b0bc afd9 b3bc
00000110: 56d2 aa3c 5822 f03c 5f60 b8bc 7cfb c4bc
00000120: 6ea3 81b1 9729 b8bc ec09 c0bc f98a b33c
00000130: 618d a13c ecbf b1bc 812f b83c a548 a73c
00000140: c03b a7bc c126 b8bc 74cb bcbc 89ad bd3c
00000150: d0e9 c63c c718 b33c 6879 bc3c 823e b6bc
00000160: 7b65 ba3c d449 bfbc 70f4 8bc2 5570 81c2
00000170: 5be6 d6c2 3f9b b6c2 560a 76c2 118a 3d3f
00000180: b5e5 c340 2268 53c0 6eb0 9141 e6e8 e940
00000190: 1495 8940 03ee 1f41 e8f4 a841 8aa9 de40
000001a0: 1ad3 4d41 5a75 4141 8d68 b740 948c 2a41
000001b0: f41b cbc0 89ce 0f41 c4a8 9541 2aeb 3f41
000001c0: 4f17 4d41 476c 0440 a77a 8941 2847 1d41
000001d0: e941 7b41 989f 0e41 104d 8c41 8d58 6541
000001e0: 0379 7fc2 2705 77c2 d11e 0bc2 1cb3 18c2
000001f0: 5d77 7ac2 ee1e 2640 f4cd 1141 da0f b940
00000200: ccfc 0e41 f36d e340 d32b 2940 9cff aa40
00000210: 40b0 1b41 6271 e140 69a3 e440 8455 4f40
00000220: 7e5c 6c40 1caa d340 40b6 123f 8937 f33f
00000230: 813e 0e41 1510 9940 c340 2341 dfac 6d40
00000240: 05f6 f640 dcbb 3541 653e 3341 94b4 9e40
00000250: 9e26 3941 9d5a 2d41 a00e afbc 1839 a63c
00000260: bbcf b2bc 4eb5 a4bc 4b36 bcbc 9c54 b53c
00000270: 20c7 af3c dd5a b3bc 83f9 b03c c89d b5bc
00000280: 0a9d b43c 43ab b33c 0d2a ae3c 4c08 b43c
00000290: 2bf5 b3bc 88a3 b23c d868 babc cacb a53c
000002a0: 7c8e b8bc ac7a b63c af94 b1bc 4694 ba3c
000002b0: 755f b43c ab0b b0bc cea1 b03c db99 b7bc
000002c0: fa57 b13c 2d7a b0bc 965a b83c 9ace b1bc
000002d0: a367 bf3c 9bdb adbc f30a babc 06dd b13c
000002e0: 47f2 bdbc 77f9 b83c 97e3 c3bc 59a9 b53c
000002f0: 9d43 bcbc e48f b33c c64f b83c 3cca b13c
00000300: 1d09 7dbc aac0 b3bc df54 b4bc 792b ad3c
00000310: 16f1 b43c 6d12 ad3c 909a a9bc 1a5f b33c
00000320: 70c6 af3c 5710 c03c 3f8e b6bc e1ba b23c
00000330: bea8 b2bc 7258 b3bc 39ab c03c 5b9d b4bc
00000340: 2928 6e3c def6 f2bc 4047 b5bc 9b8c b33c
00000350: ebf8 b53c 2c3b a6bc 7c77 b4bc 4bf2 b0bc
00000360: ff4d b6bc d6f7 abbc c27e b4bc 0d03 afbc
00000370: 6db7 b3bc 71c7 b1bc 2dfa a23c 7bd8 bdbc
00000380: 5f65 b4bc fcf4 abbc 6ea3 81b1 ca0b b73c
00000390: a7b0 b4bc a98d af3c 78a6 a7bc 3df4 afbc
000003a0: 76b9 b13c 8cd1 b8bc 8b47 c23c 8378 b2bc
000003b0: 57ae b2bc a02c b53c 2365 b73c 5429 b4bc
000003c0: 4ba4 a240 b9a0 4740 a1aa ef3f a154 3740
000003d0: bda4 8c40 aa78 0c40 a44e 3f40 2523 2140
000003e0: d58e 8d40 8b65 5540 01ba 0940 49d9 2240
000003f0: a30c 6340 7724 6540 d734 6040 8978 4840
-61.215363 -59.25047 -88.84871 -101.987755 -57.930447 9.267912 3.991503 7.8268943
8.006981 8.216436 -0.34459642 9.985302 10.138163 -1.5909256 14.510567 12.0479555
14.352437 10.666583 5.4614515 9.820174 12.9642105 3.47038 12.441903 5.4954596
17.02965 24.85101 23.61359 4.9623938 14.630417 7.7615747 4.4180393 3.0482736
1.6082779 3.9055858 2.6758502 2.8203402 2.3343482 2.2989664 3.5356202 3.4371266
4.1473174 1.7113221 4.570247 2.8697357 3.4485075 2.8346288 2.3776488 2.6295085
1.4439238 3.0437102 3.1789384 3.3744855 3.1513798 1.0806704 4.5044446 3.3028965
3.7601745 1.7788733 4.178697 3.3728976 -0.023366664 0.02134732 -0.020331811 0.021819826
0.021813137 -0.020621402 -0.021567434 -0.021954386 0.02085225 0.029313251 -0.02250689 -0.024045698
-3.772974e-09 -0.02248077 -0.023442231 0.021916853 0.019720735 -0.02169796 0.02248359 0.020420382
-0.020414233 -0.022479417 -0.023046233 0.023154037 0.024281412 0.0218624 0.02300711 -0.022246603
0.022753468 -0.023350634 -69.97742 -64.7194 -107.44991 -91.303215 -61.510094 0.740388
6.1217904 -3.3032308 18.211147 7.30968 4.299448 9.995608 21.119583 6.9581957
12.864038 12.09115 5.7315125 10.659321 -6.3471622 8.987924 18.707405 11.994913
12.818191 2.0691087 17.184889 9.829872 15.703591 8.913963 17.537628 14.334119
-63.868176 -61.75503 -34.780094 -38.17491 -62.616566 2.5956378 9.112782 5.783185
8.936718 7.1071715 2.6432998 5.3437023 9.73053 7.0450907 7.1449475 3.2395945
3.6931453 6.6145153 0.5730934 1.9001323 8.89026 4.783213 10.203311 3.7136762
7.7175317 11.358364 11.202733 4.959543 11.571928 10.834622 -0.021369278 0.020290896
-0.02182757 -0.020105984 -0.022975108 0.022135071 0.021457255 -0.021893913 0.021603351 -0.022169963
0.022047538 0.02193225 0.021260286 0.021976613 -0.021967491 0.021806493 -0.022755072 0.020238776
-0.02252888 0.022275291 -0.021677343 0.02277578 0.022018174 -0.021489939 0.02156153 -0.022412231
0.021648396 -0.021542633 0.022504132 -0.02170496 0.023364848 -0.02122288 -0.0227103 0.021711838
-0.023186816 0.022579892 -0.023912234 0.022175478 -0.02298146 0.021919198 0.022498976 0.021702878
-0.015444067 -0.021942455 -0.022013126 0.021138893 0.022087615 0.02112695 -0.020703584 0.021895934
0.021456927 0.023445291 -0.022284625 0.021817626 -0.021808978 -0.02189276 0.023519145 -0.02204769
0.014535942 -0.029658731 -0.022128701 0.021917632 0.02221342 -0.020291887 -0.02202963 -0.02159991
-0.022253988 -0.0209922 -0.0220331 -0.02136376 -0.02193805 -0.021701546 0.019894684 -0.023174515
-0.022020994 -0.020990841 -3.772974e-09 0.022344489 -0.02205689 0.021429854 -0.02046512 -0.021478767
0.02169488 -0.022560857 0.023715755 -0.02178598 -0.021811647 0.022116005 0.022387093 -0.021992363
5.0825553 3.1191847 1.8723947 2.8645403 4.3951097 2.1948647 2.9891748 2.51777
4.4236856 3.3343227 2.1519778 2.544512 3.5476463 3.5803506 3.503225 3.132357

bias f4 [64]
00000000: bec7 81c2 fba5 fec1 e307 e7be 7002 78c2
00000010: f727 92c1 34e3 5ac0 25c8 7abf 4564 00bf
00000020: 7aa6 fdc1 9c9e 17bf a558 eabe d2e8 ecbe
00000030: d3cb 53bf 5ccc 4bc2 a26b 1bbf 731f 53c2
00000040: 8bfe 1dbf ecca b5c1 e238 dfbe 262b 99c2
00000050: 6b2c a8bf 34fe 1abf b967 4ebf 12ca 3dbf
00000060: e5a0 19bf a6d0 4bc1 52ef fcc1 b37c 70c2
00000070: 264a e7be a0eb 65bf 8052 8142 8799 69c0
00000080: ba25 9dbf 3a4a fabe 617f a7be 95f7 54c0
00000090: e015 1ec1 4071 c2be 9d3d 05c2 8881 0bbf
000000a0: 887c 42bf b210 14bf d8a2 a0c0 b978 8cc1
000000b0: 5516 a1c1 8e55 e2c1 8877 60bf 7bbf 69c1
000000c0: 2f5a 19bf f102 f1be 9a76 c3bf fe6d 09bf
000000d0: da5c 01c2 a3fe edbe cc03 01bf 28ea 08bf
000000e0: c4e7 7fc0 b5b4 1ac2 c49a 37c2 3ee1 ddbe
000000f0: 4425 c8be 5f75 79c2 d485 5642 e2e2 f9be
-64.89012 -31.831045 -0.45123205 -62.00238 -18.269514 -3.4201174 -0.97961646 -0.50153
-31.706287 -0.59226394 -0.45770755 -0.46271378 -0.82732886 -50.94957 -0.6071111 -52.780712
-0.61716527 -22.724083 -0.43598086 -76.584274 -1.3138555 -0.60544133 -0.8062702 -0.7413646
-0.6001113 -12.73844 -31.616856 -60.121777 -0.45173758 -0.8981266 64.66113 -3.6499956
-1.2277138 -0.48884755 -0.3271437 -3.3276112 -9.880341 -0.37977028 -33.31017 -0.54494524
-0.7597127 -0.57837975 -5.0198784 -17.558947 -20.135904 -28.291775 -0.8768239 -14.609248
-0.59903234 -0.47072557 -1.5270569 -0.5368346 -32.340675 -0.46483335 -0.5039642 -0.53482294
-3.9985209 -38.67647 -45.90114 -0.4333591 -0.3909093 -62.36462 53.63069 -0.4880591

weight f4 [1, 64]
00000000: de67 a83f fc1b 91bf 67c5 afbc 4271 7d3f
00000010: 2b78 913f 8170 b33c 91c7 b03c 4caa b33c
00000020: d0f8 81bf 517d b23c e3d7 b13c c8b3 aabc
00000030: f937 b83c 5c12 81bf cb09 b3bc 111b 6fbf
00000040: 345c acbc a185 b33c 9425 b33c 3d73 2c42
00000050: f9e5 b33c 7267 afbc 626a b23c dbeb b3bc
00000060: f0d5 ab3c 4ae7 b3bc 2a85 3bbf 99cd ba3f
00000070: 6ac2 ae3c f722 b03c 9dab e140 4c74 b33c
00000080: 5846 adbc a8c0 b23c 05ec b13c 0760 b3bc
00000090: c93b b3bc dd80 b33c eee0 58bf f75a b43c
000000a0: b868 b73c 9bb2 b7bc d59b b3bc 143d b23c
000000b0: b933 b13c a74d b5bc cd20 b4bc 89b9 b7bc
000000c0: 4985 b73c 2a0f b13c 4886 a63c 6f47 c1bc
000000d0: 6a94 4abf c014 b1bc aaec b0bc b17c bc3c
000000e0: ac46 b3bc fde8 a6bf 34aa c33f 8718 afbc
000000f0: 9aa1 b53c 1038 a73f fa5b 0341 82d2 b23c
1.3156698 -1.1336665 -0.021456433 0.9900094 1.1364797 0.021904232 0.021579536 0.02193179
-1.0154057 0.021788271 0.021709388 -0.02083768 0.022487627 -1.0083728 -0.021855256 -0.93400675
-0.02104006 0.021914305 0.021868505 43.112537 0.021960245 -0.021411631 0.021779243 -0.02196305
0.020976037 -0.021960873 -0.7325007 1.4593993 0.021332938 0.021501048 7.052199 0.02190604
-0.021151707 0.021820381 0.021718988 -0.021896375 -0.021879094 0.021912033 -0.84718215 0.022016032
0.022388801 -0.022424033 -0.021924892 0.02175764 0.021631109 -0.022131754 -0.021988297 -0.022427337
0.022402423 0.021613676 0.020327702 -0.023593633 -0.7913271 -0.02161634 -0.021597225 0.023008676
-0.021884285 -1.3039852 1.5286317 -0.021374 0.022171784 1.3063984 8.209955 0.021828894
