data/sslp/nn_p_l15_c45_nsp10000_nse5000_sd7.pt (torch, 18399 bytes, 3 tensors)

weight f4 [64, 60]
-116.17238 -117.05397 -115.943596 -114.35097 -120.6902 -120.481285 -118.24382 -113.63167
-117.10779 -115.08202 -117.50769 -114.19875 -115.79376 -116.42217 -113.84115 6.7841325
6.5938945 2.1509783 4.0602436 2.646572 3.3480453 5.909957 4.511112 6.237896
2.153352 4.9998765 4.0400715 3.557531 1.6050421 4.8523755 7.391391 3.1014228
1.9712216 3.3784118 3.282956 3.3119235 3.8593493 1.7586441 0.77388287 4.73257
1.9101269 3.2612562 4.7853646 3.9665565 9.858017 4.6098323 2.619686 3.226293
6.1937017 6.9493756 4.457231 2.6110969 4.0809503 0.963226 3.060147 1.0464901
4.479457 1.1676717 2.3958843 4.337979 -0.03153625 0.019722037 -0.026035218 0.03394747
-0.0073423986 0.0102534415 0.033347156 0.032428868 0.03481013 0.034639183 -0.020322304 -0.014681228
-0.0371438 -0.013438421 -0.015761232 0.025232565 -0.040976226 -0.014084249 -0.017870827 -0.023533557
0.0054259677 -0.027836528 -0.029768558 0.029476104 -0.033618286 0.011515838 0.020010337 -0.011832663
-0.012612092 -0.023673156 0.014765556 -0.010477883 0.016845027 -0.025772946 -0.02573476 -0.014557018
0.031168437 0.031468473 -0.030219337 -0.02159061 -0.022345308 0.010112819 0.016067056 -0.006205466
-0.038192537 0.02585443 -0.01756552 0.029807385 0.02024372 0.034496125 0.029429289 0.022272758
-0.027568381 0.02840694 0.032267794 0.021163145 0.034567498 -0.016699767 0.029791605 0.021121077
-0.022371847 0.021356553 -0.021006098 0.022542441 0.022509765 0.021485345 -0.021811487 -0.021208098
-0.021761041 0.021166895 -0.022101725 -0.022028036 0.020459455 -0.02126698 0.022062644 0.02167885
0.021786444 0.0221581 0.023893878 0.021869784 0.02203324 0.021550028 -0.022638217 -0.02218245
-0.022884615 -0.022417722 0.022491604 0.019606696 0.021920575 -0.021765925 0.022162816 0.0208288
-0.022469325 -0.021471234 0.02221271 0.021664001 0.022707911 -0.021147225 0.022448007 0.02213988
-0.022005808 -0.021436624 -0.021635395 -0.022374526 -0.020599786 0.022094838 0.021214627 0.021462953
-0.022096837 -0.0206585 0.022529993 -0.022303795 -0.021740345 0.022300972 0.022083336 0.021804184
-0.022947175 0.02125174 -0.023630453 0.021700732 -0.022211922 -0.021685053 -0.021080744 0.02120966
-0.020514717 -0.021805882 0.022730274 0.022889704 0.021778882 0.021189371 0.021046234 0.02228126
-0.020677643 -0.02144176 -0.022595083 0.021681124 0.02271124 0.02247161 -0.022280725 0.02125771
0.020746678 -0.021972707 0.020170497 -0.02199181 0.021157356 0.02255986 0.022983653 -0.020497156
-0.022818122 0.023244018 -0.021779781 0.024254499 -0.021755546 -0.022795042 0.021362934 -0.020632097
-0.021063956 -0.021113692 0.022073666 -0.020952115 -0.023179723 0.02174018 0.02256679 -0.043830026
-0.021532033 0.02200202 -0.022892483 0.02214008 0.020802367 0.02305318 -0.022189137 -0.022670357
-0.021860864 -0.023449285 -0.021762867 -0.02076744 0.022947041 0.02052759 0.020114899 -0.020907272
-0.020693406 0.022086848 -0.021232557 -0.020345066 0.021402631 -0.023148373 -0.020514036 -0.020700438
0.023026722 -0.023231072 0.02083184 -0.021519458 -0.022362517 0.02198544 0.02218259 0.022674052
00000000: 4258 e8c2 a21b eac2 1fe3 e7c2 b2b3 e4c2
00000010: 6261 f1c2 6bf6 f0c2 d67c ecc2 6a43 e3c2
00000020: 3037 eac2 ff29 e6c2 f003 ebc2 c365 e4c2
00000030: 6896 e7c2 27d8 e8c2 abae e3c2 9d17 d940
00000040: 2f01 d340 a1a9 0940 84ed 8140 7061 2940
00000050: 6046 5640 5e1e bd40 085b 9040 d89c c740
00000060: 85d0 0940 fdfe 9f40 4448 8140 97ae 6340
00000070: 0572 cd3f a946 9b40 4686 ec40 b67d 4640
00000080: fd50 fc3f e637 5840 f31b 5240 8ef6 5340
00000090: 94ff 7640 401b e13f 301d 463f 3771 9740
000000a0: 0a7f f43f 6cb8 5040 b521 9940 10dc 7d40
000000b0: 70ba 1d41 bf83 9340 efa8 2740 967b 4e40
000000c0: ce32 c640 4961 de40 a3a1 8e40 361c 2740
000000d0: 2597 8240 fb95 763f 73d9 4340 63f3 853f
000000e0: b657 8f40 4476 953f 2b56 1940 b9d0 8a40
000000f0: 282c 01bd 1c90 a13c cf47 d5bc 810c 0b3d
00000100: 8198 f0bb 0dfe 273c 0797 083d 22d4 043d
00000110: 1195 0e3d d1e1 0d3d f67a a6bc 8989 70bc
00000120: 1924 18bd d32c 5cbc b31d 81bc 86b4 ce3c
00000130: b0d6 27bd 9fc1 66bc d765 92bc 72c9 c0bc
00000140: 51cc b13b 6e09 e4bc 31dd f3bc df77 f13c
00000150: 54b3 09bd edac 3c3c b8ec a33c c9dd 41bc
00000160: f3a2 4ebc 35ee c1bc 3beb 713c 6dab 2bbc
00000170: 95fe 893c c921 d3bc b4d1 d2bc 8f80 6ebc
00000180: f354 ff3c 16e5 003d 8b8e f7bc cade b0bc
00000190: 820d b7bc 3db0 253c 0f9f 833c 3957 cbbb
000001a0: c76f 1cbd abcc d33c 91e5 8fbc 9e2e f43c
000001b0: 28d6 a53c cf4b 0d3d b115 f13c 5c75 b63c
000001c0: 16d7 e1bc acb5 e83c 3c2b 043d 555e ad3c
000001d0: a696 0d3d f3cd 88bc 860d f43c 1c06 ad3c
000001e0: 2a45 b7bc f0f3 ae3c fb14 acbc edaa b83c
000001f0: 6666 b83c 0902 b03c 01ae b2bc 9bbc adbc
00000200: 3644 b2bc 3266 ad3c ad0e b5bc 2474 b4bc
00000210: 969a a73c 1738 aebc b8bc b43c d897 b13c
00000220: 7c79 b23c e784 b53c 18bd c33c 4328 b33c
00000230: 0e7f b43c af89 b03c c873 b9bc f8b7 b5bc
00000240: 8478 bbbc 5fa5 b7bc 5040 b83c 399e a03c
00000250: c792 b33c 744e b2bc cb8e b53c 29a1 aa3c
00000260: 9711 b8bc 71e4 afbc 6ef7 b53c b478 b13c
00000270: f105 ba3c f23c adbc e2e4 b73c b25e b53c
00000280: 8645 b4bc dc9b afbc b63c b1bc c84a b7bc
00000290: e2c0 a8bc 3c00 b53c 4cca ad3c 13d3 af3c
000002a0: 6d04 b5bc 043c a9bc d290 b83c 73b6 b6bc
000002b0: cf18 b2bc 87b0 b63c 1de8 b43c b09e b23c
000002c0: b7fb bbbc 2118 ae3c a794 c1bc bcc5 b13c
000002d0: c7f5 b5bc daa4 b1bc 86b1 acbc e2bf ad3c
000002e0: 7b0e a8bc 40a2 b2bc d734 ba3c 3083 bb3c
000002f0: a069 b23c 5595 ad3c 2769 ac3c 3087 b63c
00000300: 2964 a9bc a1a6 afbc 5319 b9bc 9d9c b13c
00000310: ec0c ba3c 6216 b83c 1186 b6bc a624 ae3c
00000320: f0f4 a93c 1b00 b4bc 993c a53c 2b28 b4bc
00000330: 3152 ad3c 75cf b83c 3748 bc3c a7e9 a7bc
00000340: 12ed babc 3d6a be3c 836b b2bc 5fb1 c63c
00000350: b038 b2bc abbc babc 5201 af3c a504 a9bc
00000360: 518e acbc 9ff6 acbc d5d3 b43c c5a3 abbc
00000370: 67e3 bdbc 7618 b23c fddd b83c 1d87 33bd
00000380: f263 b0bc 953d b43c 0489 bbbc 1d5f b53c
00000390: ba69 aa3c 06da bc3c fec5 b5bc 2fb7 b9bc
000003a0: 8e15 b3bc b718 c0bc 0a48 b2bc 7a20 aabc
000003b0: 6ffb bb3c 7a29 a83c 00c8 a43c ba45 abbc
000003c0: 3885 a9bc 7aef b43c e6ef adbc b2aa a6bc
000003d0: 9254 af3c a8a1 bdbc 0d0d a8bc f793 a9bc
000003e0: 89a2 bc3c 174f bebc 89a7 aa3c 9349 b0bc
000003f0: 9931 b7bc cf1a b43c 43b8 b53c efbe b93c

bias f4 [64]
160.11882 -0.66123 -7.0543027 -0.43016714 -0.55033493 -0.56012654 -0.692331 -0.48194352
-5.5105977 -0.8667142 -16.710941 -0.4180964 -0.45615885 90.17045 -0.5044985 -0.5392655
-0.47978058 -0.6333736 -12.922293 -0.36990917 -70.044914 -0.7447383 -0.32731137 -68.519264
-0.5290029 -16.988634 -19.766209 -68.25354 -45.874012 -0.56094337 -13.689673 -7.149239
-0.51463497 -0.77651906 -0.4202571 -0.56490135 -22.009012 -31.326162 -0.49790385 -28.398092
-89.82077 -23.30446 -0.44182506 -0.7713517 -0.41437903 -15.125404 -84.73294 -0.54572135
-90.21359 -0.55177444 -6.1917343 -20.053297 -0.4635744 -0.435256 -0.37863252 -0.77461964
-6.7327204 -21.180775 -23.877026 -16.12135 -11.810263 -0.53559375 -0.54034936 -7.704435
00000000: 6b1e 2043 5f46 29bf d9bc e1c0 de3e dcbe
00000010: c0e2 0cbf 7464 0fbf 9b3c 31bf 4dc1 f6be
00000020: d156 b0c0 fbe0 5dbf 02b0 85c1 bb10 d6be
00000030: a78d e9be 4557 b442 d026 01bf 4e0d 0abf
00000040: cda5 f5be c624 22bf b6c1 4ec1 bc64 bdbe
00000050: ff16 8cc2 2ba7 3ebf 5b95 a7be dd09 89c2
00000060: bc6c 07bf b9e8 87c1 3221 9ec1 d081 88c2
00000070: fd7e 37c2 fc99 0fbf e708 5bc1 91c6 e4c0
00000080: 1ebf 03bf f4c9 46bf f02b d7be 609d 10bf
00000090: 7512 b0c1 fb9b fac1 41ed febe 4b2f e3c1
000000a0: 3ca4 b3c2 896f bac1 e536 e2be 4e77 45bf
000000b0: 7d29 d4be a801 72c1 4477 a9c2 65b4 0bbf
000000c0: 5c6d b4c2 1741 0dbf b022 c6c0 276d a0c1
000000d0: a059 edbe e0d9 debe 1fdc c1be 794d 46bf
000000e0: 7272 d7c0 3a72 a9c1 2604 bfc1 86f8 80c1
000000f0: d6f6 3cc1 ac1c 09bf 5654 0abf bb8a f6c0

weight f4 [1, 64]
4.4890885 -0.021297138 -0.021810627 -0.021070328 0.022265483 -0.022210393 -0.021390727 0.022909159
0.021917447 0.013236591 -0.85643697 0.022249177 0.022390297 1.4681107 0.021883266 0.021899648
-0.021801453 -0.021821553 0.021923466 0.021403447 -0.7246338 0.018610436 0.022117352 -0.8770047
-0.022925561 0.02190369 -0.82506514 -0.7734567 -0.7106401 0.022407409 -0.891304 -0.021887513
0.021837873 -0.027793132 -0.022084763 0.021560011 -10.508861 -0.81219405 0.021551143 -0.76935536
-0.9296052 -0.86227596 0.022431353 0.019660737 0.021352971 -0.022038974 -0.8622506 0.02238746
-0.99066824 0.022556808 -0.021934042 -0.022000376 -0.021609396 0.02173664 -0.022177907 0.022669934
-0.021844406 -0.9030047 -0.87677157 -0.8980539 0.021955173 -0.022049924 0.022706294 -0.021887932
00000000: 9da6 8f40 5677 aebc 33ac b2bc ae9b acbc
00000010: 1a66 b63c 92f2 b5bc 9b3b afbc fdab bb3c
00000020: 388c b33c 49de 583c 743f 5bbf e843 b63c
00000030: db6b b73c 0deb bb3f 8944 b33c e466 b33c
00000040: f698 b2bc 1dc3 b2bc d798 b33c 4856 af3c
00000050: 9a81 39bf ea74 983c 732f b53c 6183 60bf
00000060: 63ce bbbc 5e6f b33c 7837 53bf 4201 46bf
00000070: 82ec 35bf be8f b73c 802c 64bf 714d b3bc
00000080: 57e5 b23c 6cae e3bc 1beb b4bc 9f9e b03c
00000090: 4b24 28c1 f3eb 4fbf 068c b03c 79f4 44bf
000000a0: 9bfa 6dbf 1ebe 5cbf f5c1 b73c 8e0f a13c
000000b0: 6dec ae3c 148b b4bc 75bc 5cbf e865 b73c
000000c0: 6f9c 7dbf 0ec9 b83c 05af b3bc 223a b4bc
000000d0: 3006 b1bc 0a11 b23c 71ae b5bc 4cb6 b93c
000000e0: 0af3 b2bc 512b 67bf 1a74 60bf dce6 65bf
000000f0: 56db b33c 0ba2 b4bc 8d02 ba3c 524e b3bc
