data/sslp/nn_p_l10_c50_nsp10000_nse5000_sd7.pt (torch, 18399 bytes, 3 tensors)

weight f4 [64, 60]
-0.023297856 0.020748345 0.02181394 -0.020885201 0.023404084 -0.020545252 0.025415478 0.023160595
-0.021909313 0.020332081 0.021995703 0.022838024 -0.023210216 0.021401774 0.021151127 0.021180164
-0.019934231 0.023530101 0.022101743 -0.02198291 -0.022653412 -0.02218454 -0.021553585 -0.022557732
0.020579277 -0.022421617 -0.022525046 -0.019795341 -0.020579271 -0.023185918 0.022048848 -0.021877255
-0.023147577 0.022954475 -0.020637704 -0.02243478 0.022533435 0.022076657 0.020769414 -0.023355016
-0.021286245 -0.01872456 -0.020464366 0.021044495 -0.019888094 0.020658394 0.020051885 -0.023130793
0.023037061 -0.02184084 0.023373181 -0.0209281 0.021263313 0.021433823 0.021695398 0.02313631
0.021826565 -0.01990962 -0.0221967 0.023430845 0.023075582 0.021357436 -0.03570339 0.022696054
0.021677835 -0.034034546 -0.034847375 -0.014625265 -0.022503942 -0.034580015 0.02247305 -0.021592127
-0.013162955 -0.021518948 -0.03407916 -0.036119387 0.020621685 0.022474246 -0.022213805 -0.0363432
-0.014978244 -0.034869816 -0.036312502 0.023223914 0.020732952 -0.03513405 -0.035883516 -0.036473524
-0.034653302 -0.013219311 -0.035967015 0.022574877 -0.022252873 -0.013456597 -0.034664985 0.020706706
-0.035218567 -0.0140458485 -0.013740077 -0.02234706 0.02155886 -0.034249984 -0.033791002 -0.035149876
-0.02121221 0.021502744 -0.03392106 -0.023072843 -0.034756146 0.022694116 0.022297282 0.021486802
0.02290483 0.021157298 -0.013723685 -0.022664674 -0.0362329 0.022806566 -0.03541773 -0.034874495
-0.022983301 -0.02024401 -0.020470748 0.022271426 -0.020117873 -0.019990262 -0.022356141 0.022213873
0.02246263 0.023431165 -0.022097286 -0.022030693 0.023572486 0.0222278 0.022728445 0.022047665
0.022239463 -0.022005811 -0.021776363 0.021998268 -0.022078732 -0.021560797 -0.021093845 0.020810237
0.022103718 0.022457855 -0.021587849 0.022044832 0.022412494 -0.022708315 -0.021521805 -0.021367352
0.022242289 -0.021766344 0.022098301 -0.022046331 0.020124262 0.021767372 -0.02174987 -0.02176502
0.021675048 -0.021842359 -0.02207828 0.022019966 0.021360854 -0.02218401 0.021819206 -0.022222396
0.02042243 -0.021879394 0.021664685 -0.021337053 -0.021618871 0.021343248 -0.022022916 -0.021978572
0.022864956 -0.022200666 -0.021944912 0.021233413 -0.020709746 -0.02236591 0.022390924 0.02235806
-0.022410112 -0.021514872 0.02243834 0.02195642 -0.022016192 -0.023308616 -0.0211559 0.022867607
0.02304027 -0.02186065 0.020829804 0.021730622 -0.022785315 0.023398109 -0.022939539 0.02096625
0.02173256 0.021974014 -0.022247016 0.021531397 -0.022728343 -0.02129472 0.021309158 -0.02143554
-0.02101099 0.020830292 -0.021135278 0.021881346 0.022004312 -0.022280244 -0.022945458 0.022716371
-0.022305766 -0.021649944 0.020960798 -0.021148322 0.021371339 -0.020926349 0.021221433 0.021491917
0.02155388 -0.021422124 -0.022410192 -0.02268538 -0.022488778 -0.022955852 0.022730013 -0.022799185
-0.020385597 -0.02196701 -0.020783056 -0.021737138 0.021692617 -0.021528354 0.021491658 -0.021268776
-3.772974e-09 -0.022799991 0.023108 -0.021596551 0.0034321956 0.02186707 -0.02166339 -0.022564467
0.02218249 0.02319842 -0.022083009 -0.022799158 0.020906186 0.021721318 0.02222463 -0.022344563
00000000: 25db bebc 6ff8 a93c 26b3 b23c 7117 abbc
00000010: ecb9 bf3c 844e a8bc 1f34 d03c 4abb bd3c
00000020: 297b b3bc 778f a63c 5530 b43c cf16 bb3c
00000030: 5a23 bebc c652 af3c 2145 ad3c 0682 ad3c
00000040: 1d4d a3bc 33c2 c03c b70e b53c 8115 b4bc
00000050: a693 b9bc 5abc b5bc 2591 b0bc feca b8bc
00000060: df95 a83c 8aad b7bc 7286 b8bc d729 a2bc
00000070: dc95 a8bc 65f0 bdbc c99f b43c ee37 b3bc
00000080: fd9f bdbc 060b bc3c 6710 a9bc 25c9 b7bc
00000090: 0a98 b83c 1bda b43c 9e24 aa3c 0553 bfbc
000000a0: 7e60 aebc 4064 99bc e3a4 a7bc 8165 ac3c
000000b0: 5bec a2bc cb3b a93c da43 a43c ca7c bdbc
000000c0: 38b8 bc3c 90eb b2bc 1d79 bf3c 6871 abbc
000000d0: 6630 ae3c fc95 af3c 8cba b13c 5c88 bd3c
000000e0: a0cd b23c 8019 a3bc dbd5 b5bc 0bf2 bf3c
000000f0: 0109 bd3c caf5 ae3c b83d 12bd 13ed b93c
00000100: b795 b13c cf67 0bbd 1fbc 0ebd cf9e 6fbc
00000110: 305a b8bc c6a3 0dbd 6719 b83c f9e1 b0bc
00000120: 6fa9 57bc 8148 b0bc 9796 0bbd ecf1 13bd
00000130: cfee a83c e91b b83c baf9 b5bc 9bdc 14bd
00000140: 4f67 75bc a7d3 0ebd 6bbc 14bd 1440 be3c
00000150: 27d8 a93c b9e8 0fbd 98fa 12bd 4365 15bd
00000160: 9ff0 0dbd cf95 58bc 2652 13bd f3ee b83c
00000170: a84b b6bc 0f79 5cbc dffc 0dbd 1ca1 a93c
00000180: 5841 10bd 8f20 66bc 0f1e 61bc 2e11 b7bc
00000190: 359c b03c b649 0cbd 6f68 0abd 51f9 0fbd
000001a0: 3bc5 adbc 8626 b03c cff0 0abd 4203 bdbc
000001b0: 765c 0ebd 03e9 b93c caa8 b63c 1705 b03c
000001c0: e9a2 bb3c 1252 ad3c 4fd9 60bc 44ab b9bc
000001d0: f368 14bd d6d4 ba3c 2f12 11bd 8fd8 0ebd
000001e0: 7a47 bcbc c4d6 a5bc 45b2 a7bc 9172 b63c
000001f0: 3dce a4bc 9ec2 a3bc 3a24 b7bc def9 b53c
00000200: 8d03 b83c b7f2 bf3c 5e05 b5bc b679 b4bc
00000210: 161b c13c 1317 b63c 0131 ba3c 4e9d b43c
00000220: 892f b63c 8845 b4bc 5864 b2bc b635 b43c
00000230: 75de b4bc 45a0 b0bc 00cd acbc 3b7a aa3c
00000240: db12 b53c 89f9 b73c 00d9 b0bc 5d97 b43c
00000250: 689a b73c ca06 babc 7f4e b0bc 960a afbc
00000260: 7635 b63c 554f b2bc 7f07 b53c 829a b4bc
00000270: a3db a43c 7d51 b23c c92c b2bc 8e4c b2bc
00000280: df8f b13c bfee b2bc 82dd b4bc 3763 b43c
00000290: f5fc ae3c 3ebb b5bc 31be b23c be0b b6bc
000002a0: f14c a73c 6a3c b3bc 237a b13c 0bcb aebc
000002b0: 0f1a b1bc 09d8 ae3c 6769 b4bc 680c b4bc
000002c0: 4a4f bb3c 2cde b5bc d1c5 b3bc b2f1 ad3c
000002d0: 7ca7 a9bc b638 b7bc 2c6d b73c 4028 b73c
000002e0: 6995 b7bc f53f b0bc 9cd0 b73c f3dd b33c
000002f0: 4d5b b4bc b6f1 bebc 234f adbc d954 bb3c
00000300: f3be bc3c 1b15 b3bc 44a3 aa3c 6b04 b23c
00000310: 45a8 babc 64ad bf3c b3eb bbbc 6ac1 ab3c
00000320: 7b08 b23c d902 b43c 603f b6bc 9d62 b03c
00000330: ca30 babc 4472 aebc 8b90 ae3c 9699 afbc
00000340: 3d1f acbc 4aa4 aa3c e423 adbc 8240 b33c
00000350: 6342 b43c 0f85 b6bc 1df8 bbbc af17 ba3c
00000360: 95ba b6bc 395b b1bc fbb5 ab3c 3f3f adbc
00000370: f212 af3c bc6d abbc 92d8 ad3c d10f b03c
00000380: c391 b03c 737d afbc 9495 b7bc b1d6 b9bc
00000390: 633a b8bc e90d bcbc 4b34 ba3c 5bc5 babc
000003a0: b2ff a6bc 29f4 b3bc 3a41 aabc 1512 b2bc
000003b0: b7b4 b13c 3b5c b0bc 460f b03c db3b aebc
000003c0: 6ea3 81b1 0cc7 babc fd4c bd3c 40eb b0bc
000003d0: b0ee 603b 9222 b33c 6c77 b1bc 1ed9 b8bc
000003e0: 0eb8 b53c 9d0a be3c 6de7 b4bc 4dc5 babc
000003f0: 7343 ab3c e8f0 b13c 6d10 b63c f20b b7bc

bias f4 [64]
-0.46412927 -0.7668502 -7.3804226 -0.43016714 -0.55033493 -0.56012654 19.247723 -0.9062548
-57.9918 -1.2897369 -46.593426 -0.4180964 -8.135776 -0.685743 -0.5044985 -16.531216
-0.47978058 0.6555726 -8.170933 71.32587 -13.441514 -0.45349663 -0.7655565 -28.103333
-0.5290029 -7.6606045 -10.289403 -15.414754 -62.49726 -0.56094337 -57.915234 -67.45283
-0.51463497 67.97484 -0.4202571 -0.56490135 -58.900654 -19.928812 -0.49790385 -53.941044
-43.19578 -70.59777 -0.8801249 -0.81606084 -0.41437903 -49.22888 -8.347302 -0.54572135
0.30904287 -0.99408364 -9.685327 -8.104113 -0.4635744 -0.435256 -0.95427936 -0.7868837
-54.795784 -1.3965902 -13.761399 -33.568085 -14.166259 -0.53559375 -0.54034936 -48.11022
00000000: 5aa2 edbe 4b50 44bf 6c2c ecc0 de3e dcbe
00000010: c0e2 0cbf 7464 0fbf 56fb 9941 5100 68bf
00000020: 9af7 67c2 1916 a5bf ab5f 3ac2 bb10 d6be
00000030: 232c 02c1 da8c 2fbf d026 01bf ee3f 84c1
00000040: cda5 f5be 9bd3 273f 24bc 02c1 d8a6 8e42
00000050: 7110 57c1 b630 e8be 83fb 43bf a0d3 e0c1
00000060: bc6c 07bf ac23 f5c0 65a1 24c1 d5a2 76c1
00000070: 32fd 79c2 fc99 0fbf 33a9 67c2 d9e7 86c2
00000080: 1ebf 03bf 1ef3 8742 f02b d7be 609d 10bf
00000090: 459a 6bc2 356e 9fc1 41ed febe a1c3 57c2
000000a0: 7bc8 2cc2 0f32 8dc2 de4f 61bf 5de9 50bf
000000b0: 7d29 d4be 60ea 44c2 8d8e 05c1 65b4 0bbf
000000c0: de3a 9e3e 447c 7ebf 19f7 1ac1 72aa 01c1
000000d0: a059 edbe e0d9 debe a74b 74bf 3671 49bf
000000e0: e22e 5bc2 78c3 b2bf b12e 5cc1 b845 06c2
000000f0: ffa8 62c1 ac1c 09bf 5654 0abf de70 40c2

weight f4 [1, 64]
0.022668017 0.025731344 0.022028917 -0.021984654 0.020969357 -0.022295974 5.3840837 -0.022423971
-0.8385237 0.020989161 -1.0996797 -0.022717772 0.021890217 -0.021911938 -0.021728374 -0.021030372
-0.022526309 2.512815 0.02184874 6.1824956 0.021919668 0.021949371 0.0359971 3.6558828
-0.021507889 0.021916062 0.021778429 -0.021965101 -1.0776601 -0.023203248 -1.23523 -1.0167975
-0.02194984 4.656912 -0.021903718 0.021099007 -0.8079725 -0.02169038 -0.022045722 -1.0479145
-1.4044657 -1.1573172 0.014831514 0.02162764 0.021399634 -0.72357637 -0.021965303 -0.021934677
-11.681175 -0.026898466 0.02189252 0.021949966 0.022222778 0.021516303 0.028101437 -0.022868754
-0.91895306 -0.021886872 0.021930775 1.2242242 -0.022000838 0.021916196 0.022419276 -0.8571124
00000000: 47b2 b93c 8aca d23c fd75 b43c 2919 b4bc
00000010: eec7 ab3c 0ca6 b6bc 6a4a ac40 7ab2 b7bc
00000020: 7da9 56bf 76f1 ab3c 4ec2 8cbf 9f1a babc
00000030: 1d53 b33c aa80 b3bc b4ff b1bc e347 acbc
00000040: 1889 b8bc f6d1 2040 21fc b23c 01d7 c540
00000050: e090 b33c 2bcf b33c b271 133d fcf9 6940
00000060: 5031 b0bc 5089 b33c ad68 b23c 28f0 b3bc
00000070: c4f0 89bf bd14 bebc 041c 9ebf 6c26 82bf
00000080: 27d0 b3bc 6c05 9540 6d6f b3bc d3d7 ac3c
00000090: 49d7 4ebf 06b0 b1bc 3b99 b4bc 1022 86bf
000000a0: 88c5 b3bf f822 94bf e1ff 723c 732c b13c
000000b0: 494e af3c 4d3c 39bf 94f0 b3bc 5ab0 b3bc
000000c0: 18e6 3ac1 2c5a dcbc f157 b33c 6ad0 b33c
000000d0: 8b0c b63c f542 b03c fc34 e63c 4157 bbbc
000000e0: 8240 6bbf 194c b3bc 2ba8 b33c 61b3 9c3f
000000f0: 1a3b b4bc 9889 b33c a1a8 b73c b86b 5bbf
