data/cflp/nn_e_f50_c50_r2.0_iss1_bt1_nsp10000_nse5000_sd7.pt (torch, 176207 bytes, 7 tensors)

weight f4 [64, 50]
-0.8053068 -0.80344635 -0.8067451 -0.80527025 -0.8089398 -0.80728793 -0.8054521 -0.8068227
-0.8053444 -0.8885382 -0.80571437 -0.89128673 -0.8062436 -0.8901134 -0.89007455 -0.8875928
-0.88884616 -0.889571 -0.80447286 -0.888748 -0.810463 -0.88824147 -0.810292 -0.804509
-0.8881209 -0.8030682 -0.80693555 -0.8048093 -0.8040735 -0.8917702 -0.80583555 -0.80721533
-0.80468047 -0.8893873 -0.80924976 -0.8055074 -0.80990255 -0.888652 -0.807325 -0.88989556
-0.88935715 -0.80369544 -0.8073614 -0.88778836 -0.8913655 -0.8060097 -0.8054824 -0.8081407
-0.80450773 -0.8907658 -0.75476044 -0.71460336 -0.7731216 -0.7509151 -0.7101535 -0.8513421
-0.9287612 -0.89014965 -0.84133434 -0.8386846 -0.82463884 -0.74484986 -0.7800666 -0.9223305
-0.8644308 -0.8554189 -0.7407664 -0.8730275 -0.88012797 -0.84513694 -0.8577917 -0.8576162
-0.95447975 -0.7015328 -0.750705 -0.8875769 -0.90721244 -0.8186059 -0.7455828 -0.920779
-0.8755027 -0.7662864 -0.91089594 -0.83876413 -0.92586035 -0.69665164 -0.749719 -0.94768393
-0.89842314 -0.7751937 -0.8166299 -0.7875324 -0.9342231 -0.89570737 -0.7617292 -0.9261734
-0.85189295 -0.7634002 -0.75276005 -0.8148734 -0.79865783 -0.77673805 -0.85601234 -0.87812024
-0.73172534 -0.70191365 -0.7741371 -0.9012141 -0.9623432 -0.978865 -0.83858293 -0.8936603
-0.8750545 -0.8594089 -0.70602185 -0.70573014 -0.8527005 -0.88192093 -0.77096176 -0.85081995
-0.9738479 -0.79355985 -0.70439696 -0.9514337 -0.87004447 -0.8089209 -0.95444876 -0.9603547
-0.7341251 -0.88949007 -0.7571435 -0.82690465 -0.80510265 -0.9336428 -0.8696926 -0.74642205
-0.7747653 -0.8803009 -0.8221993 -0.7314761 -0.9632245 -0.7488726 -0.8819208 -0.86826956
-0.77238303 -0.9568058 -0.8608648 -0.70465034 -0.78869516 -0.89170676 -0.15281992 -0.1977145
-0.16812877 -0.1845783 -0.20754977 -0.15309407 -0.182987 -0.17529804 -0.14705907 -0.15932426
-0.19219178 -0.19819567 -0.17933102 -0.19144745 -0.1968033 -0.19891869 -0.16485076 -0.1875217
-0.17985083 -0.16500217 -0.18453549 -0.17366181 -0.15915206 -0.1962993 -0.1934755 -0.18847135
-0.14371704 -0.16748147 -0.20304899 -0.16409816 -0.19838585 -0.13953863 -0.1726225 -0.1451777
-0.16979691 -0.1670177 -0.15285149 -0.17031924 -0.17494324 -0.14718524 -0.16398643 -0.18825512
-0.1820459 -0.15983757 -0.19123197 -0.18667844 -0.16896188 -0.15582062 -0.17368741 -0.18738647
-0.8299771 -0.707013 -0.85490286 -0.6946565 -0.6719825 -0.7105698 -0.7281731 -0.7526034
-0.8612482 -0.79873276 -0.7574952 -0.8332013 -0.77545714 -0.7241436 -0.9149495 -0.90987307
-0.869437 -0.78575265 -0.82474214 -0.77349055 -0.8300717 -0.88732916 -0.7849882 -0.71416825
-0.87431794 -0.68739057 -0.7686261 -0.6718102 -0.91339856 -0.9217178 -0.75649726 -0.9132701
-0.9026819 -0.7345743 -0.7381583 -0.9144128 -0.70767903 -0.82721484 -0.7055062 -0.8730473
-0.92098707 -0.8854521 -0.82161707 -0.92415076 -0.8122527 -0.8643603 -0.8300453 -0.80243623
-0.7940895 -0.920487 -0.044970144 0.038132586 0.03802696 -0.044768624 -0.045897875 0.03854818
00000000: 9628 4ebf a9ae 4dbf d986 4ebf 3126 4ebf
00000010: ae16 4fbf 6caa 4ebf 1c32 4ebf ef8b 4ebf
00000020: 0d2b 4ebf 3d77 63bf 4c43 4ebf 5e2b 64bf
00000030: fb65 4ebf 79de 63bf eddb 63bf 4839 63bf
00000040: 6c8b 63bf edba 63bf eff1 4dbf fd84 63bf
00000050: 817a 4fbf cb63 63bf 4c6f 4fbf 4df4 4dbf
00000060: e45b 63bf e195 4dbf 5493 4ebf fb07 4ebf
00000070: c3d7 4dbf 0d4b 64bf 3d4b 4ebf aaa5 4ebf
00000080: 8aff 4dbf e3ae 63bf fe2a 4fbf bc35 4ebf
00000090: c655 4fbf b37e 63bf daac 4ebf 32d0 63bf
000000a0: e9ac 63bf fcbe 4dbf 3daf 4ebf 1946 63bf
000000b0: 8830 64bf a756 4ebf 1834 4ebf 4fe2 4ebf
000000c0: 38f4 4dbf 3a09 64bf fb37 41bf 3ff0 36bf
000000d0: 4ceb 45bf f93b 40bf 9fcc 35bf 8ef1 59bf
000000e0: 4bc3 6dbf d9e0 63bf b061 57bf 09b4 56bf
000000f0: 881b 53bf 7bae 3ebf 72b2 47bf da1d 6cbf
00000100: 564b 5dbf bcfc 5abf dea2 3dbf bb7e 5fbf
00000110: 1150 61bf e55a 58bf 3d98 5bbf bc8c 5bbf
00000120: c958 74bf a797 33bf 342e 40bf 3d38 63bf
00000130: 133f 68bf 2890 51bf 84de 3ebf 2cb8 6bbf
00000140: f220 60bf 582b 44bf 7a30 69bf 3fb9 56bf
00000150: 2f05 6dbf c357 32bf 96ed 3fbf 6a9b 72bf
00000160: 0fff 65bf 1873 46bf a80e 51bf b99b 49bf
00000170: 3f29 6fbf 144d 65bf af00 43bf b319 6dbf
00000180: a815 5abf 326e 43bf e2b4 40bf 8b9b 50bf
00000190: d774 4cbf 4ed8 46bf a023 5bbf 7dcc 60bf
000001a0: 5a52 3bbf 9db0 33bf d92d 46bf f8b5 66bf
000001b0: 205c 76bf e696 7abf 5fad 56bf ecc6 64bf
000001c0: 9203 60bf 3902 5cbf d9bd 34bf bbaa 34bf
000001d0: 944a 5abf 92c5 61bf c05d 45bf 56cf 59bf
000001e0: 194e 79bf bd26 4bbf 5c53 34bf 2991 73bf
000001f0: 3cbb 5ebf 7115 4fbf c156 74bf ced9 75bf
00000200: 9fef 3bbf 9fb5 63bf 28d4 41bf 06b0 53bf
00000210: 351b 4ebf 3703 6fbf 2da4 5ebf 8415 3fbf
00000220: 0557 46bf 665b 61bf a77b 52bf 0542 3bbf
00000230: e195 76bf 1db6 3fbf 90c5 61bf ea46 5ebf
00000240: e5ba 45bf 3af1 74bf a361 5cbf f763 34bf
00000250: ede7 49bf e546 64bf d37c 1cbe ab75 4abe
00000260: f329 2cbe 1802 3dbe ed87 54be b1c4 1cbe
00000270: f260 3bbe 5481 33be a796 16be e625 23be
00000280: eccd 44be cef3 4abe 8da2 37be cd0a 44be
00000290: ce86 49be 57b1 4bbe a3ce 28be b005 40be
000002a0: d12a 38be 54f6 28be dff6 3cbe 67d4 31be
000002b0: c2f8 22be af02 49be 711e 46be a2fe 40be
000002c0: 8f2a 13be 4380 2bbe 13ec 4fbe 5909 28be
000002d0: a925 4bbe 37e3 0ebe f4c3 30be 77a9 14be
000002e0: 3edf 2dbe b006 2bbe 1a85 1cbe 2b68 2ebe
000002f0: 5224 33be bab7 16be 0fec 27be f3c5 40be
00000300: 3e6a 3abe 76ac 23be 50d2 43be a228 3fbe
00000310: 5804 2dbe 718f 1fbe 1ddb 31be 3de2 3fbe
00000320: 6179 54bf cefe 34bf eada 5abf 02d5 31bf
00000330: 0c07 2cbf e7e7 35bf 8d69 3abf 9eaa 40bf
00000340: c37a 5cbf c079 4cbf 35eb 41bf ae4c 55bf
00000350: 5c84 46bf 7a61 39bf 213a 6abf 71ed 68bf
00000360: 6c93 5ebf 1627 49bf 4d22 53bf 7a03 46bf
00000370: 947f 54bf 0128 63bf fdf4 48bf bbd3 36bf
00000380: 4dd3 5fbf d4f8 2fbf aec4 44bf c1fb 2bbf
00000390: 7dd4 69bf b3f5 6bbf cea9 41bf 12cc 69bf
000003a0: 2916 67bf 100d 3cbf f1f7 3cbf f516 6abf
000003b0: 742a 35bf 5ac4 53bf 0e9c 34bf 0780 5fbf
000003c0: cfc5 6bbf fdac 62bf 7f55 52bf 2595 6cbf
000003d0: cbef 4fbf b746 5dbf d97d 54bf 766c 4dbf
000003e0: 7349 4bbf 09a5 6bbf 9d32 38bd ea30 1c3d
000003f0: 28c2 1b3d 4e5f 37bd 69ff 3bbd b2e4 1d3d

weight f4 [128, 64]
0.041695055 -0.041919813 0.041919816 -0.76115024 0.041919813 -0.76840705 0.041919813 0.041919813
0.041919816 -0.041919813 -0.041919813 -0.041919813 0.0027026164 -0.041919813 0.041919816 -0.041920006
-1.4171536 0.041919816 -0.041919813 0.041919816 -0.041919816 -0.041919813 0.041919816 0.041919813
-0.041919816 -0.041919816 -0.82717454 -0.041919813 0.001350697 -0.041919813 0.041919813 -0.041919813
0.041919816 -0.041919816 -0.041919805 -0.041919816 0.017065676 -0.041919813 -0.041919816 -0.84849584
-0.041919816 0.041919816 0.041919813 0.041919813 0.041919816 0.041919813 0.041919816 -0.041919813
0.041919816 0.041919813 -0.041919813 -0.041919813 0.041919813 0.041919813 -0.041919816 -0.041919813
0.041778725 -0.041919813 -0.041919813 -0.041919813 0.041919813 -0.041920003 0.041872665 0.041919805
-0.8799778 0.0005810068 0.00051354454 -0.041919813 -0.0006169952 0.041919816 -0.041919813 -0.041919813
-0.041919813 -0.0005366088 0.039787542 0.041919805 -0.7964802 -0.0005493561 0.00052311865 0.005807966
-0.9360993 0.0004272897 0.0005278104 0.00054215157 -0.0005183645 0.041919816 0.00048469863 -0.0004911664
-0.041919813 -0.00041508384 -0.041920006 0.0005733401 -0.041919816 0.0005873251 0.0005439669 0.0005651928
-0.0005416238 -0.0005653523 0.041919805 -0.0005778202 -0.87886286 0.03863681 0.00049635296 -0.041919805
-0.041919816 -0.0005418041 0.0005500031 -0.00051948597 0.0005494744 0.0005653952 0.00047215002 -0.00052891875
0.038582776 0.039149564 0.041919813 0.00055693643 -0.03842901 0.038783506 -0.0005478075 0.00057450467
-0.03854417 -0.0005513499 0.0005634858 -0.00051124906 0.041919813 -0.0018177262 -0.041775905 0.041919813
-0.38347986 -0.00048079639 -0.00050002243 -0.041919813 0.0004919339 0.04191981 -0.00085356523 -0.0020214838
-0.17351884 -0.0004873706 0.041919805 -0.30259666 0.041626733 0.0003754277 0.0004547736 -0.005119582
-0.0027349952 0.00045179974 -0.000611637 0.00049448066 0.0003920094 -0.33228233 -0.0005536789 -0.00048221354
-0.041919813 0.0004452889 0.041920003 0.00046114897 -0.041919816 -0.00037953266 0.0004783939 0.0004746328
0.00047105897 -0.00046587063 -0.24877688 -0.000447553 -0.38248247 0.041919805 -0.00046396907 -0.041919805
-0.041919813 -0.00043708363 0.0003759639 -0.00050141255 0.00047185805 -0.00047639344 -0.00047565802 0.0005547376
0.041919805 0.041919813 -0.041919813 -0.000462845 -0.04191981 -0.041919805 0.00039770012 0.0005130106
-0.0028314432 0.00045606244 0.0004411629 0.0005066093 0.0033051576 -0.0016027874 -0.041919813 0.003960428
0.024911378 -0.00046820036 -0.00048414443 -0.041919805 -0.00039618046 0.041919813 0.00085356523 0.0020145697
0.14369425 -0.00055798027 0.041919813 0.26291063 -0.7964046 0.0004889781 -0.00046284354 -0.005221848
-3.2727494 0.0005096937 0.0003618337 -0.00047063496 -0.0005664162 0.37770697 -0.0003742762 0.00047545697
0.041919813 -0.00049201824 -0.041920003 -0.00047236978 0.041919813 0.00051771785 0.00045838594 -0.00053134304
0.00057227 0.00045436612 0.24877688 0.0005494393 0.032022197 0.041919805 0.00054306205 -0.041919805
0.041919813 0.00043946816 -0.00048750924 0.0006050314 -0.000550665 -0.00049921335 0.00045614634 0.0005034713
0.041919813 -0.041919805 0.041919805 0.000542814 0.041919805 -0.041919813 -0.00039544364 -0.0004871777
0.0028015475 0.0004952257 -0.00047502073 -0.0005395583 -0.0033051576 -0.0016199967 0.041919816 -0.003960941
00000000: 6fc8 2a3d 1cb4 2bbd 1db4 2b3d beda 42bf
00000010: 1cb4 2b3d 53b6 44bf 1cb4 2b3d 1cb4 2b3d
00000020: 1db4 2b3d 1cb4 2bbd 1cb4 2bbd 1cb4 2bbd
00000030: 611e 313b 1cb4 2bbd 1db4 2b3d 50b4 2bbd
00000040: 4a65 b5bf 1db4 2b3d 1cb4 2bbd 1db4 2b3d
00000050: 1db4 2bbd 1cb4 2bbd 1db4 2b3d 1cb4 2b3d
00000060: 1db4 2bbd 1db4 2bbd b6c1 53bf 1cb4 2bbd
00000070: df09 b13a 1cb4 2bbd 1cb4 2b3d 1cb4 2bbd
00000080: 1db4 2b3d 1db4 2bbd 1ab4 2bbd 1db4 2bbd
00000090: 51cd 8b3c 1cb4 2bbd 1db4 2bbd 0637 59bf
000000a0: 1db4 2bbd 1db4 2b3d 1cb4 2b3d 1cb4 2b3d
000000b0: 1db4 2b3d 1cb4 2b3d 1db4 2b3d 1cb4 2bbd
000000c0: 1db4 2b3d 1cb4 2b3d 1cb4 2bbd 1cb4 2bbd
000000d0: 1cb4 2b3d 1cb4 2b3d 1db4 2bbd 1cb4 2bbd
000000e0: 2b20 2b3d 1cb4 2bbd 1cb4 2bbd 1cb4 2bbd
000000f0: 1cb4 2b3d 4fb4 2bbd ac82 2b3d 1ab4 2b3d
00000100: 3a46 61bf b54e 183a 649f 063a 1cb4 2bbd
00000110: d9bd 21ba 1db4 2b3d 1cb4 2bbd 1cb4 2bbd
00000120: 1cb4 2bbd 35ab 0cba 43f8 223d 1ab4 2b3d
00000130: 20e6 4bbf aa02 10ba e621 093a c050 be3b
00000140: 34a4 6fbf da05 e039 c25c 0a3a 2d1f 0e3a
00000150: dae2 07ba 1db4 2b3d 261f fe39 9ec1 00ba
00000160: 1cb4 2bbd 9c9f d9b9 50b4 2bbd 344c 163a
00000170: 1db4 2bbd b8f6 193a 0099 0e3a 7229 143a
00000180: c2fb 0dba 2734 14ba 1ab4 2b3d db78 17ba
00000190: 28fd 60bf a241 1e3d af1d 023a 1ab4 2bbd
000001a0: 1db4 2bbd dc07 0eba 152e 103a 1d2e 08ba
000001b0: 9a0a 103a 0837 143a e78a f739 23a7 0aba
000001c0: f908 1e3d 4b5b 203d 1cb4 2b3d 5fff 113a
000001d0: bd67 1dbd 74db 1e3d bd9a 0fba 5b9a 163a
000001e0: 7ee0 1dbd 7788 10ba e4b6 133a 5805 06ba
000001f0: 1cb4 2b3d c540 eeba 361d 2bbd 1cb4 2b3d
00000200: 7957 c4be 6613 fcb9 f013 03ba 1cb4 2bbd
00000210: 20f5 003a 1bb4 2b3d cbc1 5fba df7a 04bb
00000220: ecae 31be c685 ffb9 1ab4 2b3d f3ed 9abe
00000230: cb80 2a3d 0ed5 c439 ae6e ee39 2bc2 a7bb
00000240: 9b3d 33bb 89df ec39 4456 20ba 09a0 013a
00000250: 9c86 cd39 e920 aabe c324 11ba 9bd1 fcb9
00000260: 1cb4 2bbd aa75 e939 4fb4 2b3d 5ec6 f139
00000270: 1db4 2bbd 03fc c6b9 f1d0 fa39 23d8 f839
00000280: 77f8 f639 1940 f4b9 5ebf 7ebe 8ca5 eab9
00000290: bed4 c3be 1ab4 2b3d e040 f3b9 1ab4 2bbd
000002a0: 1cb4 2bbd 5f28 e5b9 051d c539 3a71 03ba
000002b0: b763 f739 72c4 f9b9 bd61 f9b9 cf6b 113a
000002c0: 1ab4 2b3d 1cb4 2b3d 1cb4 2bbd 01aa f2b9
000002d0: 1bb4 2bbd 1ab4 2bbd 6882 d039 8f7b 063a
000002e0: bc8f 39bb aa1b ef39 e24b e739 facd 043a
000002f0: 589b 583b 9f14 d2ba 1cb4 2bbd 7ac6 813b
00000300: f212 cc3c ca78 f5b9 c4d4 fdb9 1ab4 2bbd
00000310: 71b6 cfb9 1cb4 2b3d cbc1 5f3a df06 043b
00000320: 9624 133e 6c45 12ba 1cb4 2b3d 399c 863e
00000330: 2ce1 4bbf c42e 003a cfa9 f2b9 091c abbb
00000340: ba74 51c0 f79c 053a 7fb4 bd39 8ebf f6b9
00000350: 8c7b 14ba cf62 c13e 803a c4b9 c146 f939
00000360: 1cb4 2b3d c9fa 00ba 4fb4 2bbd 66a8 f7b9
00000370: 1cb4 2b3d 75b7 073a 8553 f039 d449 0bba
00000380: 6404 163a fd37 ee39 5ebf 7e3e 3f08 103a
00000390: b529 033d 1ab4 2b3d 475c 0e3a 1ab4 2bbd
000003a0: 1cb4 2b3d 6b68 e639 6298 ffb9 f89a 1e3a
000003b0: 815a 10ba a4dd 02ba ed26 ef39 63fb 033a
000003c0: 1cb4 2b3d 1ab4 2bbd 1ab4 2b3d a24b 0e3a
000003d0: 1ab4 2b3d 1cb4 2bbd 8c53 cfb9 e26b ffb9
000003e0: 2b9a 373b 09d2 013a 340c f9b9 2571 0dba
000003f0: 589b 58bb 1256 d4ba 1db4 2b3d c8ca 81bb

weight f4 [8, 128]
-0.041920003 -1.1316199 0.00017362971 -0.0027631072 0.041920006 -0.8793057 -0.22841841 -1.0187155
-1.1128324 -1.4709351 0.00022302885 -0.7964676 -0.7954692 -0.6985375 -0.88030446 -0.6754083
0.041920006 -0.041919813 -1.1617078 -0.000267076 -0.67238 -0.7964616 0.00016833066 -0.89242095
-1.1037738 -0.8803133 -0.8797053 -0.79647017 -0.041920006 -1.9671807 -0.7964679 -1.1094025
-0.7964733 -1.1212904 -0.041920006 -0.002903293 -0.7964693 -0.79647684 -8.926253e-05 -0.7964704
-0.5820494 -0.10266649 -0.87927294 -0.7798683 -1.1124219 -0.8108695 0.041920006 -1.098156
-0.63004655 -0.24198328 -0.8803177 0.041920006 -0.67241496 -0.6052134 -1.1500963 0.00016983968
-0.00031001304 -0.8803037 -0.8802986 -0.8802963 -0.041920006 -1.0983176 -0.79610664 -0.672383
-0.8108609 -0.8219791 -0.8803038 -0.0002845738 -0.79646057 -0.00017345241 -0.000669008 -1.1607175
-0.795954 -0.7964679 -0.795514 -0.00016140411 -0.00016031257 0.00011642003 -0.0030480567 -0.7964664
-0.00020944561 -0.6044662 -0.8803115 0.00012764634 -0.79646575 -1.1394578 -0.041920006 -0.68944114
-1.1070565 -0.88029516 -0.79646784 -0.6043372 -1.9410489 -1.0940021 -0.000200821 -0.87987334
-0.88030624 -0.5810083 -0.8040807 -0.688356 -0.041920006 -0.0001838967 -0.19996959 -0.0038854615
0.0419198 0.041920006 -1.9292927 -1.9961865 -1.1074001 -0.00031694653 0.0041484023 -0.041920006
-0.8803076 -0.061663438 -0.041920003 -0.7964756 -1.1100501 -1.8861355 -0.4641754 -1.1054952
-0.59609336 -0.6731132 0.0419198 -1.0871904 -0.7963719 0.041920003 -0.0028573768 -0.041920006
-0.041919407 0.027150711 -0.027332105 0.6624952 -0.041919805 0.0419198 0.7402845 -0.030900717
-0.61830324 -0.027680177 0.028759861 -1.7338475 0.041919447 0.03704034 0.036199324 -0.04111883
-0.0419198 -0.67296827 -0.027498273 -0.66495305 -0.041920006 -0.040662896 -0.9065199 -1.0438901
0.027346542 0.041920006 -0.7114012 0.041868903 -0.7612885 0.04124371 0.04191481 0.62005883
-0.041836027 0.026413951 -0.041920003 -0.033072982 0.041920006 -1.7226756 0.0018394823 -0.04191635
-0.027428638 -0.03857021 -0.041919813 0.032245792 0.6895762 0.041920003 -0.68655306 0.6518388
0.037025046 0.041919522 -1.5153583 -0.04005885 -0.6865606 -0.041920003 0.027505139 -0.027529161
0.5797317 -1.7662584 0.035625845 -0.04056861 -0.041919813 -0.027598912 0.041920003 -0.041920003
-0.6824386 -0.027274366 0.036249246 -0.01828111 0.0409976 0.028517852 -0.03954493 0.027433125
-0.787622 0.04191678 -0.041920006 -0.020003313 0.67478675 -0.67237777 -0.03975129 0.03638428
-0.021411104 0.040848833 0.02029655 0.257925 -0.035915054 -0.68567806 -1.3122541 -0.75721514
0.6540339 0.040657733 0.041910075 0.041920006 0.65207434 0.6350778 0.033762522 -0.7915225
-1.769876 -0.029781323 0.04046944 -0.04191912 -0.041913982 0.0010970071 0.0400944 0.02790433
0.039679218 -1.3170317 -0.028660128 0.7145064 0.027072629 -0.6551507 -0.041507073 -0.0419198
0.041915487 0.023048826 0.022541929 -1.7134286 0.36218023 -0.027251158 0.027487967 0.027358808
-0.028376566 0.014471837 0.29745904 -0.0017123994 0.041920006 0.041920003 -0.70240027 0.041920006
00000000: 4fb4 2bbd ecd8 90bf 5f10 3639 3f15 35bb
00000010: 50b4 2b3d 2e1a 61bf 84e6 69be 4565 82bf
00000020: 4b71 8ebf 9a47 bcbf dadc 6939 4de5 4bbf
00000030: dfa3 4bbf 5bd3 32bf a25b 61bf 8fe7 2cbf
00000040: 50b4 2b3d 1cb4 2bbd d7b2 94bf 5506 8cb9
00000050: 1821 2cbf e8e4 4bbf eb81 3039 b375 64bf
00000060: 7648 8dbf 365c 61bf 5e34 61bf 78e5 4bbf
00000070: 50b4 2bbd 94cc fbbf 52e5 4bbf e700 8ebf
00000080: ade5 4bbf 7286 8fbf 50b4 2bbd 2c45 3ebb
00000090: 69e5 4bbf e8e5 4bbf 7532 bbb8 7ce5 4bbf
000000a0: 3101 15bf cf42 d2bd 0818 61bf 73a5 47bf
000000b0: d763 8ebf 2595 4fbf 50b4 2b3d 6090 8cbf
000000c0: bb4a 21bf 77ca 77be 805c 61bf 50b4 2b3d
000000d0: 6323 2cbf 44ef 1abf 5b36 93bf fe16 3239
000000e0: 3f89 a2b9 955b 61bf 405b 61bf 195b 61bf
000000f0: 50b4 2bbd ac95 8cbf a5cd 4bbf 4b21 2cbf
00000100: 9494 4fbf 396d 52bf 975b 61bf d932 95b9
00000110: d7e4 4bbf c7e0 35b9 5e60 2fba 6492 94bf
00000120: a4c3 4bbf 52e5 4bbf cea6 4bbf 963e 29b9
00000130: 9419 28b9 8726 f438 e8c1 47bb 39e5 4bbf
00000140: a19e 5bb9 4cbe 1abf 185c 61bf ced8 0539
00000150: 2ee5 4bbf c1d9 91bf 50b4 2bbd 377f 30bf
00000160: 07b4 8dbf 065b 61bf 51e5 4bbf d8b5 1abf
00000170: 4a74 f8bf 4308 8cbf 7a93 52b9 613f 61bf
00000180: c05b 61bf f6bc 14bf 3cd8 4dbf 1938 30bf
00000190: 50b4 2bbd 65d4 40b9 d4c4 4cbe 3aa3 7ebb
000001a0: 19b4 2b3d 50b4 2b3d 10f3 f6bf 0a83 ffbf
000001b0: 49bf 8dbf d82b a6b9 52ef 873b 50b4 2bbd
000001c0: d75b 61bf cd92 7cbd 4fb4 2bbd d3e5 4bbf
000001d0: 1f16 8ebf e36c f1bf 66a8 edbe de80 8dbf
000001e0: 9399 18bf 2651 2cbf 19b4 2b3d 0e29 8bbf
000001f0: 07df 4bbf 4fb4 2b3d d442 3bbb 50b4 2bbd
00000200: afb3 2bbd 2b6b de3c 94e7 dfbc 4999 293f
00000210: 1ab4 2bbd 19b4 2b3d 4983 3d3f 8023 fdbc
00000220: 1f49 1ebf 8ac1 e2bc cd99 eb3c b7ee ddbf
00000230: bab3 2b3d 9db7 173d be45 143d 386c 28bd
00000240: 19b4 2bbd a647 2cbf 0f44 e1bc 5d3a 2abf
00000250: 50b4 2bbd 238e 26bd b011 68bf 319e 85bf
00000260: db05 e03c 50b4 2b3d 641e 36bf ba7e 2b3d
00000270: cee3 42bf 2aef 283d ddae 2b3d 2dbc 1e3f
00000280: 415c 2bbd 1262 d83c 4fb4 2bbd 8977 07bd
00000290: 50b4 2b3d a280 dcbf c91a f13a 7bb0 2bbd
000002a0: 06b2 e0bc ccfb 1dbd 1cb4 2bbd 2a14 043d
000002b0: 1188 303f 4fb4 2b3d f1c1 2fbf e8de 263f
000002c0: 93a7 173d ceb3 2b3d 43f7 c1bf c014 24bd
000002d0: 6fc2 2fbf 4fb4 2bbd 7552 e13c d684 e1bc
000002e0: 4c69 143f c114 e2bf 68ec 113d 452b 26bd
000002f0: 1cb4 2bbd 1d17 e2bc 4fb4 2b3d 4fb4 2bbd
00000300: 4cb4 2ebf 7e6e dfbc 177a 143d 44c2 95bc
00000310: 19ed 273d 459e e93c ddf9 21bd 6fbb e03c
00000320: 98a1 49bf eeb0 2b3d 50b4 2bbd fddd a3bc
00000330: d3be 2c3f f320 2cbf 40d2 22bd af07 153d
00000340: 5766 afbc 1b51 273d f344 a63c bf0e 843e
00000350: aa1b 13bd 9988 2fbf f1f7 a7bf dad8 41bf
00000360: c46e 273f b988 263d e6a9 2b3d 50b4 2b3d
00000370: 58ee 263f 7594 223f 924a 0a3d 38a1 4abf
00000380: 4c8b e2bf f6f7 f3bc 49c3 253d 62b3 2bbd
00000390: ffad 2bbd 73c9 8f3a 073a 243d 9f97 e43c
000003a0: ad86 223d 7f94 a8bf a5c8 eabc e4e9 363f
000003b0: 6bc7 dd3c f5b7 27bf 5203 2abd 19b4 2bbd
000003c0: 93af 2b3d e4d0 bc3c daa9 b83c a151 dbbf
000003d0: b06f b93e d23d dfbc 722e e13c 941f e03c
000003e0: f975 e8bc 491b 6d3c 8d4c 983e 9772 e0ba
000003f0: 50b4 2b3d 4fb4 2b3d 81d0 33bf 50b4 2b3d

bias f4 [8]
-1.7507044 -1.0881847 -0.84040105 -1.6285871 0.17078887 -0.87313867 -2.4884803 -1.6704556
00000000: 1517 e0bf a349 8bbf 8624 57bf 8b75 d0bf
00000010: 47e3 2e3e 0486 5fbf 4343 1fc0 7dd1 d5bf

weight f4 [512, 58]
-0.006409781 0.0055089686 -0.0056334888 -0.0053938436 0.0056957784 -0.0072984975 -0.007346162 0.008122003
-0.006428286 -0.0050613796 -0.0067358892 -0.003878772 0.00623688 -0.0072716563 0.0029387404 -0.006008856
-0.0061880467 0.0047774883 -0.005752963 -0.006325715 -0.006073606 -0.0049859863 0.0037031085 0.0068014422
-0.0048973444 -0.007887094 0.0072963405 -0.0052903295 0.0073780403 0.0035602418 -0.009179337 -0.0061669946
-0.007217261 -0.003260629 0.0073464755 0.00566759 0.008947472 -0.0060209488 0.005980502 0.007909252
0.008458931 0.008291175 0.008122545 -0.0048629576 -0.0042543537 0.0065834275 0.007824363 -0.007283273
0.003837577 0.006582329 0.8553499 0.041906267 -0.041919805 -0.767487 -0.041906733 -0.04190874
-0.43950275 0.8691235 -1.6281716 -1.3486673 -5.049175 -2.7649865 -4.3839 -1.2406499
-4.287595 -4.9378734 -2.5114648 -4.129667 -2.034353 -5.7484922 -3.4761946 -2.7245939
-1.9625511 -3.1541705 -1.8089366 -4.2930856 -5.095182 -5.5484433 -4.183537 -6.602463
-3.4582999 -7.1350093 -4.049721 -6.2988477 -3.96773 -2.482223 -1.9099209 -3.4531262
-3.660715 -3.7826798 -4.135944 -5.9951644 -1.2102827 -3.141805 -3.517736 -4.703034
-6.4355006 -2.4282196 -4.417318 -6.712989 -2.8592541 -5.4175525 -1.37351 -5.139061
-5.535797 -3.5725753 -3.0834794 -0.11324712 0.3696832 -0.0003477169 0.025769837 -0.00038831367
-0.058021016 -0.00033756281 0.40123385 -0.6007556 -0.40415975 -2.4480832 -8.813228 -1.0489115
-2.1047342 -0.42985246 -8.38437 -9.598842 -0.12743497 -3.5943596 -2.0975718 -6.349152
-5.4832563 -1.7390634 0.8430603 -6.351022 -1.115326 -3.9331758 -5.89213 -7.925525
-4.2165427 -6.4214225 0.21630634 -7.492566 -4.5028105 -3.2519813 -6.722087 -2.4337342
-1.9108802 -4.9788203 -2.512685 -3.9412088 -7.0494347 -7.713733 -3.8069153 -3.4750855
-2.794857 -6.0812306 -7.3482723 -3.3869328 -8.216274 -6.4279175 -2.9264016 -3.9317756
-4.8382125 -3.3279705 -7.0555377 -1.0643942 -1.9892334 -0.31900913 0.8185969 -0.68896717
-0.037194006 9.7968536e-05 -0.07138265 -0.8002934 0.041919805 0.8368061 -4.963883 1.3073866
-9.576312 -4.3662205 -8.769015 -7.7743797 -3.0410933 -8.320539 -3.443965 -10.605479
0.16522919 -12.300124 -3.4584234 -8.742473 -4.8734393 -7.816745 -1.2364016 -11.3015585
-9.085947 -9.826589 -9.350522 -13.857392 -10.179454 -17.018967 -5.522911 -15.612347
-4.5743456 -7.256737 -4.3170347 -8.371921 -8.123302 -5.3335953 -6.9262047 -8.871351
-0.45227993 1.3133967 -6.284386 -10.178984 -16.074976 -7.3251905 -10.452288 -12.979021
-6.5013924 -11.618901 -7.6026998 -7.039462 -11.305636 -9.271895 -10.2374 -3.2598383
0.8108434 0.00039273239 0.07762434 -0.005003954 -0.06056194 -0.00031367526 0.35254052 0.73642665
-0.9579605 -2.577327 -7.0997376 -1.4048651 -2.6972013 -0.1687016 -8.203249 -8.163339
-1.5411737 -4.6476116 -3.2703753 -7.2356215 -4.9881268 -1.2521192 -0.85550797 -7.2103806
-1.9059448 -4.558878 -5.866896 -7.629336 -3.8197882 -7.1436 -0.7331655 -7.130643
00000000: 2409 d2bb 9484 b43b 2199 b8bb d7be b0bb
00000010: a7a3 ba3b 3c28 efbb 13b8 f0bb 2612 053c
00000020: 5fa4 d2bb eed9 a5bb bcb8 dcbb ff32 7ebb
00000030: be5e cc3b 1347 eebb e297 403b f0e5 c4bb
00000040: 19c5 cabb 7a8c 9c3b 5a83 bcbb f247 cfbb
00000050: 1a05 c7bb 7c61 a3bb daaf 723b a2de de3b
00000060: e779 a0bb df38 01bc 2416 ef3b 805a adbb
00000070: 7dc3 f13b f252 693b ee64 16bc 8014 cabb
00000080: c67e ecbb 47b0 55bb b4ba f03b 31b7 b93b
00000090: 6b98 123c 614b c5bb 16f8 c33b cf95 013c
000000a0: 5497 0a3c b5d7 073c 6c14 053c 7259 9fbb
000000b0: 1b68 8bbb cbb9 d73b c231 003c 86a8 eebb
000000c0: dc7f 7b3b 94b0 d73b 36f8 5a3f e8a5 2b3d
000000d0: 1ab4 2bbd 077a 44bf 65a6 2bbd 80a8 2bbd
000000e0: 8106 e1be e17e 5e3f ed67 d0bf 21a1 acbf
000000f0: d792 a1c0 8af5 30c0 e948 8cc0 9ecd 9ebf
00000100: fa33 89c0 0f03 9ec0 d7bb 20c0 3b26 84c0
00000110: d732 02c0 a6f3 b7c0 f979 5ec0 bf5f 2ec0
00000120: e034 fbbf eedd 49c0 3c8b e7bf f560 89c0
00000130: bb0b a3c0 d98c b1c0 89df 85c0 6047 d3c0
00000140: c954 5dc0 ff51 e4c0 5097 81c0 2990 c9c0
00000150: 4aef 7dc0 bedc 1ec0 4a78 f4bf 0500 5dc0
00000160: 2849 6ac0 6d17 72c0 a759 84c0 63d8 bfc0
00000170: 8bea 9abf 5513 49c0 9622 61c0 417f 96c0
00000180: 9fef cdc0 f367 1bc0 ab5a 8dc0 ced0 d6c0
00000190: 05fe 36c0 975c adc0 2dcf afbf 3073 a4c0
000001a0: 4025 b1c0 13a5 64c0 ba57 45c0 1bee e7bd
000001b0: 1e47 bd3e c64d b6b9 441b d33c 9496 cbb9
000001c0: 72a7 6dbd eafa b0b9 866e cd3e 1ecb 19bf
000001d0: 07ee cebe 65ad 1cc0 fb02 0dc1 bb42 86bf
000001e0: f7b3 06c0 9f15 dcbe 6126 06c1 db94 19c1
000001f0: 507e 02be fd09 66c0 9e3e 06c0 412c cbc0
00000200: d676 afc0 a199 debf cdd2 573f 923b cbc0
00000210: 01c3 8ebf 27b9 7bc0 548c bcc0 e79d fdc0
00000220: ebed 86c0 4b7c cdc0 697f 5d3e 1ac3 efc0
00000230: 0617 90c0 7620 50c0 561b d7c0 4dc2 1bc0
00000240: b997 f4bf 7f52 9fc0 d5cf 20c0 c43c 7cc0
00000250: f894 e1c0 e7d6 f6c0 80a4 73c0 cd67 5ec0
00000260: f0de 32c0 7199 c2c0 0c25 ebc0 82c3 58c0
00000270: dc75 03c1 80b1 cdc0 2a4a 3bc0 36a2 7bc0
00000280: a3d2 9ac0 78fd 54c0 f7c6 e1c0 123e 88bf
00000290: 339f febf 2a55 a3be 918f 513f 2760 30bf
000002a0: be58 18bd 7574 cd38 1131 92bd 07e0 4cbf
000002b0: 1ab4 2b3d ed38 563f 21d8 9ec0 7258 a73f
000002c0: 9338 19c1 14b8 8bc0 e34d 0cc1 b8c7 f8c0
000002d0: 46a1 42c0 ee20 05c1 ec69 5cc0 0bb0 29c1
000002e0: d731 293e 4fcd 44c1 cf56 5dc0 2be1 0bc1
000002f0: 37f3 9bc0 c622 fac0 6842 9ebf 2fd3 34c1
00000300: 0a60 11c1 b539 1dc1 bd9b 15c1 e1b7 5dc1
00000310: 0bdf 22c1 d826 88c1 b0bb b0c0 2ccc 79c1
00000320: 0a61 92c0 3137 e8c0 2625 8ac0 63f3 05c1
00000330: 0cf9 01c1 d0ac aac0 78a3 ddc0 0ef1 0dc1
00000340: 3c91 e7be 621d a83f b119 c9c0 1edd 22c1
00000350: 8d99 80c1 f667 eac0 923c 27c1 12aa 4fc1
00000360: 680b d0c0 05e7 39c1 5149 f3c0 4643 e1c0
00000370: e3e3 34c1 af59 14c1 64cc 23c1 31a1 50c0
00000380: 6f93 4f3f a6e7 cd39 83f9 9e3d 35f8 a3bb
00000390: cc0f 78bd c874 a4b9 3180 b43e 7586 3c3f
000003a0: e63c 75bf edf2 24c0 0d31 e3c0 9fd2 b3bf
000003b0: f29e 2cc0 1dc0 2cbe 8240 03c1 099d 02c1
000003c0: 2e45 c5bf 3cb9 94c0 d44d 51c0 368a e7c0
000003d0: bc9e 9fc0 7145 a0bf 9202 5bbf 70bb e6c0
000003e0: 00f6 f3bf 54e2 91c0 9dbd bbc0 8523 f4c0
000003f0: 6977 74c0 5f98 e4c0 bcb0 3bbf 3a2e e4c0

bias f4 [512]
-2.385419 107.67584 120.028435 90.656204 119.988976 108.7803 -2.2572577 123.0038
106.61919 0.94365233 83.7012 -3.3782237 -3.5636504 112.77353 102.383675 -4.6716366
106.37868 -5.6513658 -1.9975766 90.331604 -0.031003272 120.79117 0.473527 -3.9484878
-0.32245478 107.567535 112.08935 -2.4189074 -1.6992201 112.32235 116.2913 -3.8757064
2.337684 -1.3949082 -2.3530931 -0.19135527 105.01399 -1.6995462 115.67448 -4.043852
-0.4380121 -1.8923599 111.11074 0.48271847 -0.37396187 118.965225 118.491264 112.682724
-2.3144002 -1.3850825 -0.2723635 -1.463216 -0.2958891 114.32454 -4.7531066 113.72556
78.07912 -2.4173996 83.64645 102.52827 104.21562 -2.97828 -6.9740725 -0.26403537
-0.7946557 -2.8806627 105.11948 -5.148559 118.543976 110.91873 -0.56390315 -1.5704718
116.05405 122.026054 -3.121019 -2.5606236 -3.3571887 118.76354 96.88873 121.98179
-3.2927973 104.536705 -3.1970797 117.1567 -4.692055 -2.4601545 0.75382257 0.8934926
114.88258 109.56004 121.87326 120.04118 125.00659 106.21162 -0.44337255 0.07509956
122.936584 -2.369117 -3.4641964 -3.3950486 106.78759 -2.3218381 -2.4378538 115.878586
-2.5440938 114.95455 -2.9131205 120.83835 110.97731 -1.3722398 105.96409 -3.3310382
107.24757 -1.515694 -2.9658923 121.567696 -0.3498447 112.72746 0.09473432 -2.9393387
-1.4866078 102.25733 115.957466 115.16102 73.55742 111.88166 114.469635 123.485634
116.0512 121.336655 -0.9845165 85.27237 -1.064809 114.35796 -2.584664 -1.759107
123.91298 -0.83017105 120.40743 106.25281 120.13424 136.38565 -3.1078475 -2.266086
121.70107 -0.8948494 114.91323 -4.4506044 115.13631 -0.33626923 87.614265 -3.4192157
120.004166 2.0184932 -2.552759 -0.23247756 -2.6698449 122.54392 -0.8356868 1.7486327
114.572975 -0.4843464 -2.4300175 81.08746 1.2574617 -0.3359545 -1.01951 82.39605
115.94986 -2.4899428 -2.4721873 119.875626 1.0738702 -0.40946957 1.3562169 -0.033329334
-3.3217533 -0.9097732 -6.926465 -0.5528277 117.14984 113.93047 -1.7617593 115.82206
119.98776 -1.7759689 76.09811 115.084 -3.6271574 119.29994 121.61232 107.11126
0.13517517 0.16802074 114.18218 -2.3907862 72.91488 121.52712 77.26556 117.338005
116.639725 118.24597 95.0017 -0.9854945 -1.0002786 -0.7193189 116.65023 116.56563
-0.3345709 -2.5681474 113.03749 123.23931 -2.720721 -4.1588664 114.3948 118.35554
-1.4643344 91.131714 0.004918933 123.15097 0.4350828 -1.5563325 -1.3584759 113.362595
-0.3944902 -1.665436 115.6031 -6.931733 111.40854 -0.5637186 0.4979439 117.89188
-5.1144967 -1.7699147 112.88897 89.13104 119.391975 -1.0715815 -0.16261391 85.33354
-3.064821 118.494965 119.945206 -4.6222425 86.802826 -2.308866 115.19942 117.87319
117.828285 -1.0399866 -3.3247702 -1.4877249 102.69881 112.815735 -4.7563963 121.00811
00000000: b4aa 18c0 085a d742 8f0e f042 fa4f b542
00000010: 5bfa ef42 838f d942 e976 10c0 f201 f642
00000020: 063d d542 3393 713f 0467 a742 d134 58c0
00000030: d912 64c0 0c8c e142 71c4 cc42 0c7e 95c0
00000040: e2c1 d442 fdd7 b4c0 97b0 ffbf c8a9 b442
00000050: 93fa fdbc 1495 f142 2272 f23e 06b4 7cc0
00000060: cb18 a5be 9422 d742 bf2d e042 61cf 1ac0
00000070: 0b80 d9bf 0ba5 e042 2595 e842 930b 78c0
00000080: 9d9c 1540 5a8c b2bf 1499 16c0 a3f2 43be
00000090: 2a07 d242 bb8a d9bf 5559 e742 3c67 81c0
000000a0: 1f43 e0be d938 f2bf b338 de42 e026 f73e
000000b0: ee77 bfbe 32ee ed42 87fb ec42 8e5d e142
000000c0: 221f 14c0 624a b1bf 3b73 8bbe a94a bbbf
000000d0: c77e 97be 2aa6 e442 7319 98c0 7d73 e342
000000e0: 8228 9c42 adb6 1ac0 fb4a a742 790e cd42
000000f0: 666e d042 249c 3ec0 9a2b dfc0 a52f 87be
00000100: 8e6e 4bbf c75c 38c0 2c3d d242 ffc0 a4c0
00000110: 8416 ed42 64d6 dd42 f55b 10bf 3805 c9bf
00000120: ac1b e842 570d f442 c6be 47c0 42e1 23c0
00000130: 2edc 56c0 ef86 ed42 08c7 c142 adf6 f342
00000140: 31bd 52c0 cb12 d142 f49c 4cc0 3b50 ea42
00000150: 5125 96c0 2c73 1dc0 84fa 403f eebb 643f
00000160: e2c3 e542 be1e db42 1cbf f342 1615 f042
00000170: 6003 fa42 596c d442 ba01 e3be cccd 993d
00000180: 88df f542 9d9f 17c0 65b5 5dc0 7a48 59c0
00000190: 3f93 d542 ff98 14c0 cc05 1cc0 d6c1 e742
000001a0: 6fd2 22c0 bbe8 e542 9170 3ac0 3cad f142
000001b0: 62f4 dd42 8ea5 afbf 9ded d342 bb2f 55c0
000001c0: c17e d642 4302 c2bf 2ed1 3dc0 a922 f342
000001d0: d81e b3be 7674 e142 1104 c23d 201e 3cc0
000001e0: 2a49 bebf c183 cc42 39ea e742 7152 e642
000001f0: 661d 9342 69c3 df42 74f0 e442 a5f8 f642
00000200: 371a e842 5eac f242 4609 7cbf 748b aa42
00000210: a94b 88bf 47b7 e442 236b 25c0 6b2a e1bf
00000220: 72d3 f742 1786 54bf 9bd0 f042 7081 d442
00000230: bb44 f042 ba62 0843 f9e6 46c0 8e07 11c0
00000240: f366 f342 da14 65bf 93d3 e542 5a6b 8ec0
00000250: ca45 e642 7b2b acbe 813a af42 6ed4 5ac0
00000260: 2202 f042 fe2e 0140 6760 23c0 990e 6ebe
00000270: bdde 2ac0 7d16 f542 92ef 55bf 32d3 df3f
00000280: 5d25 e542 40fc f7be 6885 1bc0 c82c a242
00000290: 81f4 a03f 3a02 acbe 4e7f 82bf c7ca a442
000002a0: 54e6 e742 395b 1fc0 5138 1ec0 52c0 ef42
000002b0: 9474 893f ffa5 d1be 8498 ad3f 5784 08bd
000002c0: 9b97 54c0 e5e6 68bf 9aa5 ddc0 1e86 0dbf
000002d0: b84c ea42 67dc e342 5481 e1bf e5a4 e742
000002e0: bcf9 ef42 f352 e3bf 3b32 9842 022b e642
000002f0: 5923 68c0 9299 ee42 8239 f342 f738 d642
00000300: 5c6b 0a3e a10d 2c3e 475d e442 a402 19c0
00000310: 6bd4 9142 e30d f342 f787 9a42 0fad ea42
00000320: 8a47 e942 f07d ec42 df00 be42 5e49 7cbf
00000330: 2109 80bf 4925 38bf eb4c e942 9a21 e942
00000340: e14c abbe 875c 24c0 3213 e242 877a f642
00000350: 4b20 2ec0 6f15 85c0 23ca e442 09b6 ec42
00000360: 4f6f bbbf 7043 b642 002f a13b 4c4d f642
00000370: 2cc3 de3e e735 c7bf 8ae2 adbf a6b9 e242
00000380: 9ffa c9be 022d d5bf ca34 e742 c2d0 ddc0
00000390: 2cd1 de42 dd4f 10bf 81f2 fe3e a4c8 eb42
000003a0: f5a9 a3c0 918c e2bf 27c7 e142 1843 b242
000003b0: b1c8 ee42 9529 89bf 4384 26be c6aa aa42
000003c0: 0726 44c0 6cfd ec42 f2e3 ef42 69e9 93c0
000003d0: 0c9b ad42 76c4 13c0 1a66 e642 13bf eb42
000003e0: 15a8 eb42 481e 85bf 09c9 54c0 c56d bebf
000003f0: ca65 cd42 a8a1 e142 6634 98c0 2704 f242

weight f4 [1, 512]
0.8382861 1.9299785 6.3788466 1.3676999 3.309229 1.2906861 0.5416822 4.1453843
1.8937448 -1.8988141 5.8287945 0.016215008 0.40585577 3.6332252 1.4796424 0.59313416
2.4683633 0.72209173 -0.024438052 0.52262545 -0.0039404137 3.5406048 -0.80113214 0.47778663
-0.006736973 2.4227169 3.38543 -0.07621571 0.0039731245 1.2269818 3.4841115 0.5790945
-2.6705852 0.61906075 -0.1638061 -0.88250977 1.6725761 1.5919298 3.0934007 0.55315405
-0.046342973 -0.023695186 3.0611796 -0.8646953 -0.9340028 3.0873399 4.352076 1.1512822
-0.19378974 -0.04268751 -0.014737807 0.7172261 -0.006396328 3.0799239 0.63537276 0.99856234
1.5566125 -0.105039895 0.22926079 1.670184 2.240319 0.6597225 0.8362824 -0.011833921
-0.024249004 0.19398054 3.0308795 0.390261 5.5840387 5.715015 -0.018616697 0.7822386
3.559717 5.5455313 0.6304414 0.83822715 0.77923596 3.3940477 1.612941 3.7220807
0.73313683 10.62968 0.7660408 4.355829 0.70327264 0.32121977 -1.6432644 -2.078718
6.4480414 3.6580184 4.4648924 3.7767441 5.691943 4.3936605 -0.958488 -0.004035016
4.4523087 -0.14642726 -0.0146114845 0.76074094 1.2470931 -0.058114585 0.67622346 1.3238515
-0.006474247 2.3619487 0.67571044 3.1122081 2.222463 -0.03769317 3.0699387 0.8370484
3.0182595 0.81458783 0.81539935 5.651355 -0.008380542 2.8932283 -1.4760929 0.13625978
-0.1257401 2.8575714 2.8074846 3.0095856 7.817232 7.148187 6.4899573 6.857854
4.697119 3.8720665 0.5659843 5.4608426 0.7873071 3.1573262 -0.01532619 1.3003167
4.299721 -0.025110168 3.1208174 0.652403 3.5797591 76.368706 0.77239317 -0.10921955
5.32861 -0.029428327 3.812564 0.6419344 2.8039904 -0.008734375 1.7898165 -0.014149029
4.3330054 -2.346941 1.3171604 -0.91785634 -0.05207376 4.011198 0.75291705 -2.5550997
3.6499515 -0.017018678 -0.1971757 3.1462872 -0.76223445 -0.00927142 0.8163019 4.6351104
3.174794 -0.014944575 -0.014880024 4.3157296 -1.5234064 -0.009622849 -3.812523 -2.604253
0.62559927 0.76539546 0.8419748 -1.0168078 3.242969 6.500632 0.0046101958 3.1981573
2.7939975 0.0046022558 6.117355 3.1943214 0.5815922 3.8655481 3.6282341 2.405901
-0.004046245 -2.082001 4.090984 -0.01607177 -0.4792611 3.3930447 6.5986233 2.4763982
6.6376534 4.3439574 1.7915946 -0.031402636 -0.032025397 -0.022940114 5.376572 3.4230251
-0.009879047 -0.014474137 1.0017234 4.8008823 -0.05398094 0.588843 3.3391027 3.2347896
0.80589604 4.550139 -0.004159999 4.118795 -1.5318841 1.5928566 -0.109792896 3.8594067
-0.010883063 -0.3208512 4.0273614 0.81988686 1.1558304 -0.018189214 -0.81910825 3.5524402
0.39177108 0.8244773 8.218502 2.0162885 4.1861916 -0.018382976 -0.8856555 1.6729622
0.7627211 3.516176 3.7155275 0.69455415 2.8594537 0.20179406 2.2525096 4.689633
3.9745097 0.7527371 0.7370603 0.66762465 2.13471 2.5201254 0.5783288 3.7396119
00000000: eb99 563f 8909 f73f 831f cc40 ca10 af3f
00000010: 68ca 5340 3435 a53f afab 0a3f fda6 8440
00000020: 3b66 f23f 570c f3bf 7c85 ba40 56d5 843c
00000030: 54cc cf3e c386 6840 ec64 bd3f a4d7 173f
00000040: aaf9 1d40 01db 383f 4f32 c8bc c8ca 053f
00000050: 961e 81bb 4599 6240 ff16 4dbf 73a0 f43e
00000060: d3c1 dcbb cb0d 1b40 e3aa 5840 fb16 9cbd
00000070: fc30 823b bd0d 9d3f affb 5e40 8a3f 143f
00000080: deea 2ac0 c47a 1e3f c9bc 27be 29ec 61bf
00000090: f916 d63f 5bc4 cb3f 47fa 4540 819b 0d3f
000000a0: 21d2 3dbd 681c c2bc 5eea 4340 ac5c 5dbf
000000b0: cf1a 6fbf fa96 4540 3544 8b40 375d 933f
000000c0: d170 46be 19d9 2ebd d876 71bc 219c 373f
000000d0: 4a98 d1bb 791d 4540 caa7 223f c8a1 7f3f
000000e0: 143f c73f 281f d7bd 57c3 6a3e 97c8 d53f
000000f0: 6361 0f40 93e3 283f 9a16 563f 10e3 41bc
00000100: d9a5 c6bc d6a2 463e eef9 4140 4ad0 c73e
00000110: 72b0 b240 67e1 b640 0b82 98bc ca40 483f
00000120: 67d2 6340 fe74 b140 9c64 213f 0e96 563f
00000130: 027c 473f 1438 5940 da74 ce3f 9236 6e40
00000140: dbae 3b3f 2b13 2a41 401b 443f f362 8b40
00000150: ad09 343f eb76 a43e 7d56 d2bf b709 05c0
00000160: 5b56 ce40 f91c 6a40 66e0 8e40 2db6 7140
00000170: 6624 b640 de98 8c40 785f 75bf 2b38 84bb
00000180: 5079 8e40 07f1 15be 0265 6fbc ebbf 423f
00000190: bfa0 9f3f 8f09 6ebd fb1c 2d3f f773 a93f
000001a0: ec25 d4bb 2b2a 1740 5cfb 2c3f 6b2e 4740
000001b0: d53c 0e40 2764 1abd e079 4440 ce48 563f
000001c0: 2a2b 4140 d488 503f 03be 503f e6d7 b440
000001d0: 8a4e 09bc a72a 3940 9df0 bcbf af87 0b3e
000001e0: 03c2 00be 73e2 3640 d4ad 3340 0d9d 4040
000001f0: c426 fa40 f3bd e440 bbad cf40 8a73 db40
00000200: cd4e 9640 f0cf 7740 59e4 103f 39bf ae40
00000210: f58c 493f a211 4a40 b31a 7bbc c770 a63f
00000220: 5097 8940 d7b3 cdbc 79bb 4740 e203 273f
00000230: c61a 6540 c7bc 9842 8fbb 453f 80ae dfbd
00000240: f983 aa40 ad13 f1bc 0c01 7440 d055 243f
00000250: 9474 3340 a01a 0fbc b518 e53f 54d1 67bc
00000260: fba7 8a40 4834 16c0 b698 a83f a2f8 6abf
00000270: 4c4b 55bd bc5b 8040 2cbf 403f c186 23c0
00000280: ce98 6940 c16a 8bbc 6de8 49be c55c 4940
00000290: cc21 43bf 27e7 17bc 29f9 503f d352 9440
000002a0: d32f 4b40 17da 74bc 58cb 73bc 751a 8a40
000002b0: fbfe c2bf 27a9 1dbc 6000 74c0 15ac 26c0
000002c0: 4627 203f f5f0 433f a98b 573f c226 82bf
000002d0: ce8c 4f40 2d05 d040 2011 973b 9cae 4c40
000002e0: dbd0 3240 85ce 963b 5fc1 c340 c36f 4c40
000002f0: 3ae3 143f 2465 7740 fd34 6840 48fa 1940
00000300: 5d96 84bb 813f 05c0 57e9 8240 f2a8 83bc
00000310: b661 f5be a527 5940 ec27 d340 4f7d 1e40
00000320: a867 d440 b301 8b40 f952 e53f 0da0 00bd
00000330: 102d 03bd e8ec bbbc e10c ac40 d812 5b40
00000340: badb 21bc ee24 6dbc 7938 803f d4a0 9940
00000350: 1e1b 5dbd 6abe 163f dcb3 5540 cb06 4f40
00000360: 344f 4e3f bd9a 9140 9a50 88bb 2bcd 8340
00000370: c714 c4bf bae2 cb3f 19db e0bd 8500 7740
00000380: e04e 32bc 9c46 a4be 25e0 8040 1be4 513f
00000390: 40f2 933f 8c01 95bc 14b1 51bf 2e5b 6340
000003a0: 3896 c83e f210 533f fc7e 0341 df0a 0140
000003b0: 48f5 8540 e597 96bc 52ba 62bf a023 d63f
000003c0: b141 433f 0709 6140 34cb 6d40 4dce 313f
000003d0: 4a01 3740 1aa3 4e3e 1e29 1040 7911 9640
000003e0: 5e5e 7e40 61b3 403f fcaf 3c3f 73e9 2a3f
000003f0: 179f 0840 bc49 2140 5b0d 143f cd55 6f40
