data/cflp/nn_e_f25_c25_r2.0_iss1_bt1_nsp10000_nse5000_sd7.pt (torch, 118607 bytes, 7 tensors)

weight f4 [64, 25]
0	0xbd2bb41c	-0.041919813
1	0x3d2bb41a	0.041919805
2	0x3d2bb41c	0.041919813
3	0xbd2bb41a	-0.041919805
4	0x3d2bb41c	0.041919813
5	0x3d2bb41a	0.041919805
6	0x3d2bb41c	0.041919813
7	0x3d2bb41a	0.041919805
8	0x3d2bb41a	0.041919805
9	0x3d2bb41a	0.041919805
10	0xbd2bb41c	-0.041919813
11	0x3d2bb41c	0.041919813
12	0x3d2bb41c	0.041919813
13	0x3d2bb41c	0.041919813
14	0x3d2bb41a	0.041919805
15	0xbd2bb41a	-0.041919805
16	0x3d2bb41a	0.041919805
17	0xbd2bb41a	-0.041919805
18	0x3d2bb41c	0.041919813
19	0x3d2bb41a	0.041919805
20	0x3d2bb41c	0.041919813
21	0xbd2bb41a	-0.041919805
22	0xbd2bb41a	-0.041919805
23	0xbd2bb41a	-0.041919805
24	0xbd2bb41a	-0.041919805
25	0x3d2b6201	0.04184151
26	0xbd2b4d70	-0.041821897
27	0x3d2b5d09	0.041836772
28	0x3d2b549f	0.041828748
29	0x3d2b5675	0.0418305
30	0x3d2b528a	0.041826762
31	0x3d2b6491	0.041843954
32	0x3d2b66bf	0.041846033
33	0x3d2b6702	0.041846283
34	0xbd2b522d	-0.041826416
35	0xbd2b4e74	-0.041822866
36	0xbd2b5459	-0.041828487
37	0x3d2b655c	0.04184471
38	0x3d2b584b	0.04183225
39	0xbd2b5d21	-0.04183686
40	0xbd2b53f3	-0.041828107
41	0x3d2b67dd	0.0418471
42	0xbd2b5180	-0.04182577
43	0x3d2b6297	0.04184207
44	0x3d2b6201	0.04184151
45	0x3d2b6284	0.041842
46	0xbd2b5893	-0.041832518
47	0x3d2b6716	0.041846357
48	0xbd2b4e78	-0.04182288
49	0x3d2b59c1	0.041833643
50	0xba9ac25e	-0.0011807194
51	0xba94f321	-0.0011363962
52	0xba88895f	-0.0010416916
53	0x3a80e910	0.0009835083
54	0xbac3fedd	-0.0014953275
55	0xba9ac901	-0.0011809171
56	0xbad4eeb4	-0.0016245455
57	0xbaa2d674	-0.0012423531
58	0xba656e0d	-0.00087520556
59	0x3a8b8e28	0.0010647224
60	0x3aa51d89	0.0012597303
61	0xba6d9464	-0.00090629444
62	0xba7133af	-0.0009201122
63	0x3ab9a0d9	0.0014162316
64	0x3ab321ef	0.0013666729
65	0x3aa0f074	0.0012278692
66	0xbac41aef	-0.001496164
67	0x3a9505f1	0.0011369569
68	0x3a99cc43	0.0011733848
69	0x3a93e013	0.0011281989
70	0xbabde853	-0.0014488794
71	0xba6947b2	-0.0008898928
72	0xbad4305c	-0.0016188729
73	0xbac4fd75	-0.0015029149
74	0x3aa6fd62	0.0012740309
75	0xbab432bf	-0.0013748034
76	0xbaaba62d	-0.0013095789
77	0x3ac35ee6	0.0014905601
78	0xba7f58c5	-0.0009740706
79	0xbb02c5c2	-0.0019954299
80	0xbab8d125	-0.0014100416
81	0x39f2a730	0.000462824
82	0x3adb7566	0.0016743361
83	0xbaa127e9	-0.0012295219
84	0xba80ee4f	-0.0009836646
85	0xba236296	-0.0006232647
86	0xbab84b1b	-0.0014060469
87	0xbac76b76	-0.0015214521
88	0x39aa3ae1	0.00032468795
89	0x39af1d7a	0.00033400563
90	0xb9c33669	-0.00037233837
91	0x3a5339fb	0.0008057651
92	0x38e2a6ea	0.0001080761
93	0xba30221e	-0.0006718951
94	0xb9c68ddc	-0.00037871196
95	0x3a794443	0.0009508768
96	0xba9b6d28	-0.0011858093
97	0x3a4a1584	0.00077088946
98	0x3a2e7f2a	0.0006656522
99	0xba0a7d56	-0.0005282959
100	0xbd2bb41a	-0.041919805
101	0x3d2bb41a	0.041919805
102	0x3d2bb41a	0.041919805
103	0xbd2bb41a	-0.041919805
104	0x3d2bb41c	0.041919813
105	0xbd2bb41c	-0.041919813
106	0xbd2bb41a	-0.041919805
107	0xbd2bb41a	-0.041919805
108	0xbd2bb41c	-0.041919813
109	0x3d2bb41c	0.041919813
110	0xbd2bb41a	-0.041919805
111	0x3d2bb41a	0.041919805
112	0xbd2bb41c	-0.041919813
113	0x3d2bb41a	0.041919805
114	0x3d2bb41a	0.041919805
115	0xbd2bb41c	-0.041919813
116	0x3d2bb41c	0.041919813
117	0xbd2bb41c	-0.041919813
118	0xbd2bb41a	-0.041919805
119	0x3d2bb41c	0.041919813
120	0x3d2bb41a	0.041919805
121	0x3d2bb41a	0.041919805
122	0x3d2bb41a	0.041919805
123	0xbd2bb41a	-0.041919805
124	0x3d2bb41c	0.041919813
125	0x3acca7c4	0.0015613963
126	0x3ac78467	0.0015221954
127	0x3ae71594	0.0017630332
128	0xbadf7445	-0.0017048201
129	0x3acebf3f	0.0015773549
130	0x3ae0d01d	0.0017151866
131	0xbaba6ddc	-0.0014223414
132	0x3ab2963f	0.0013625099
133	0xbad2a2cc	-0.0016070246
134	0xbac37304	-0.0014911597
135	0xbad93a4a	-0.0016573158
136	0xbad84f8f	-0.0016503202
137	0x3adb6544	0.0016738554
138	0xbab64096	-0.0013904746
139	0xbab68ae0	-0.0013926886
140	0xbab8cb7c	-0.0014098729
141	0x3ab6014c	0.0013885885
142	0xbadc9b8f	-0.0016831028
143	0xbad72a6e	-0.0016415843
144	0xbae3d9ee	-0.0017383674
145	0x3ad65758	0.0016352935
146	0xbaec90bd	-0.0018048506
147	0x3acadc3b	0.0015477011
148	0x3ad3686c	0.0016129143
149	0xbad918f6	-0.0016563225
150	0xbecb2574	-0.39677012
151	0xbeb2b2b0	-0.34901953
152	0xbed7be66	-0.4213745
153	0xbed83035	-0.4222428
154	0xbedb3209	-0.4281161
155	0xbed947e3	-0.42437658
156	0xbeda9a7d	-0.4269599
157	0xbec6d604	-0.38835156
158	0xbeda71d9	-0.42664984
159	0xbedbc684	-0.42924893
160	0xbebd6db3	-0.36997756
161	0xbed9664d	-0.42460862
162	0xbed94818	-0.42437816
163	0xbed9fa1a	-0.42573625
164	0xbed6a02a	-0.4191907
165	0xbed9bb04	-0.42525494
166	0xbec29765	-0.3800613
167	0xbeac1d52	-0.3361612
168	0xbec5f062	-0.3865996
169	0xbeda936e	-0.42690605
170	0xbedb7247	-0.42860624
171	0xbed6ad63	-0.4192916
172	0xbeaf77d9	-0.34271124
173	0xbeac2714	-0.33623564
174	0xbea7ed91	-0.32798436
175	0xbf5e297c	-0.8678205
176	0xbf5df78c	-0.8670585
177	0xbf5e0d00	-0.86738586
178	0xbf5e4b46	-0.8683361
179	0xbf4adc2b	-0.792422
180	0xbf5e64ad	-0.8687237
181	0xbf4ac6d9	-0.7920967
182	0xbf4ae3c7	-0.7925381
183	0xbf5e18ce	-0.867566
184	0xbf5e72be	-0.8689383
185	0xbf5e629c	-0.86869216
186	0xbf5e049f	-0.867258
187	0xbf4ab0b6	-0.7917589
188	0xbf4aafbf	-0.7917442
189	0xbf5dfa3e	-0.86709964
190	0xbf5df7f4	-0.8670647
191	0xbf4a993d	-0.79140073
192	0xbf5e1bf7	-0.8676142
193	0xbf4ac7f3	-0.7921135
194	0xbf4a8a82	-0.79117596
195	0xbf4ab8e0	-0.79188347
196	0xbf4adcad	-0.79242975
197	0xbf5e19df	-0.86758226
198	0xbf4ac50b	-0.79206914
199	0xbf4ad24c	-0.7922714
200	0xbb5220f5	-0.00320631
201	0x3b5236d1	0.003207613
202	0x3b51b609	0.003199937
203	0x3b534315	0.003223603
204	0xbb4f4069	-0.0031624085
205	0x3b5177a6	0.0031962185
206	0xbb5273f0	-0.0032112561
207	0xbb5211bb	-0.0032054025
208	0x3b536887	0.0032258348
209	0x3b53c696	0.0032314411
210	0x3b548479	0.0032427593
211	0x3b51df19	0.0032023846
212	0x3b5225a0	0.0032065883
213	0xbb518021	-0.003196724
214	0xbb53b78c	-0.0032305447
215	0x3b515e16	0.0031946949
216	0xbb516806	-0.0031952872
217	0x3b51c834	0.00320102
218	0x3b5427cd	0.0032372356
219	0x3b533982	0.0032230322
220	0xbb51300e	-0.0031919512
221	0x3b548f68	0.003243411
222	0xbb517fb1	-0.003196698
223	0xbb521e82	-0.003206164
224	0x3b539d5b	0.0032289836
225	0x3c976078	0.018478617
226	0x3c96c05a	0.018402267
227	0xbc985ed9	-0.018599914
228	0x3c96c533	0.018404579
229	0x3c978247	0.018494738
230	0x3c986974	0.018604971
231	0x3c9875b5	0.018610815
232	0x3c96b912	0.018398795
233	0xbc96a24e	-0.01838794
234	0xbc969fcb	-0.018386742
235	0x3c97b5bd	0.018519277
236	0xbc97706c	-0.018486224
237	0xbc9615c1	-0.01832092
238	0xbc97124d	-0.018441344
239	0x3c96ceeb	0.018409213
240	0xbc96fc6c	-0.018430911
241	0xbc984919	-0.018589543
242	0xbc96eb53	-0.018422758
243	0x3c95e5d1	0.018298062
244	0xbc975261	-0.018471899
245	0xbc975914	-0.018475093
246	0xbc9723d7	-0.018449707
247	0xbc96ee68	-0.018424228
248	0xbc96f089	-0.018425243
249	0xbc96a1e2	-0.018387739
250	0x3d2bb41c	0.041919813
251	0x3d2bb41c	0.041919813
252	0xbd2bb41a	-0.041919805
253	0x3d2bb41c	0.041919813
254	0x3d2bb41c	0.041919813
255	0x3d2bb41a	0.041919805

weight f4 [128, 64]
0	0x3d2bb41a	0.041919805
1	0xbf27448a	-0.6533896
2	0xbd2bb41a	-0.041919805
3	0x3d2bb41c	0.041919813
4	0x3d2bb450	0.041920006
5	0x3d2bb41c	0.041919813
6	0x3d2bb41a	0.041919805
7	0xbf49e203	-0.7886049
8	0xbd2bb41a	-0.041919805
9	0xbd0526ff	-0.032507893
10	0x3d2bb44f	0.041920003
11	0x3b63bb34	0.0034749033
12	0xbf478537	-0.77937645
13	0xbd2bb41a	-0.041919805
14	0xbd2bb41a	-0.041919805
15	0xbf5d441d	-0.8643206
16	0xbd2bb41a	-0.041919805
17	0xbd2bb41c	-0.041919813
18	0x3d2bb41c	0.041919813
19	0x3d2bb41c	0.041919813
20	0xbd2bb41c	-0.041919813
21	0x3d2bb41a	0.041919805
22	0xbd2bb41c	-0.041919813
23	0xbd2bb41c	-0.041919813
24	0x3d2bb41c	0.041919813
25	0x3cab4510	0.020906955
26	0xbf4b5e07	-0.7944035
27	0xbd2bb41c	-0.041919813
28	0x3d2bb41a	0.041919805
29	0xbf4a75ce	-0.79086006
30	0xbd2bb41a	-0.041919805
31	0x3d2bb41a	0.041919805
32	0xbf4bb450	-0.7957201
33	0xbd2bb41a	-0.041919805
34	0xbd2bb41a	-0.041919805
35	0xbd93a3d0	-0.07208979
36	0x3d2bb41c	0.041919813
37	0x3caaf134	0.020866968
38	0xbb08d8f3	-0.0020881265
39	0x3d2bb44f	0.041920003
40	0xbb078ff4	-0.0020685168
41	0x3d2bb41c	0.041919813
42	0xbd2bb41a	-0.041919805
43	0xbf4b606f	-0.7944402
44	0x3d2bb450	0.041920006
45	0xbd2ba93c	-0.04190944
46	0xbfc56853	-1.5422462
47	0xbd2bb41c	-0.041919813
48	0xbf00b48c	-0.5027549
49	0xbd2bb41a	-0.041919805
50	0x3caad4f6	0.0208535
51	0xbd2bb41d	-0.041919816
52	0xbf18cb5e	-0.59685314
53	0xbebf9861	-0.37420943
54	0xbd2bb41a	-0.041919805
55	0xbd2bb41a	-0.041919805
56	0xbd2bb450	-0.041920006
57	0xbf48cde3	-0.7843916
58	0xbd2bb41d	-0.041919816
59	0x3d2bb41c	0.041919813
60	0xbd2bb450	-0.041920006
61	0xbf3b07db	-0.7305886
62	0x3d2bb41a	0.041919805
63	0xbc1b6bce	-0.009486152
64	0xbd2bb41a	-0.041919805
65	0xbf467412	-0.7752086
66	0x3d2bb41a	0.041919805
67	0xbd2bb41a	-0.041919805
68	0x3d2bb41c	0.041919813
69	0x3d2bb41c	0.041919813
70	0x3d2bb41a	0.041919805
71	0xbf4d4c3f	-0.8019447
72	0x3d2bb41c	0.041919813
73	0x3d2bb41c	0.041919813
74	0xbd2bb44f	-0.041920003
75	0xbd2bb41a	-0.041919805
76	0xbf4f822f	-0.8105802
77	0xbd2bb41a	-0.041919805
78	0xbd2bb41a	-0.041919805
79	0xbf4f536e	-0.8098668
80	0xbd2bb44f	-0.041920003
81	0xbd2bb41a	-0.041919805
82	0x3d2bb41a	0.041919805
83	0xbd2bb41a	-0.041919805
84	0xbd2bb41c	-0.041919813
85	0x3d2bb41a	0.041919805
86	0x3d2bb41c	0.041919813
87	0x3d2bb41a	0.041919805
88	0x3d2bb450	0.041920006
89	0x3d2bb419	0.0419198
90	0xbf61411a	-0.8798996
91	0x3d2bb41c	0.041919813
92	0xbd2bb41a	-0.041919805
93	0xbf720f63	-0.9455473
94	0xbd2bb41a	-0.041919805
95	0x3d2bb41a	0.041919805
96	0xbf60f664	-0.8787596
97	0xbd2bb41c	-0.041919813
98	0xbd2bb41c	-0.041919813
99	0xbf152767	-0.5826325
100	0x3d2bb41a	0.041919805
101	0xbd2bb41d	-0.041919816
102	0xbd2bb41c	-0.041919813
103	0xbd2bb41c	-0.041919813
104	0x3d2bb41c	0.041919813
105	0xbd2bb41c	-0.041919813
106	0xbd2bb41a	-0.041919805
107	0x3d2bb419	0.0419198
108	0xbd2bb450	-0.041920006
109	0xbd2bb41a	-0.041919805
110	0xbf7bd868	-0.98377085
111	0xbd2bb41c	-0.041919813
112	0xbf3c6d69	-0.73604447
113	0xbd2bb41a	-0.041919805
114	0xbd2bb41d	-0.041919816
115	0x3d2bb41a	0.041919805
116	0xbf41e5d3	-0.7574131
117	0xbf33489f	-0.70032686
118	0x3d2bb41c	0.041919813
119	0xbd2bb41a	-0.041919805
120	0x3d2bb44f	0.041920003
121	0xbf4e568f	-0.8060083
122	0x3d2bb41c	0.041919813
123	0xbd2bb41c	-0.041919813
124	0x3d2bb450	0.041920006
125	0xbf55ec2a	-0.8356348
126	0x3d2bb44f	0.041920003
127	0xbf4baee6	-0.7956375
128	0xbd2bb41c	-0.041919813
129	0xbcfa5e90	-0.030562669
130	0xbd2bb41a	-0.041919805
131	0xbd2bb41c	-0.041919813
132	0xbd2bb41c	-0.041919813
133	0x3d2bb41a	0.041919805
134	0x3d2bb41a	0.041919805
135	0x3d19d47b	0.037556153
136	0xbd2bb41c	-0.041919813
137	0xbd2ba9b2	-0.04190988
138	0x3d2bb41a	0.041919805
139	0x3d1cf4df	0.038319465
140	0x3f4bdcf1	0.79634005
141	0xbd2bb41c	-0.041919813
142	0xbd2bb41a	-0.041919805
143	0x3f615509	0.8802038
144	0x3d2bb41c	0.041919813
145	0x3d2bb41c	0.041919813
146	0x3d2bb41a	0.041919805
147	0xbd2bb41c	-0.041919813
148	0xbd2bb41a	-0.041919805
149	0x3d2bb41c	0.041919813
150	0xbd2bb41c	-0.041919813
151	0x3d2bb41c	0.041919813
152	0xbd2bb41a	-0.041919805
153	0xbd2bb41c	-0.041919813
154	0x3f615517	0.8802046
155	0xbd2bb41a	-0.041919805
156	0x3d2bb41a	0.041919805
157	0x3f544d7b	0.82930726
158	0xbf615b3b	-0.8802983
159	0xbd2bb41a	-0.041919805
160	0xbd2b9ab0	-0.04189557
161	0xbd2bb41a	-0.041919805
162	0x3d2bb41c	0.041919813
163	0x3f4e3b50	0.80559254
164	0x3d2bb41c	0.041919813
165	0x3d2bb41a	0.041919805
166	0x3d061b30	0.03274077
167	0x3d2bb41a	0.041919805
168	0x3d058688	0.032599002
169	0x3d2bb450	0.041920006
170	0xbd2bb41c	-0.041919813
171	0x3f58d3b7	0.8469805
172	0xbd2bb41a	-0.041919805
173	0xbd2bb41d	-0.041919816
174	0x3f11efe2	0.5700666
175	0x3d2bb41a	0.041919805
176	0x3f5b2a6e	0.8561162
177	0xbd2bb41c	-0.041919813
178	0x3d2bb41a	0.041919805
179	0xbd2bb41c	-0.041919813
180	0xbcd1c750	-0.025607735
181	0x3f449b99	0.76799923
182	0x3d2bb41c	0.041919813
183	0xbd2bb41c	-0.041919813
184	0x3d2bb41c	0.041919813
185	0x3f615439	0.8801914
186	0xbd2bb41c	-0.041919813
187	0x3d2bb450	0.041920006
188	0xbd2bb41c	-0.041919813
189	0x3f57e119	0.84327847
190	0xbd2bb41a	-0.041919805
191	0xbd2a3953	-0.041558575
192	0x3d2bb41d	0.041919816
193	0xbf615bec	-0.88030887
194	0x3d2bb41a	0.041919805
195	0xbd2bb41a	-0.041919805
196	0x3d2bb419	0.0419198
197	0xbd2bb41a	-0.041919805
198	0xbd2bb41c	-0.041919813
199	0xba6f6384	-0.00091319554
200	0xbd2bb41a	-0.041919805
201	0xbd2bb41c	-0.041919813
202	0x3d2bb41c	0.041919813
203	0xbd2bb41a	-0.041919805
204	0xbecb4349	-0.39699772
205	0x3d2bb41c	0.041919813
206	0xbd2bb41a	-0.041919805
207	0xbe30b0fa	-0.17255011
208	0xbd2bb41d	-0.041919816
209	0xbd2bb41a	-0.041919805
210	0x3d190f42	0.037368067
211	0xbd2bb41c	-0.041919813
212	0xbd2bb41a	-0.041919805
213	0x3d2bb41c	0.041919813
214	0x3d2bb41a	0.041919805
215	0x3d2bb41c	0.041919813
216	0xbd18e5bc	-0.037328467
217	0xbcdcea10	-0.026967078
218	0x3d196218	0.037447065
219	0x3d2bb41a	0.041919805
220	0xbd2bb41c	-0.041919813
221	0xbd557f08	-0.0521231
222	0xbd2bb41c	-0.041919813
223	0xbd2bb41a	-0.041919805
224	0x3d2b3648	0.041799814
225	0xbd2bb41a	-0.041919805
226	0x3d2bb41c	0.041919813
227	0xbf6153e0	-0.8801861
228	0x3d2bb41c	0.041919813
229	0xbcdc935e	-0.026925739
230	0xbd2bb41c	-0.041919813
231	0xbd2bb41c	-0.041919813
232	0xbd2bb41c	-0.041919813
233	0x3d2bb41a	0.041919805
234	0x3d2bb450	0.041920006
235	0xbdf010dc	-0.11721966
236	0xbd2bb419	-0.0419198
237	0x3d2bb41c	0.041919813
238	0xbf4cc391	-0.7998591
239	0xbd2bb41c	-0.041919813
240	0xbf5553ed	-0.83331186
241	0x3d2bb41c	0.041919813
242	0xbcdc7660	-0.026911914
243	0x3d2bb41d	0.041919816
244	0xbf5570a3	-0.83374995
245	0xbf57cc85	-0.8429645
246	0x3d2bb41c	0.041919813
247	0xbd2bb41c	-0.041919813
248	0xbd2bb41d	-0.041919816
249	0xbe1935a2	-0.14961866
250	0x3d2bb41d	0.041919816
251	0xbd2bb41a	-0.041919805
252	0x3d2bb41a	0.041919805
253	0x3c8c675b	0.017139127
254	0x3d2bb41a	0.041919805
255	0xbe88b82d	-0.26703015

weight f4 [8, 128]
0	0xbd2bb41a	-0.041919805
1	0xbd2bb41c	-0.041919813
2	0x3d2bb41a	0.041919805
3	0x3d2bb1a2	0.04191745
4	0x3d2badb7	0.041913714
5	0xbd2bb22c	-0.041917965
6	0xbd2bb41a	-0.041919805
7	0xbd2bb41a	-0.041919805
8	0x3d2bb41c	0.041919813
9	0xbd2bb41c	-0.041919813
10	0x3d2bb41a	0.041919805
11	0x3d2bb41c	0.041919813
12	0x3d2bb41a	0.041919805
13	0xbd2bb41a	-0.041919805
14	0xbd2bb41a	-0.041919805
15	0x3d2ba3c9	0.041904245
16	0x3d2bb41a	0.041919805
17	0xbd2bb41a	-0.041919805
18	0xbd2bb41a	-0.041919805
19	0xbd2bb450	-0.041920006
20	0xbd2bb41c	-0.041919813
21	0xbd2bb41c	-0.041919813
22	0x3d2bb41a	0.041919805
23	0x3d2bb41c	0.041919813
24	0x3d2bb41a	0.041919805
25	0xbd2badcc	-0.041913792
26	0xbd2bb41c	-0.041919813
27	0x3d2bb41a	0.041919805
28	0xbd2bb41c	-0.041919813
29	0x3d2bb41c	0.041919813
30	0xbd2bb41a	-0.041919805
31	0xbd2bb41a	-0.041919805
32	0x3d2bb41c	0.041919813
33	0x3d2bb41a	0.041919805
34	0xbd2bb41a	-0.041919805
35	0xbd2bb41a	-0.041919805
36	0x3d2bb41a	0.041919805
37	0x3d2b8d3c	0.04188274
38	0xbd2bb41a	-0.041919805
39	0xbd2bb41a	-0.041919805
40	0x3d2bb41c	0.041919813
41	0x3d2bb0bb	0.04191659
42	0xbd2bb30b	-0.041918796
43	0x3d2bac97	0.04191264
44	0x3d2bb41c	0.041919813
45	0x3d2bb41c	0.041919813
46	0x3d2bb41a	0.041919805
47	0x3d2bb41c	0.041919813
48	0xbd2bb41c	-0.041919813
49	0xbd2bb06c	-0.041916296
50	0xbd2bb2da	-0.041918613
51	0xbd2bb41a	-0.041919805
52	0xbd2bb41a	-0.041919805
53	0xbd2bb41a	-0.041919805
54	0xbd2bb41c	-0.041919813
55	0xbd2bb41a	-0.041919805
56	0xbd2bb41c	-0.041919813
57	0xbd2bb41a	-0.041919805
58	0x3d2bb41c	0.041919813
59	0x3d2bb41a	0.041919805
60	0xbd2bb41a	-0.041919805
61	0xbd2bb41c	-0.041919813
62	0x3d2bb41c	0.041919813
63	0x3d2bb41c	0.041919813
64	0x3d2bb41a	0.041919805
65	0x3d2bb41c	0.041919813
66	0xbd2bb41c	-0.041919813
67	0xbd2bb41a	-0.041919805
68	0xbd2b9e02	-0.041898735
69	0xbd2bb41c	-0.041919813
70	0xbd2bb41a	-0.041919805
71	0xbd2bb41a	-0.041919805
72	0xbd2bb41a	-0.041919805
73	0x3d2bb41a	0.041919805
74	0xbd2bb41a	-0.041919805
75	0x3d2bb41a	0.041919805
76	0x3d2bb41a	0.041919805
77	0x3d2bb41a	0.041919805
78	0x3d2bb41c	0.041919813
79	0x3d2bb41a	0.041919805
80	0x3d2bb41c	0.041919813
81	0xbd2bb41c	-0.041919813
82	0xbd2bb41a	-0.041919805
83	0xbd2bb41a	-0.041919805
84	0xbd2bb41c	-0.041919813
85	0x3d2bb41a	0.041919805
86	0x3d2bb41a	0.041919805
87	0x3d2bb41c	0.041919813
88	0x3d2bb41a	0.041919805
89	0x3d2bb41c	0.041919813
90	0x3d2bb41c	0.041919813
91	0x3d2bb41c	0.041919813
92	0xbd2b8e78	-0.041883916
93	0xbd2bb41a	-0.041919805
94	0xbd2bb41a	-0.041919805
95	0x3d2bb44f	0.041920003
96	0x3d2bb41a	0.041919805
97	0x3d2ba377	0.04190394
98	0xbd2bb41c	-0.041919813
99	0x3d2bb41a	0.041919805
100	0x3d2bb41a	0.041919805
101	0xbd2bb41c	-0.041919813
102	0xbd2bb41c	-0.041919813
103	0x3d2bb41c	0.041919813
104	0xbd2bb41c	-0.041919813
105	0x3d2bb41a	0.041919805
106	0x3d2bb41c	0.041919813
107	0xbd2bb41c	-0.041919813
108	0xbd2ba55a	-0.04190574
109	0xbd2bb41a	-0.041919805
110	0xbd2bb41c	-0.041919813
111	0x3d2bb41a	0.041919805
112	0xbd2bb41a	-0.041919805
113	0x3d2bb41a	0.041919805
114	0x3d2bb41c	0.041919813
115	0xbd2bb41c	-0.041919813
116	0x3d2b9d3c	0.041897997
117	0xbd2bb41c	-0.041919813
118	0x3d2bb41a	0.041919805
119	0x3d2bb41c	0.041919813
120	0x3d2bb41a	0.041919805
121	0x3d2bb41c	0.041919813
122	0x3d2bb41c	0.041919813
123	0x3d2bb41a	0.041919805
124	0xbd2bb41a	-0.041919805
125	0x3d2bb41c	0.041919813
126	0xbd2bb41a	-0.041919805
127	0x3d2ba146	0.04190185
128	0xbd2bb41c	-0.041919813
129	0x3d2bb41a	0.041919805
130	0x3d2bb428	0.041919857
131	0x3d2ba19c	0.04190217
132	0xbd2b8755	-0.04187711
133	0x3d2ba5c3	0.04190613
134	0x3d2bb41c	0.041919813
135	0x3d1daf6c	0.038497373
136	0xbf4be63b	-0.7964818
137	0x3d2bb41a	0.041919805
138	0x3d2bb218	0.04191789
139	0xbf4be808	-0.79650927
140	0xbd2e0bc8	-0.042491704
141	0xbd2bb41a	-0.041919805
142	0xbf615ca3	-0.8803198
143	0xbd2b3e4e	-0.041807465
144	0xbd2bb418	-0.041919798
145	0xbf615c9b	-0.8803193
146	0xbd2bb41a	-0.041919805
147	0x3d2bb418	0.041919798
148	0xbd2bb41c	-0.041919813
149	0x3d2bb41b	0.04191981
150	0xbd3b70a8	-0.045761734
151	0xbd2bb41a	-0.041919805
152	0x3d2bb41c	0.041919813
153	0xbfcbc546	-1.5919578
154	0x3d2bb418	0.041919798
155	0xbf615925	-0.8802665
156	0xbd2bb41a	-0.041919805
157	0xbf4fcf36	-0.81175554
158	0x3d2a7448	0.0416148
159	0xbf4be620	-0.7964802
160	0x3d2bb41a	0.041919805
161	0xbf615ca3	-0.8803198
162	0x3d2b9bb8	0.04189655
163	0x3d2b4fc8	0.041824132
164	0xbf615c32	-0.88031304
165	0x3d2aa15a	0.041657783
166	0xbd2cca38	-0.04218504
167	0xbd2bb15d	-0.041917194
168	0x3d2b7c98	0.04186687
169	0x3d2b9b9c	0.041896448
170	0xbfca7072	-1.5815566
171	0xbd2b7ddb	-0.041868072
172	0xbf615ca3	-0.8803198
173	0x3d2bb41c	0.041919813
174	0xbd2bb418	-0.041919798
175	0x3d2bb418	0.041919798
176	0x3d29c9c8	0.0414522
177	0xbd2b98c8	-0.04189375
178	0x3d2baadd	0.041910995
179	0x3d2bb41c	0.041919813
180	0xbf615ca3	-0.8803198
181	0x3d2bb41a	0.041919805
182	0xbd2bb278	-0.041918248
183	0x3d2b07e3	0.04175557
184	0xbf4be979	-0.79653126
185	0x3d23820a	0.039918937
186	0xbf615c2e	-0.8803128
187	0x3d23b019	0.03996286
188	0xbf615ca1	-0.88031965
189	0xbf000a98	-0.50016165
190	0xbd2ea338	-0.042636126
191	0xbfd138fd	-1.6345516
192	0x3d2bb41a	0.041919805
193	0x3d2bb41a	0.041919805
194	0x3d2bb41c	0.041919813
195	0xbfd139d4	-1.6345773
196	0x3d2aa301	0.04165936
197	0xbfd139f5	-1.6345812
198	0x3d2bb418	0.041919798
199	0xbd2bb418	-0.041919798
200	0xbd2bb418	-0.041919798
201	0x3d22c1f5	0.039735753
202	0x3d2355c7	0.039876726
203	0x3d2bb408	0.041919738
204	0x3d232ac2	0.0398357
205	0x3d2bb418	0.041919798
206	0xbf4be997	-0.79653305
207	0xbd2bb418	-0.041919798
208	0xbd2bb41c	-0.041919813
209	0x3d2bb41c	0.041919813
210	0xbfdbf46a	-1.7183964
211	0xbf615ca3	-0.8803198
212	0xbd2bb458	-0.041920036
213	0xbf615ca3	-0.8803198
214	0xbd23990d	-0.039940882
215	0xbfa306e3	-1.2736477
216	0xbf4be94f	-0.79652876
217	0xbf4be623	-0.79648036
218	0x3d2bb408	0.041919738
219	0xbf4be642	-0.7964822
220	0xbfd159db	-1.6355547
221	0xbd2bb41a	-0.041919805
222	0x3d240886	0.04004719
223	0xbd2bb41c	-0.041919813
224	0xbf4be8c1	-0.7965203
225	0xbd2b40c9	-0.04180983
226	0x3d2bb418	0.041919798
227	0xbd2bb268	-0.04191819
228	0xbf615ca3	-0.8803198
229	0x3d22eb9b	0.039775472
230	0xbd2cf088	-0.042221576
231	0xbf615ca5	-0.8803199
232	0xbd2c0228	-0.041994244
233	0xbd2bb41c	-0.041919813
234	0xbf615c62	-0.8803159
235	0x3d2bb41c	0.041919813
236	0xbfd26f3f	-1.64402
237	0x3d2bb41a	0.041919805
238	0xbf4be905	-0.79652435
239	0xbd2bfdd8	-0.04199013
240	0xbf4be620	-0.7964802
241	0xbd2bb41a	-0.041919805
242	0x3d24fb38	0.040278643
243	0x3d2bb42d	0.041919876
244	0x3d2ab6b3	0.04167814
245	0xbfd139d5	-1.6345774
246	0xbd2cbbe8	-0.04217139
247	0x3d2bb418	0.041919798
248	0xbd2bb41c	-0.041919813
249	0x3d2bb418	0.041919798
250	0xbfdbf46a	-1.7183964
251	0xbd2bb41c	-0.041919813
252	0xbd2ba98f	-0.04190975
253	0x3d264953	0.04059727
254	0xbf4be620	-0.7964802
255	0xbfca6bff	-1.5814208

bias f4 [8]
0	0xc03558fe	-2.8335567
1	0xc01d89d5	-2.4615376
2	0xc077df99	-3.8730223
3	0xc0368483	-2.8518379
4	0xc0835b7c	-4.1049175
5	0xc060f2e1	-3.5148242
6	0xc036889a	-2.8520875
7	0xbfcf2ce7	-1.6185578

weight f4 [512, 33]
0	0x40775aaf	3.86491
1	0x3d041f70	0.032256544
2	0x40131401	2.298096
3	0x3fe7b026	1.8100631
4	0x3fc63756	1.5485637
5	0x3f8eb873	1.115004
6	0x3f8325a1	1.0245858
7	0x3fa0e835	1.2570864
8	0x3f86aa7f	1.0520781
9	0x400c33b5	2.190656
10	0x3f978449	1.1837245
11	0x3efd6653	0.4949213
12	0x3f989905	1.1921698
13	0x4013a169	2.3067267
14	0x3fdebb3c	1.7400889
15	0x4030aa55	2.7603962
16	0x3cbf4689	0.023349063
17	0x403c6250	2.9435005
18	0x3f9d240c	1.2276626
19	0x3f09c1a6	0.5381111
20	0x4014037b	2.3127124
21	0x40410a8c	3.0162687
22	0x3fc94685	1.5724646
23	0x401fdf7d	2.4980156
24	0x4023182a	2.5483499
25	0x3d2bb419	0.0419198
26	0x3f615a59	0.88028485
27	0xbd2bb41d	-0.041919816
28	0xbd2bb41d	-0.041919816
29	0x3f561eab	0.83640546
30	0x3eda7fd5	0.42675653
31	0xbf4e4ccf	-0.8058595
32	0xbd2808b0	-0.04102391
33	0x3fc6db82	1.5535738
34	0xc0146f93	-2.31931
35	0x3f7f06e3	0.99619883
36	0x3fd79fc6	1.6845634
37	0xc026458f	-2.5979955
38	0x3dd520dc	0.10406658
39	0x3f4f4807	0.8096928
40	0xbe5b04f3	-0.21388607
41	0xbf99e3d2	-1.202265
42	0xc02bd2ae	-2.6847339
43	0xbf1fe803	-0.62463397
44	0xbfdd7dd3	-1.7304024
45	0xbfe82e93	-1.8139213
46	0xc00754cc	-2.1145506
47	0xbefa5d4f	-0.48899314
48	0x4054223a	3.314589
49	0xbf560d7a	-0.83614314
50	0x3f91b26f	1.1382579
51	0xbdd43d40	-0.10363245
52	0xbfa952ef	-1.3228434
53	0xbf3494cc	-0.70539546
54	0xbfab4ef2	-1.3383467
55	0x3d8aadbf	0.06771421
56	0xbe866b42	-0.26253706
57	0xbe767a80	-0.24070168
58	0x3d2bb41d	0.041919816
59	0x3aab0047	0.0013046347
60	0x3d2bb41d	0.041919816
61	0x3d2bb419	0.0419198
62	0xbe330fd8	-0.17486513
63	0xbe9d2d39	-0.30698565
64	0x3f614339	0.879932
65	0xbd2b817c	-0.041871533
66	0xb6c052e7	-5.731697e-06
67	0x3685ecda	3.991282e-06
68	0x369c94f6	4.6665036e-06
69	0xb6beb310	-5.683287e-06
70	0xb6b4d5af	-5.389294e-06
71	0xb6bda126	-5.651399e-06
72	0xb6ec4d51	-7.042349e-06
73	0x36c1e88b	5.77892e-06
74	0xb6b7d28a	-5.478335e-06
75	0xb6d7b397	-6.4284063e-06
76	0xb6e2df52	-6.7613228e-06
77	0x36cceaa8	6.1069913e-06
78	0x369d028b	4.6792607e-06
79	0xb6c171ab	-5.765081e-06
80	0x36ed3d33	7.070275e-06
81	0xb6cb688f	-6.0620437e-06
82	0x36b3bb01	5.356386e-06
83	0x36b7c1a9	5.47637e-06
84	0x3657534b	3.208598e-06
85	0xb6ad426c	-5.1635343e-06
86	0x3683cd99	3.928039e-06
87	0x368b7523	4.1561593e-06
88	0xb68e45ec	-4.2400698e-06
89	0xb6dd33d1	-6.5923455e-06
90	0xb6c70220	-5.9309095e-06
91	0xbd2bb41a	-0.041919805
92	0x3d2bb418	0.041919798
93	0xbd2bb41c	-0.041919813
94	0xbd2bb419	-0.0419198
95	0x3d2bb438	0.041919917
96	0x3d10173e	0.035178415
97	0x3c6b0579	0.0143445665
98	0xbd2bb41d	-0.041919816
99	0x40b91273	5.783502
100	0xbe09049b	-0.13380663
101	0x3f1dc73b	0.61632127
102	0x3fd47975	1.6599566
103	0xc01a4a07	-2.4107683
104	0xc0854045	-4.1640954
105	0x3fd15622	1.6354411
106	0xbeb39f50	-0.35082483
107	0x40822d1a	4.0680056
108	0xbf72ddc7	-0.94869655
109	0x4034aa64	2.8228998
110	0xc035cee5	-2.8407528
111	0xc06d1102	-3.704163
112	0x4037bbbe	2.8708339
113	0x3e30aebc	0.17254156
114	0x40511339	3.2667983
115	0xbec7a7cd	-0.3899521
116	0x40b1df16	5.558482
117	0xbfb67dc2	-1.4257128
118	0xbfcb628f	-1.5889453
119	0xc03c94ff	-2.946594
120	0x40ab198a	5.3468676
121	0x40816cda	4.0445375
122	0x40197e0d	2.3983185
123	0x40c8864f	6.266395
124	0xbd2bb41d	-0.041919816
125	0xbcfb0070	-0.030639857
126	0xbd2bb41d	-0.041919816
127	0xbd2bb379	-0.041919205
128	0x38bb348d	8.926643e-05
129	0xbf6159a5	-0.8802741
130	0xbd34a019	-0.044097994
131	0x3c288b8f	0.01028718
132	0xc10efeb3	-8.937182
133	0xc15e1446	-13.87995
134	0xc1b95d7e	-23.17065
135	0xc1482aa2	-12.510408
136	0xc21028f6	-36.04
137	0xc20aac93	-34.66853
138	0xc164ba38	-14.295464
139	0xc1a14686	-20.159435
140	0xc1223f19	-10.140405
141	0xc1be6b72	-23.802464
142	0xc142f3f4	-12.184559
143	0xc1d4eb8e	-26.615017
144	0xc2067372	-33.61274
145	0xc14c34ad	-12.76286
146	0xc1c900d2	-25.1254
147	0xc10b0f1d	-8.69119
148	0xc1b7330a	-22.899921
149	0xc0291c8c	-2.6423674
150	0xc1cd56b9	-25.667345
151	0xc1d13f0b	-26.155783
152	0xc20f29c5	-35.79079
153	0x3ded78ad	0.11595283
154	0xc0d51888	-6.6592445
155	0xc191d7d1	-18.23038
156	0x402c7bff	2.6950681
157	0xbd2bb41a	-0.041919805
158	0x3d2a9b13	0.041651797
159	0x3d2bb41d	0.041919816
160	0x3d2bb41d	0.041919816
161	0xbaf0eef2	-0.0018381758
162	0x3bfd7ad8	0.0077355914
163	0xbf4be61f	-0.7964801
164	0xbc98f5f5	-0.018671969
165	0xc06e6e6f	-3.7254903
166	0xbf4ab587	-0.7918324
167	0xbf28cc7f	-0.65937036
168	0xc129ee75	-10.620717
169	0xc00b746a	-2.1789804
170	0x40bd1d35	5.9098153
171	0x3fefdcf8	1.8739309
172	0xc125cb06	-10.362066
173	0xc01a00b2	-2.4062924
174	0xc0daf76d	-6.8427033
175	0xc0d06906	-6.5128202
176	0xc082a766	-4.0829344
177	0xc109d05d	-8.61337
178	0xc0abe75a	-5.371991
179	0xbf8fbb39	-1.1229011
180	0xc07f298f	-3.9869115
181	0x40577c84	3.3669748
182	0xc09c8f4c	-4.8924923
183	0xc0eacfd2	-7.3378687
184	0x3fe326d7	1.7746228
185	0xc13d595f	-11.834319
186	0xc065d547	-3.5911424
187	0xc0897da9	-4.2965894
188	0xc01b9324	-2.4308558
189	0xc11efac1	-9.936219
190	0x3d2bb419	0.0419198
191	0xbd2bb418	-0.041919798
192	0xbd2bb419	-0.0419198
193	0xbd2bb419	-0.0419198
194	0x3bf66ec0	0.0075205266
195	0xbf615c05	-0.88031036
196	0x3c8b58fa	0.0170102
197	0x3d1ac248	0.037782937
198	0x3f07477d	0.5284346
199	0x3f3144f9	0.6924587
200	0x3f15d80c	0.58532786
201	0x3f1a0b4f	0.60173506
202	0x3f053642	0.52035916
203	0x3f196acb	0.5992858
204	0x3ec5518f	0.38538787
205	0x3f5f3a82	0.8719865
206	0x3ef14089	0.4711955
207	0x3e51f867	0.20504914
208	0x3f08b3c1	0.5339928
209	0x3f2f2473	0.6841499
210	0x3eefc570	0.4683032
211	0x3e560afc	0.20902628
212	0x3eec64ff	0.46170804
213	0x3f32fcbd	0.699169
214	0x3ef66ec4	0.48131382
215	0x3f50d51d	0.81575185
216	0x3ef8e7af	0.4861426
217	0x3f44a462	0.7681333
218	0x3f3b7f49	0.73241097
219	0x3f18b7fe	0.5965575
220	0x3e81341b	0.25235066
221	0x3ece57c1	0.40301326
222	0x3f380f75	0.71898586
223	0xbd2bb41c	-0.041919813
224	0x3f615ca3	0.8803198
225	0x3d2bb419	0.0419198
226	0x3d2bb41d	0.041919816
227	0x3f5672da	0.83769
228	0x3f4bde8a	0.7963644
229	0xba9bc7c3	-0.0011885095
230	0x3cd76158	0.026291534
231	0x36de8551	6.6316356e-06
232	0x364dbaaf	3.0656045e-06
233	0x36cf50f6	6.178506e-06
234	0xb6b44b87	-5.3732106e-06
235	0x371e14bf	9.422364e-06
236	0x36ac657a	5.137813e-06
237	0xb71d1ecc	-9.3651e-06
238	0x36f7f669	7.3898595e-06
239	0x36c7e882	5.9577296e-06
240	0x36b821eb	5.487576e-06
241	0x36b62845	5.4287107e-06
242	0xb68ed97b	-4.257248e-06
243	0x36f0bf99	7.1748623e-06
244	0xb65caf3a	-3.288455e-06
245	0x36b9dee9	5.53938e-06
246	0xb6fdd281	-7.5644934e-06
247	0xb7045f42	-7.889992e-06
248	0x3694dc9f	4.4364274e-06
249	0xb6e22f70	-6.7408473e-06
250	0x36b7a5db	5.473133e-06
251	0xb6af8ed1	-5.2320324e-06
252	0x37019614	7.723942e-06
253	0x3706487b	8.003898e-06
254	0x3703742c	7.835257e-06
255	0xb6c0e58e	-5.7487696e-06

bias f4 [512]
0	0xc198b4fd	-19.088373
1	0xbebb8255	-0.36622873
2	0xc08b056f	-4.3444133
3	0x42743985	61.05617
4	0x420512ed	33.268482
5	0x3feec2b4	1.8653169
6	0xc0db3457	-6.850139
7	0xbfc19a8b	-1.5125288
8	0xc17d948e	-15.848768
9	0x41d0168c	26.01101
10	0xbc90bac4	-0.017667182
11	0xbfc7c811	-1.560793
12	0x42b3581b	89.67208
13	0x40ad0070	5.4063034
14	0xbe13baa7	-0.14426671
15	0x4232c0a1	44.688114
16	0xc0a78b8e	-5.2357855
17	0x40da9585	6.830752
18	0x40d74060	6.7266083
19	0xc18e5de3	-17.795843
20	0xc0075af6	-2.1149268
21	0x421992e4	38.393448
22	0x425863a1	54.097294
23	0xc1084dd2	-8.518999
24	0xc03c8b64	-2.9460077
25	0xbce0c1da	-0.027436186
26	0xc0c142fd	-6.0394273
27	0xc0f9e007	-7.808597
28	0xc15205e0	-13.126434
29	0xc0ad536d	-5.416434
30	0x42b1df6c	88.93637
31	0xbf3e5446	-0.7434734
32	0xc08a02e8	-4.312855
33	0x40ee978e	7.4560003
34	0xbe5d7703	-0.2162743
35	0x3eccee02	0.40025336
36	0xbf986d58	-1.1908369
37	0x3ec358ff	0.38153836
38	0x3b21a115	0.0024662663
39	0xbfa88289	-1.3164836
40	0x4165214d	14.32063
41	0xc0a315fa	-5.0964327
42	0x3f7fcfef	0.99926656
43	0xc05a492c	-3.410716
44	0xc0a716b9	-5.221524
45	0xc107c632	-8.485888
46	0xc08a3493	-4.3189178
47	0x42809e38	64.30902
48	0xc036cd62	-2.8562856
49	0xbdae704b	-0.08517512
50	0xc023fa33	-2.562146
51	0xc088b14e	-4.2716436
52	0x42c08437	96.25823
53	0xbf79c37a	-0.975639
54	0xc0a763a3	-5.2309127
55	0x3d1aaba7	0.037761357
56	0x3ced4c0a	0.028966922
57	0x4030bb79	2.7614424
58	0xc0ca3984	-6.319521
59	0x42ca3a4d	101.11387
60	0xc0bcb306	-5.8968534
61	0xbfac0a40	-1.3440628
62	0x427e4291	63.565006
63	0xbf407c62	-0.75189793
64	0xc0534d46	-3.3015914
65	0xc09299a0	-4.581253
66	0xc05d3ee9	-3.4569647
67	0xc091edaf	-4.560264
68	0xbf98d5ca	-1.1940243
69	0xbf4cdbb3	-0.80022734
70	0x41c62a24	24.770576
71	0x402c6aa5	2.694009
72	0x4126e7f8	10.431633
73	0xc0c178ac	-6.0459805
74	0x42d904f2	108.50966
75	0xc05a457d	-3.4104912
76	0x42244867	41.070705
77	0x4231d4dd	44.457874
78	0x41246acb	10.2760725
79	0xbf99941d	-1.1998326
80	0xc004e0b0	-2.0762138
81	0xc07cf6a0	-3.9525528
82	0x417b601f	15.710967
83	0xc199fe7e	-19.249264
84	0xc0e5e7fc	-7.1845684
85	0xbf55ec95	-0.8356412
86	0xbfd7eee5	-1.686978
87	0x42bda834	94.82852
88	0xc12110c5	-10.066594
89	0x412fee4a	10.995676
90	0x4119d86c	9.615337
91	0xc0ec8c5d	-7.392134
92	0x429d3b99	78.6164
93	0xbfd192e9	-1.6372958
94	0xc096d566	-4.7135496
95	0x42c4d11d	98.408424
96	0xbfb01603	-1.3756717
97	0xc002962d	-2.040416
98	0x4275c4e4	61.442276
99	0x42d55e67	106.68438
100	0x409f883d	4.9853806
101	0x415c6ed6	13.77706
102	0xc0802196	-4.0041
103	0x4208c083	34.188
104	0xc082a535	-4.082667
105	0x3ff53eb6	1.9159763
106	0xc125be48	-10.358955
107	0xc0342ad6	-2.8151145
108	0xc0f72fe8	-7.724598
109	0x41ec98bd	29.57458
110	0x4281bd47	64.86968
111	0x42a826e6	84.07597
112	0x41f19554	30.197914
113	0x428e83a7	71.25713
114	0xc0c749ad	-6.2277436
115	0xc19eedf6	-19.866192
116	0x4214bc5b	37.18394
117	0xbd279f37	-0.040923323
118	0xc089664d	-4.293738
119	0xc198d6e7	-19.104933
120	0x42109c18	36.152435
121	0xbeb96633	-0.36210784
122	0x424437d0	49.054504
123	0x41bbb4b2	23.46323
124	0x42236294	40.846268
125	0x4286807e	67.25096
126	0xbe75820e	-0.23975393
127	0x3fb5edb8	1.4213171
128	0xc10f3e7d	-8.952756
129	0xc0a99a61	-5.300095
130	0xc0a93da9	-5.288777
131	0xc09ee594	-4.9655247
132	0xc18ad5ac	-17.354332
133	0x418e5236	17.790142
134	0xc06ab289	-3.667147
135	0x42908a98	72.27069
136	0xc09b098a	-4.8449144
137	0xc00532d4	-2.0812273
138	0x3e63ffd3	0.22265558
139	0x42844c37	66.14886
140	0x41a95dcf	21.170805
141	0xc11d81b5	-9.844167
142	0x42a370a5	81.72001
143	0xc18ab41d	-17.337946
144	0xc080b284	-4.0217915
145	0x42377303	45.862316
146	0xc0180584	-2.3753366
147	0x422e5560	43.583374
148	0x4291dde0	72.93335
149	0xbfeaeea0	-1.8354073
150	0xc0fcdd2c	-7.9019985
151	0xbeb81e8d	-0.35960808
152	0xc0944e09	-4.634526
153	0xc13a2f6d	-11.636579
154	0xc0700c54	-3.7507524
155	0x41b9782c	23.183678
156	0xc0aa4106	-5.3204374
157	0xc003b6d8	-2.058035
158	0xc0a804a1	-5.250565
159	0xc117bd70	-9.483749
160	0x40dae1f7	6.8400836
161	0xc0a1d4d0	-5.057228
162	0x40a8bfb2	5.2734003
163	0x3fc0537c	1.5025477
164	0x42a04396	80.132
165	0xc0ac64aa	-5.387288
166	0xbfa40351	-1.2813512
167	0x421ec5fd	39.693348
168	0xc078beae	-3.8866382
169	0xbe60bb7f	-0.21946524
170	0xc11d7516	-9.841085
171	0xc185dbf7	-16.732405
172	0x426e200b	59.531292
173	0x3fd4aa58	1.6614485
174	0x4130eedb	11.058314
175	0x42bd96e1	94.794685
176	0x42d7dbc7	107.92925
177	0x4084a232	4.144799
178	0xc152492a	-13.142862
179	0x41e62c29	28.771563
180	0x425e8d0b	55.637737
181	0xc21f36bc	-39.80345
182	0xc0c0d061	-6.025437
183	0xc1015336	-8.082815
184	0x3fcf321b	1.6187166
185	0x41121965	9.1312
186	0x3f2ed6e2	0.68296635
187	0xc0c23ef9	-6.070187
188	0xbfb39a24	-1.4031415
189	0xc1024c5a	-8.1436405
190	0xbfce55af	-1.6119899
191	0xc09f907e	-4.986388
192	0xc0b31ce9	-5.597279
193	0xc05d9c2f	-3.4626577
194	0x42962949	75.080635
195	0x3ff26ee9	1.8940097
196	0xc065f119	-3.5928404
197	0xbf666e31	-0.9001189
198	0xc0b039df	-5.5070643
199	0xc0de1e62	-6.941209
200	0xc11fd44e	-9.989332
201	0xbffa7f78	-1.957015
202	0xbb65e15f	-0.0035076959
203	0xc0883eec	-4.257681
204	0x409ec86f	4.961967
205	0xc072b375	-3.7922032
206	0xc078f220	-3.8897781
207	0xc1a7ff22	-20.999577
208	0xc0043f93	-2.0663803
209	0x4278862b	62.131023
210	0xbfdb58d2	-1.7136481
211	0xbf5249e3	-0.8214399
212	0xc06172e5	-3.5226376
213	0x40929d4b	4.581701
214	0xc09ba772	-4.86419
215	0xbd0cb49a	-0.034351923
216	0xc04764ad	-3.1155198
217	0xc09d2e80	-4.9119263
218	0x42c16955	96.70573
219	0x4035a34c	2.8380919
220	0x4296d286	75.41118
221	0xbf99e71b	-1.2023653
222	0xc09f322f	-4.974876
223	0xbf3ef639	-0.74594456
224	0x42d25d21	105.18189
225	0x3f608bb5	0.87713176
226	0x3eff3673	0.4984623
227	0xbffa9b91	-1.9578725
228	0xc1112327	-9.071082
229	0xbfa2cb0e	-1.2718217
230	0xbf5405e8	-0.8282151
231	0xbe2cffdf	-0.16894482
232	0xc0d5fcbb	-6.687101
233	0x42adfd59	86.99482
234	0xbe900bbb	-0.2813395
235	0xc0c44cc0	-6.134369
236	0xc0d42f57	-6.630779
237	0xbe05c57a	-0.13063613
238	0xc0b7f58a	-5.748723
239	0xc0b03418	-5.506359
240	0xc1252f76	-10.324087
241	0xc12e1a29	-10.881387
242	0x40c213b5	6.0649056
243	0xc0bb554f	-5.8541636
244	0x40e2b83d	7.08499
245	0xbeb9be28	-0.3627789
246	0x41f357af	30.417814
247	0xbfe69c7d	-1.8016506
248	0x41e7894c	28.94204
249	0xc0a08d6d	-5.017264
250	0xc08a1ad7	-4.3157763
251	0x4169a313	14.602313
252	0x429076a3	72.23171
253	0x40ae99ad	5.4562593
254	0xbe3885c9	-0.18019785
255	0xc017d217	-2.3721979

weight f4 [1, 512]
0	0xbfb7c7c0	-1.4357834
1	0xbf60f7c7	-0.8787808
2	0x3ea74331	0.3266845
3	0x3f16a826	0.58850324
4	0x40a36316	5.1058455
5	0x40915db5	4.542689
6	0xbfb0c1a0	-1.380909
7	0x3e12ea0a	0.14347091
8	0xbf2a904c	-0.6662643
9	0x4088fdc9	4.2809796
10	0xbf4dce9d	-0.8039339
11	0x3f2a5d60	0.6654873
12	0x41118669	9.095315
13	0x401d8855	2.461446
14	0xbf834172	-1.0254347
15	0x407e6212	3.9747357
16	0x3e92b3e6	0.28652877
17	0x3ff6be1d	1.9276768
18	0x3fc3d34f	1.5298861
19	0x3cd0045b	0.025392702
20	0xbd5bef68	-0.053695112
21	0x4089625b	4.2932563
22	0xbe5a47c3	-0.21316437
23	0x3f8fb451	1.1226903
24	0xbf328319	-0.6973129
25	0xbf91f1f7	-1.1401967
26	0x3e9b1a59	0.3029354
27	0x403bb8d0	2.933155
28	0xbf36806a	-0.71289694
29	0xbf3aeb8a	-0.73015654
30	0x40b3f999	5.6242185
31	0xbf5cc3c8	-0.8623624
32	0xbd4c5fe8	-0.04989615
33	0x3fe3d095	1.7798029
34	0xbed12d50	-0.40854883
35	0xbf5da3e7	-0.8657822
36	0x385d0f01	5.270448e-05
37	0xc1836a20	-16.426819
38	0xbf6e9653	-0.93198127
39	0xbf0be4d3	-0.54646033
40	0x419366f8	18.425278
41	0xbd09283a	-0.03348563
42	0x3ebd4b39	0.36971453
43	0xbf548e8b	-0.83030003
44	0xbf9b7cfa	-1.2147515
45	0x402841d4	2.6290178
46	0x40a39e19	5.113049
47	0x41240c64	10.253025
48	0xbf4cdfd4	-0.80029035
49	0xbf59e241	-0.8511086
50	0xbf9ec47f	-1.2403716
51	0xbf820157	-1.0156659
52	0x410c0a7e	8.752562
53	0x3f50a1d7	0.8149695
54	0x3edf80dd	0.43653002
55	0xbf847420	-1.0347939
56	0xbfd867bb	-1.6906656
57	0xc1767a57	-15.404868
58	0x3ab28dae	0.0013622546
59	0x414c005f	12.750091
60	0x3f1b2267	0.6059937
61	0x3c18e732	0.009332465
62	0xbf2c9f9a	-0.6743103
63	0x3f480096	0.78125894
64	0x3de850fb	0.11343571
65	0x3edeb179	0.43494776
66	0x3fa1907c	1.2622218
67	0xbf8087db	-1.004146
68	0xbf844ac8	-1.0335321
69	0xbf555357	-0.8333029
70	0x41b74871	22.910372
71	0xc01a99de	-2.4156413
72	0x4045b4d5	3.089162
73	0xbd545b2f	-0.051844772
74	0x41246d12	10.2766285
75	0xbf611bf5	-0.87933284
76	0x4193fab1	18.497408
77	0x421c84e2	39.12977
78	0x3fba173b	1.4538339
79	0xbfad13a9	-1.3521625
80	0xba31dc6b	-0.0006784859
81	0x3e728dfa	0.23686972
82	0xbf6105b2	-0.87899315
83	0xbf227457	-0.6345877
84	0xbea522c3	-0.32253084
85	0xbf546218	-0.8296218
86	0x3c2fac81	0.0107222805
87	0x40d7fe5f	6.749801
88	0xbf4cad7b	-0.7995221
89	0x403e00ab	2.9687908
90	0x3fac4de6	1.3461273
91	0x3abe3cbb	0.0014513949
92	0x409e726d	4.951468
93	0x3f362ab5	0.71158916
94	0xbf3bb268	-0.733191
95	0x40ff361a	7.975354
96	0x3ed63f2d	0.41845074
97	0xbb14d4e0	-0.0022709891
98	0xbf84dbc4	-1.0379567
99	0x410afff5	8.6874895
100	0xbfb53507	-1.4156808
101	0xc13ccf35	-11.800588
102	0xbf36f326	-0.71464765
103	0x40d24eb8	6.572109
104	0x3eb794b5	0.35855642
105	0xbfd53a39	-1.6658393
106	0x3e019a9e	0.12656638
107	0xbe1c760e	-0.1527941
108	0xbfb928a4	-1.4465528
109	0xbfabbb13	-1.3416466
110	0xbee7d47c	-0.452793
111	0x409cc6c7	4.899265
112	0x3fb5abd0	1.4193058
113	0x419074a5	18.056955
114	0xbe50a554	-0.20375568
115	0xbf24991f	-0.64296144
116	0x40b17fc0	5.5468445
117	0xbf58b9c6	-0.8465847
118	0xbcd6966e	-0.026194777
119	0xbf2871a5	-0.6579841
120	0x41bfa9a7	23.957838
121	0xc19b7cef	-19.436003
122	0xbec839e2	-0.3910666
123	0xbf795a07	-0.97402996
124	0xbf28e17d	-0.6596907
125	0xc168fcac	-14.561687
126	0x3f2c449a	0.6729218
127	0xbf171b5b	-0.59026116
128	0xbfbccfdc	-1.4750934
129	0xbf4f47b2	-0.80968773
130	0xbaa2edf0	-0.001243053
131	0xbe7ea6f6	-0.24868378
132	0xbf287ff6	-0.6582025
133	0xc05efb57	-3.4840906
134	0xbf34a909	-0.7057043
135	0x40a449fe	5.1340322
136	0xbeb9960d	-0.36247292
137	0xbf3423d8	-0.70367193
138	0xbf7a8efd	-0.9787443
139	0xbf2b2c7d	-0.6686476
140	0x408671fd	4.2014146
141	0xbf4e47c5	-0.8057826
142	0x42014689	32.318882
143	0xbf2f47e8	-0.68469095
144	0x3ed0dbf2	0.40792805
145	0x404adb02	3.1696172
146	0x3a6d20c7	0.0009045717
147	0xbe4647b1	-0.19363286
148	0x4086d70d	4.2137513
149	0x3ab38e3a	0.0013699003
150	0xbc08e633	-0.008355665
151	0xbd71b3b1	-0.059009258
152	0x3a973f1e	0.0011539196
153	0xbf5c0aaf	-0.859538
154	0x3e82e96e	0.25568718
155	0xbf598726	-0.84971845
156	0x3f296681	0.66172034
157	0xbea9b95e	-0.33149236
158	0xbd0aa487	-0.03384831
159	0xbf4be50f	-0.7964639
160	0xc08078b1	-4.014733
161	0xbf569df8	-0.8383479
162	0xbf6a759f	-0.91585726
163	0xbeb4fe53	-0.35350284
164	0x406fc50a	3.7464013
165	0xbd8e6a38	-0.06953853
166	0xbfa599ed	-1.29376
167	0x41fe4519	31.78374
168	0x3b770fe6	0.0037698685
169	0xc0fb1cb8	-7.8472557
170	0x3e13db93	0.1443923
171	0xbfb73f4f	-1.4316195
172	0xbe8a03e4	-0.26956093
173	0xbf199d67	-0.600058
174	0x401aed0f	2.420719
175	0x40311d25	2.7674038
176	0x406b73e0	3.6789474
177	0x40b4252f	5.629539
178	0xbf3d90e1	-0.7404919
179	0x3feb1eb4	1.8368745
180	0x4225f8e1	41.493046
181	0x40ccadae	6.396201
182	0x3d2b815c	0.041871414
183	0xba8e2765	-0.0010845481
184	0xbfc2e2e4	-1.5225492
185	0x3fdf5d45	1.7450339
186	0x3f56f23a	0.8396336
187	0x3f1d37b7	0.6141314
188	0x3f183790	0.5945978
189	0x3ef6ea37	0.48225567
190	0xbcde5e53	-0.027144587
191	0xbf5ea70f	-0.8697366
192	0xc0131033	-2.2978637
193	0x3f512ae8	0.81706095
194	0x401b0c74	2.422635
195	0x3ec6305e	0.38708776
196	0xbf8c0bfb	-1.0941156
197	0xbf52a46b	-0.8228213
198	0x3fff73da	1.995723
199	0x3ef8593d	0.48505583
200	0xbbedd66a	-0.007258226
201	0x3eada379	0.33913782
202	0xbfa5f267	-1.29646
203	0xbf8b503f	-1.0883864
204	0x4001afaa	2.0263467
205	0x3d2b8229	0.041872177
206	0xbf543baa	-0.8290354
207	0xbf26cd4e	-0.6515702
208	0x3c206fd7	0.00979229
209	0x3f3b00c6	0.73048055
210	0xbac5068c	-0.0015031858
211	0xbf57e83f	-0.84338754
212	0x3d49b3da	0.049243785
213	0x3fab412d	1.3379265
214	0xbe9bb379	-0.30410364
215	0xbf609d34	-0.8773987
216	0xba7585fb	-0.0009365973
217	0x3ea338ba	0.31879216
218	0x40e9821c	7.2971325
219	0x3f8b1725	1.0866438
220	0xbf0a512a	-0.54030097
221	0xbf109472	-0.5647651
222	0xbea01226	-0.31263846
223	0x3e30a9b7	0.17252241
224	0x41092cbc	8.5734215
225	0xbf1efc6c	-0.62103915
226	0xbe9c870a	-0.30571777
227	0xbe7bc9bd	-0.24588676
228	0xbfa52d60	-1.2904472
229	0x3be26130	0.0069085583
230	0xbe984951	-0.29743436
231	0xbf58ad03	-0.84638995
232	0x3f829e38	1.0204535
233	0x40809cc2	4.0191355
234	0xbf5dcc93	-0.8664028
235	0xbf1c129b	-0.6096589
236	0x3f34d264	0.7063353
237	0xbf578684	-0.8418963
238	0xbe8f7b6a	-0.28023845
239	0x3f01c373	0.50688857
240	0xbf9ad986	-1.2097633
241	0xbf4f2382	-0.80913556
242	0xc136d247	-11.426337
243	0x3a9c44e9	0.0011922392
244	0x3f580ce6	0.8439468
245	0xc1c8c1fc	-25.094719
246	0x40f3b5ed	7.6159577
247	0xbf8cfbf1	-1.1014386
248	0x40651057	3.5791223
249	0x3d31572c	0.043296024
250	0x3aa364bf	0.0012465938
251	0x403615eb	2.8450878
252	0x40c5976b	6.1747336
253	0xbfb5ab50	-1.4192905
254	0xbf55f7a4	-0.83580995
255	0x3e76bada	0.24094716
