data/cflp/nn_e_f10_c10_r2.0_iss1_bt1_nsp10000_nse5000_sd7.pt (torch, 216655 bytes, 7 tensors)

weight f4 [512, 10]
-0.005370853 -0.0020888092 -0.014981023 -0.016505437 -0.016767826 -0.009524988 -0.0050542816 -0.01762097
-0.01908791 -0.012288757 0.42156154 0.43971863 0.38211668 1.117783 -2.6310704 0.4354003
-0.21613361 0.114572324 -1.8190055 -0.53523505 -1.0201465 -2.2540593 -1.2666061 0.4403497
0.97978485 0.41752914 -0.113540515 -0.26084352 0.8855651 -1.0670704 -0.31778497 -0.7801574
1.4277788 -0.23050547 -0.6135367 -0.14163941 0.03430716 -0.5204399 0.80605567 -0.66127163
-0.31303012 -2.3487353 0.34158117 -0.2731653 -0.55428934 0.5554306 -0.24405761 -2.4128232
0.8794219 0.7996766 -0.051444776 -0.063490346 -0.05908085 -0.053449944 -0.08108094 -0.062642604
-0.050420992 -0.075902954 -0.068743974 -0.072005406 -0.07076505 -0.06897959 -0.06720043 -0.066377334
-0.0696676 -0.06666244 -0.0664147 -0.063273385 -0.06607133 -0.069526546 -0.9555788 -0.16357747
-1.9010009 -0.010615381 0.9492067 -0.37835684 -0.59549785 0.7330635 0.9908769 -0.84962547
-0.9064822 0.56550235 -0.38565272 -0.13764039 -1.1658779 1.4369999 0.78242093 -0.70561343
-1.2050102 -0.11183583 -0.010642742 -0.02150101 -0.0104062855 -0.024082487 4.5053453e-06 -0.014177913
-0.030193683 -0.021158317 -0.024216006 -0.021105465 -0.5648626 0.08465924 0.31488562 -1.5846994
0.35216483 1.7354048 0.4176989 -1.1964577 -0.91049993 -1.1395516 -0.4514081 -0.5842322
-0.53528005 -0.08187276 1.5299476 0.9824728 -0.5499522 -1.0080134 -0.83906925 -0.49941406
-0.5845151 1.1850659 1.1634967 -1.0350891 -0.21132195 0.8241239 -0.46400478 -0.8364986
-0.26532108 -1.9971068 0.6600591 0.025163164 -0.47936285 -1.5185363 -0.4063622 0.29061192
1.3269831 -1.346521 -0.2685713 0.26879296 -0.44552994 -0.18413487 0.07328186 -0.60784346
0.23279272 -1.1940488 -0.5063035 1.757541 -0.61213356 -0.7523342 -0.036414854 -0.07117618
-0.047290057 -0.060428735 -0.06462155 -0.043024357 -0.057260968 -0.050063264 -0.05014162 -0.03629226
1.3788124 0.8295522 -0.54605365 0.077596866 -1.1657387 -0.94323856 -0.28365916 -1.8258636
-0.6506462 0.63219684 -0.2835175 -1.2391208 0.7321236 0.020433875 0.6047305 1.4400655
-1.1534286 -0.5484563 -0.6997771 -0.94096583 -1.7485493 0.6278085 0.21737088 0.13831192
0.105750374 -1.3964152 -0.8124395 -0.24422957 1.29416 -1.6774049 -0.06262753 -0.05465139
-0.056781728 -0.05695509 -0.04566985 -0.06273398 -0.066371895 -0.064223506 -0.05957278 -0.054612707
6.386901e-05 -0.0006522956 -0.0008226639 -0.003785672 0.00016213128 0.00016458504 -7.0395596e-05 -0.0066310647
-0.013133212 -0.0012556948 -0.09946008 -0.09884353 -0.099837996 -0.101186156 -0.09446042 -0.09854878
-0.10101486 -0.09187579 -0.098254636 -0.09823107 -0.18261246 -0.7692385 -0.71039516 0.22234748
-1.0567596 0.5869567 0.11016019 1.582484 -0.5324592 -0.87256664 0.45438543 -0.5199139
1.523568e-05 -1.9319639 0.5624214 -0.8562894 1.1109054 -1.0233735 0.7274674 -0.4744584
-0.044428676 -0.03610438 -0.034171008 -0.039802905 -0.040670354 -0.03947983 -0.042663004 -0.04136938
-0.04742891 -0.043485608 0.1819723 -0.59308785 -0.46568716 1.678691 -0.27207297 0.029059485
00000000: fbfd afbb 67e4 08bb f772 75bc 6936 87bc
00000010: ae5c 89bc b20e 1cbc 639e a5bb da59 90bc
00000020: 405e 9cbc c856 49bc ead6 d73e cd22 e13e
00000030: cca4 c33e 8313 8f3f 7563 28c0 caec de3e
00000040: 2152 5dbe e5a4 ea3d 2cd5 e8bf 2a05 09bf
00000050: 2994 82bf 8242 10c0 2620 a2bf 8475 e13e
00000060: 2ed3 7a3f 61c6 d53e ee87 e8bd 488d 85be
00000070: 65b4 623f c395 88bf b6b4 a2be 65b8 47bf
00000080: 75c1 b63f a009 6cbe be10 1dbf ec09 11be
00000090: aa85 0c3d 8d3b 05bf aa59 4e3f 1949 29bf
000000a0: 7c45 a0be ae51 16c0 bae3 ae3e 52dc 8bbe
000000b0: e8e5 0dbf b330 0e3f 3dea 79be b26b 1ac0
000000c0: cb21 613f 9bb7 4c3f c2b7 52bd 3a07 82bd
000000d0: c3fe 71bd 54ee 5abd c40d a6bd c44a 80bd
000000e0: 3e86 4ebd 0273 9bbd a4c9 8cbd 9277 93bd
000000f0: 44ed 90bd 2c45 8dbd 61a0 89bd d7f0 87bd
00000100: e3ad 8ebd 5186 88bd 6e04 88bd 7a95 81bd
00000110: 6850 87bd ef63 8ebd d0a0 74bf da80 27be
00000120: ff53 f3bf 23ec 2dbc 36ff 723f fdb7 c1be
00000130: 8c72 18bf 0daa 3b3f 1caa 7d3f 0e81 59bf
00000140: 380f 68bf c3c4 103f 4674 c5be 9af1 0cbe
00000150: 7d3b 95bf 9def b73f bd4c 483f 15a3 34bf
00000160: c63d 9abf 2f0a e5bd e55e 2ebc e322 b0bc
00000170: 207f 2abc a348 c5bc 9f2c 9736 7a4a 68bc
00000180: be58 f7bc 3554 adbc a560 c6bc 5ee5 acbc
00000190: d69a 10bf d361 ad3d b038 a13e 6ed7 cabf
000001a0: f34e b43e bf21 de3f a1dc d53e 8725 99bf
000001b0: 8616 69bf d4dc 91bf f61e e7be 3e90 15bf
000001c0: 1d08 09bf e8ac a7bd 53d5 c33f 5683 7b3f
000001d0: abc9 0cbf 9506 81bf 3ecd 56bf 33b3 ffbe
000001e0: c8a2 15bf 3db0 973f 76ed 943f cd7d 84bf
000001f0: c864 58be c9f9 523f 0992 edbe c624 56bf
00000200: 2ad8 87be 32a1 ffbf a2f9 283f fb22 ce3c
00000210: 0c6f f5be 665f c2bf b50e d0be 16cb 943e
00000220: 95da a93f cd5a acbf 2d82 89be 3b9f 893e
00000230: 801c e4be da8d 3cbe cd14 963d a19b 1bbf
00000240: 3761 6e3e 97d6 98bf 1b9d 01bf 1af7 e03f
00000250: c9b4 1cbf f998 40bf be27 15bd d1c4 91bd
00000260: 38b3 41bd 1f84 77bd 4e58 84bd 4f3a 30bd
00000270: 7a8a 6abd 230f 4dbd 4d61 4dbd 31a7 14bd
00000280: ed7c b03f 885d 543f 2cca 0bbf 1beb 9e3d
00000290: ed36 95bf 1578 71bf c63b 91be e6b5 e9bf
000002a0: c090 26bf a7d7 213f 3529 91be 839b 9ebf
000002b0: 746c 3b3f f164 a73c 9ecf 1a3f 1154 b83f
000002c0: 8ca3 93bf a267 0cbf 9824 33bf 23e3 70bf
000002d0: 77d0 dfbf 0fb8 203f 7996 5e3e a4a1 0d3e
000002e0: a793 d83d bcbd b2bf 09fc 4fbf 5117 7abe
000002f0: 09a7 a53f 34b5 d6bf dd42 80bd 23da 5fbd
00000300: f593 68bd be49 69bd 4f10 3bbd ac7a 80bd
00000310: fded 87bd 9d87 83bd 9602 74bd 93b1 5fbd
00000320: 6af1 8538 d1fe 2aba 0aa8 57ba 0919 78bb
00000330: c901 2a39 7694 2c39 59a1 93b8 6749 d9bb
00000340: af2c 57bc 2096 a4ba bab1 cbbd 7a6e cabd
00000350: dd77 ccbd b03a cfbd 7774 c1bd f1d3 c9bd
00000360: e1e0 cebd 6029 bcbd ba39 c9bd 5f2d c9bd
00000370: c3fe 3abe d0ec 44bf 75dc 35bf 0faf 633e
00000380: e643 87bf cb42 163f aa9b e13d d68e ca3f
00000390: 3f4f 08bf 8760 5fbf 35a5 e83e 1419 05bf
000003a0: bf9c 7f37 984a f7bf d9fa 0f3f c835 5bbf
000003b0: 2632 8e3f e7fd 82bf 4e3b 3a3f 36ec f2be
000003c0: d8fa 35bd 30e2 13bd e6f6 0bbd 5f08 23bd
000003d0: f595 26bd 9ab5 21bd 67bf 2ebd f072 29bd
000003e0: d144 42bd f71d 32bd f256 3a3e 9bd4 17bf
000003f0: 8c6e eebe 59df d63f 264d 8bbe 280e ee3c

weight f4 [64, 512]
0.00010433669 0.23669025 -1.0181439e-05 0.000106683634 -2.2763357e-05 -0.000217367 -0.00020960657 0.0027824019
-0.18342827 0.00049746316 -1.8921128e-06 0.09172668 4.1146413e-05 -0.017416906 0.5724276 -0.00019284443
0.00020877455 -0.00026741353 -4.680611e-05 -0.00085584243 -0.0008553666 1.912757e-05 0.15698785 8.885078e-06
9.1944305e-05 -0.18171957 -2.3995588e-05 0.0007164316 0.0005713665 -0.0003551776 -0.00063892687 -0.00013528341
-0.07124216 -0.13387857 -7.114814e-05 0.00016410674 0.00028422926 -0.35588375 0.1619398 9.8908735e-05
0.0010755832 -2.458134e-05 0.0008553674 0.31686255 -0.0009500443 -0.6145787 -0.05944005 -0.14118183
-1.1022467e-05 -0.6636215 -0.0009501657 -0.34665683 0.051707026 0.13557704 0.00071275525 -0.03016352
-0.19470508 -0.0005380247 -0.00020741952 0.08356501 -0.65868366 -0.28186402 -0.00020934077 -6.818665e-05
0.0008558422 -0.00022749005 -0.00058394106 -0.097509705 0.00046906996 1.1437228 -6.241748e-06 0.00053932855
1.0911299e-05 0.00034476395 -0.36466172 0.00012252659 0.122475885 -0.14944735 0.0001679474 -0.5143277
-4.4079698e-05 3.0925705e-05 -0.00013178092 0.0002932125 -0.0018391734 -0.00022740998 -0.25085083 -0.33166513
0.00035524074 -0.00028465613 -0.06429463 -0.6399798 0.00024686687 0.000890988 -0.23359188 -0.0005713071
-0.057934478 -0.5904112 -0.05998467 0.00077095727 -0.00012739417 0.00016971648 0.18946002 1.1736328e-05
-0.07447535 -0.11448565 0.057750124 0.00032917128 -0.00085478043 -0.39018613 -0.0001225377 -0.00038481504
-0.10866541 -0.084863886 0.00025072973 -0.00021580936 0.0002863022 0.00024529424 -0.49138737 -0.0008339987
0.00012246374 -0.5681899 0.00088273064 -3.603648e-05 -0.0005347596 -0.07975314 -0.000292879 -0.070994526
7.698966e-05 0.00056865404 4.6010235e-05 -0.13315581 -0.0005621255 -0.00044902563 0.00013654956 0.00083469733
0.281363 -0.000116676165 -0.00048600236 3.1571366e-05 0.012530659 -0.035678927 0.5224337 -0.09922919
-0.35026994 -0.06863554 0.3983576 -0.8908764 -0.022158649 0.040266316 -0.12293776 -0.0003548986
-0.0717508 4.5546485e-06 -0.0005709151 -0.0003804778 -0.00015730619 -0.17559014 -0.29580268 9.641579e-06
0.23359467 0.3224263 -0.00088902476 -3.0967287e-05 -0.40322334 -0.4696323 -0.09220336 -0.00077677367
-0.021055846 -0.0010811499 0.00019425407 -0.00082984124 -0.00038738933 -0.19336522 -3.5187262e-05 -0.0008414603
-0.5338024 -0.007192351 -0.00046375705 -0.079518214 -0.5227495 2.4152523e-05 0.059324153 0.0010678563
0.00011920707 -0.14959195 0.00011428982 -6.4707006e-06 0.14138949 -0.0010673011 0.012027495 0.000293757
6.4374624e-05 -0.00039798475 -0.27001613 -0.00049466087 0.7208904 0.00011963641 6.41176e-05 -0.08958408
-0.15886867 0.11689822 -0.3798402 -0.00037175397 -0.58429664 -0.12585236 0.00068880804 3.1678721e-06
0.00011575986 0.26343206 0.00054900354 0.0003895048 9.905925e-05 -1.2278523 -0.00034719164 0.007094539
-8.073303e-05 -0.0010553238 -0.0018819105 -0.016466236 -0.24754453 -0.00012252442 -0.00042833 0.0003305441
-0.59252226 -0.32512715 -0.00028848142 -1.2089348e-05 0.00070185016 8.922939e-05 0.00029516782 -0.0003715381
0.03847858 0.0004820593 -0.07705556 -0.13062209 -4.0255154e-06 -0.00012253596 0.8284454 8.158842e-05
0.015480663 4.1748757e-05 -0.09682618 -0.32605436 -0.037824877 -9.4688025e-05 -0.40767863 3.800599e-05
0.0947967 -1.1626996 9.367642e-06 0.18254288 -0.096217506 -0.0018703537 0.000235537 0.39819592
00000000: 55cf da38 ee5e 723e f3d0 2ab7 57bb df38
00000010: f0f3 beb7 02ed 63b9 d6c9 5bb9 f558 363b
00000020: 9fd4 3bbe 3068 023a 80f4 fdb5 33db bb3d
00000030: a094 2c38 e6ad 8ebc 9d8a 123f 4836 4ab9
00000040: 7eea 5a39 a333 8cb9 ae51 44b8 9d5a 60ba
00000050: ae3a 60ba 2574 a037 6cc1 203e 1f11 1537
00000060: 39d2 c038 b214 3abe 224a c9b7 e9ce 3b3a
00000070: c2c7 153a 2137 bab9 a87d 27ba ddda 0db9
00000080: 69e7 91bd 7717 09be 5e35 95b8 1114 2c39
00000090: 9b04 9539 6536 b6be 8cd3 253e 396d cf38
000000a0: 95fa 8c3a 0734 ceb7 bc3a 603a cf3b a23e
000000b0: 650c 79ba 0855 1dbf 6977 73bd f891 10be
000000c0: 23ed 38b7 19e3 29bf 8a14 79ba 017d b1be
000000d0: bfca 533d b5d4 0a3e 32d8 3a3a 7c19 f7bc
000000e0: c560 47be 3a0a 0dba c17e 59b9 2224 ab3d
000000f0: 7e9f 28bf 7b50 90be 7c82 5bb9 6eff 8eb8
00000100: 995a 603a 658a 6eb9 9f13 19ba 2bb3 c7bd
00000110: 81ed f539 8265 923f 3570 d1b6 ba61 0d3a
00000120: ac0f 3737 6fc1 b439 f1b4 babe 7b7a 0039
00000130: a3d4 fa3d ba08 19be 091b 3039 fbaa 03bf
00000140: 37e2 38b8 39b6 0138 ac2e 0ab9 51ba 9939
00000150: 6b10 f1ba e774 6eb9 856f 80be 03d0 a9be
00000160: 9b3f ba39 e63d 95b9 e7ac 83bd b7d5 23bf
00000170: e96d 8139 3191 693a b632 6fbe c5c3 15ba
00000180: b44c 6dbd 3025 17bf 7cb2 75bd 111a 4a3a
00000190: 1d95 05b9 ecf5 3139 cf01 423e 25e7 4437
000001a0: 8886 98bd 7477 eabd 658b 6c3d 9f94 ac39
000001b0: 5813 60ba 7ac6 c7be 777d 00b9 00c1 c9b9
000001c0: f88b debd 1ecd adbd 6074 8339 e24a 62b9
000001d0: d51a 9639 d69a 8039 2097 fbbe b5a0 5aba
000001e0: 9c69 0039 e574 11bf 0d67 673a e025 17b8
000001f0: 1c2f 0cba 9d55 a3bd 8e8d 99b9 9465 91bd
00000200: 8275 a138 ba11 153a 1dfb 4038 ff59 08be
00000210: 9b5b 13ba 336b ebb9 be2e 0f39 97cf 5a3a
00000220: d00e 903e 0ab0 f4b8 22ce feb9 7f6b 0438
00000230: 654d 4d3c 1124 12bd 37be 053f ac38 cbbd
00000240: 9556 b3be ca90 8cbd 87f5 cb3e 7a10 64bf
00000250: 0e86 b5bc 4bee 243d cbc6 fbbd af11 bab9
00000260: 15f2 92bd 22d4 9836 77a9 15ba de7a c7b9
00000270: 8ff2 24b9 e7cd 33be 7373 97be 44c2 2137
00000280: 7133 6f3e 0f15 a53e 710d 69ba dfe2 01b8
00000290: 4a73 cebe a573 f0be 1dd5 bcbd 66a0 4bba
000002a0: 4f7d acbc 5fb5 8dba aeb0 4b39 b489 59ba
000002b0: 841a cbb9 8801 46be 0996 13b8 7295 5cba
000002c0: 46a7 08bf d0ad ebbb 6b24 f3b9 72da a2bd
000002d0: e9d2 05bf 269b ca37 e2fd 723d 50f7 8b3a
000002e0: cffe f938 a22e 19be e1ae ef38 e51e d9b6
000002f0: 68c8 103e afe4 8bba f80e 453c 6603 9a39
00000300: dd00 8738 9ca8 d0b9 8e3f 8abe 21ac 01ba
00000310: 468c 383f 4fe5 fa38 e076 8638 dc77 b7bd
00000320: 78ae 22be 5568 ef3d 6a7a c2be f9e7 c2b9
00000330: 7794 15bf 71df 00be 2091 343a a197 5436
00000340: 1ac4 f238 91e0 863e 01eb 0f3a 7336 cc39
00000350: 08be cf38 442a 9dbf 4607 b6b9 4e79 e83b
00000360: 374f a9b8 ca52 8aba 70aa f6ba 33e4 86bc
00000370: 507c 7dbe e679 00b9 7b91 e0b9 e14c ad39
00000380: 8aaf 17bf 1177 a6be 523f 97b9 5bd3 4ab7
00000390: 5efc 373a aa20 bb38 c1c0 9a39 00cb c2b9
000003a0: b79b 1d3d e7bc fc39 4ecf 9dbd ccc1 05be
000003b0: ea12 87b6 ff7c 00b9 ff14 543f 731a ab38
000003c0: 9ba2 7d3c 631b 2f38 ce4c c6bd 99f0 a6be
000003d0: 42ee 1abd 3f93 c6b8 41bb d0be 9f68 1f38
000003e0: c624 c23d 57d3 94bf b729 1d37 85ec 3a3e
000003f0: af0d c5bd a826 f5ba 7bfa 7639 56e0 cb3e

weight f4 [16, 64]
-0.275653 5.1984243e-06 0.184735 -0.038684055 -2.080521 -0.4586111 -0.24575423 0.066352606
-0.06875299 -0.13473545 0.09346226 0.297078 -1.4877112e-06 0.06258347 0.0373635 -0.049681783
0.14755331 0.1959462 0.027975895 -0.019587237 0.027853942 -0.0039896974 0.115108885 0.08035587
-0.82002854 0.053710006 0.048434988 0.14580804 0.14540133 -0.030859925 -0.1636292 -0.23855269
-0.20223124 -0.38514107 0.0666008 -0.7288843 0.019858234 -0.501236 -0.15046623 0.012188441
0.07445812 0.050628684 -0.0066655306 -2.1928155 -0.045295924 1.4020154e-05 -0.09265721 -0.0238102
0.120190434 0.072189115 -1.3660506 0.015605786 -0.008498501 0.03554799 0.4765024 0.10158735
0.23202254 0.10951858 0.085235156 -0.19154416 -0.20669979 0.098026164 0.32215682 -0.02276576
-0.00039823324 -0.0006394071 5.1461277e-05 -0.00029375666 0.0003896078 -1.3213811e-05 0.00029376624 0.0012573916
-0.00028465968 0.001257394 0.0005716199 -0.0014520828 0.00049753964 0.00049753964 0.0010887267 -0.00033377914
-0.0005846584 0.002091224 0.0005686583 0.0006872321 0.00046686557 0.0008553431 0.00028631676 0.0014520644
0.0006657392 0.00088366424 -0.0012573942 -0.0002863184 -0.0010873774 -0.00033375408 -2.4425566e-05 0.00085538975
-0.00038960733 0.0005490369 -0.00038961234 -0.000568657 -0.0013712507 0.00033377914 0.00056865497 0.00056864606
0.00038961356 0.0010873774 0.00019746878 0.0002863238 -3.5732643e-05 0.0010745557 0.0020912215 -0.00016275869
-0.00029376158 -0.00033375606 -0.0005715736 0.0005715971 -0.00029377252 0.0007968761 0.0005490397 0.0009504529
0.0005716195 0.000639407 -0.00033375606 0.00026566052 0.00085536554 0.0009504749 0.00033377914 0.00028465834
-0.4412133 4.061824e-06 -0.14711294 0.06778366 -2.2322469 -0.019304512 0.10670229 -0.058762733
-0.2791682 -0.08887383 -0.16815116 -0.33131316 -0.13648677 -0.014161631 -0.0460553 -0.074975595
0.011876043 0.039333295 -0.0013824686 -0.010422328 0.08484369 0.061561543 -0.024126712 -0.13115087
-1.615742 -0.13412057 0.092054494 -0.05136942 -0.48720464 0.02692918 0.09678568 -0.1832717
0.12912886 -0.28759232 -0.023654621 -2.4836514 -0.1979076 -0.22560287 -0.18004934 0.18446968
0.060685586 0.013362406 -0.07072345 -3.2901752 -0.013713311 4.0008783e-07 -0.0066974284 -0.66222227
0.031930707 -0.114033416 -1.176445 -0.15794814 0.0160758 -0.008720977 -0.0066512483 -0.021553343
-0.34867856 0.10888142 0.027366823 -0.12272336 0.027421562 -0.03462763 -0.2660097 0.11398093
-0.40030137 1.8454284e-05 0.61774045 0.35294265 -3.1323564 -0.67709565 -0.71019447 0.97561455
0.079692736 -0.9423179 0.6635194 0.90219474 -0.027113784 0.2604758 -0.22088788 -0.0326201
0.26694688 0.4229926 -0.31118935 -0.049046807 0.4016733 0.46290675 0.3072637 0.5230609
-5.106481 0.21293648 0.29625356 0.059023306 0.5692385 0.22900125 -1.0275228 -0.58753526
-0.4973607 -0.9214761 0.3910456 -3.0992305 -1.0449046 -0.47374395 -0.8177626 0.15452164
0.38665116 0.19492982 -0.13452536 -2.8612068 0.6239626 -1.4426314e-05 -0.8704365 -0.74217653
0.3832295 -0.29325572 -2.5432093 -0.48968813 0.04293286 -0.2000977 0.4148386 0.25033313
0.4922794 0.12704219 0.18268579 -0.5000825 0.25438648 -0.56859565 0.6021244 -0.6539176
00000000: 6422 8dbe 206e ae36 2c2b 3d3e 2c73 1ebd
00000010: 4227 05c0 13cf eabe ffa6 7bbe e0e3 873d
00000020: 5ece 8cbd 17f8 09be 2469 bf3d 9c1a 983e
00000030: 5ead c7b5 c32b 803d 780a 193d 207f 4bbd
00000040: 3718 173e 1fa6 483e b42d e53c 6a75 a0bc
00000050: f32d e43c 02bc 82bb 35be eb3d 9e91 a43d
00000060: 64ed 51bf 06ff 5b3d c463 463d b44e 153e
00000070: 16e4 143e f4cd fcbc 6a8e 27be 2847 74be
00000080: b515 4fbe 3631 c5be 0066 883d 2998 3abf
00000090: bcad a23c 0151 00bf d213 1abe 07b2 473c
000000a0: 807d 983d 0660 4f3d 866a dabb 1757 0cc0
000000b0: 3888 39bd 1a38 6b37 10c3 bdbd 9c0d c3bc
000000c0: 6726 f63d e3d7 933d bfda aebf 69af 7f3c
000000d0: 4c3d 0bbc c59a 113d 1ff8 f33e 070d d03d
000000e0: 5197 6d3e 474b e03d c58f ae3d 2724 44be
000000f0: 1ca9 53be f1c1 c83d bdf1 a43e 427f babc
00000100: f6c9 d0b9 e29d 27ba 20d8 5738 5a03 9ab9
00000110: 4644 cc39 e3b0 5db7 a304 9a39 10cf a43a
00000120: 603e 95b9 24cf a43a c3d8 153a d053 beba
00000130: 526d 023a 526d 023a 9bb3 8e3a 14ff aeb9
00000140: c343 19ba eb0c 093b 0312 153a 5e27 343a
00000150: a3c5 f439 1b39 603a c91c 9639 3253 be3a
00000160: 0085 2e3a b4a5 673a 26cf a4ba 011d 96b9
00000170: 5586 8eba b7fb aeb9 81e5 ccb7 3c3c 603a
00000180: 3644 ccb9 3eed 0f3a e244 ccb9 ed11 15ba
00000190: 8abb b3ba 14ff ae39 ca11 153a 3111 153a
000001a0: 0c45 cc39 5586 8e3a 9f0f 4f39 bb1d 9639
000001b0: a2df 15b8 1bd8 8c3a e00c 093b 34aa 2ab9
000001c0: 0304 9ab9 fbfb aeb9 a8d5 15ba 3bd7 153a
000001d0: 7b05 9ab9 73e5 503a 6eed 0f3a d027 793a
000001e0: bcd8 153a e19d 273a fbfb aeb9 5a48 8b39
000001f0: 9c3a 603a 4a29 793a 14ff ae39 323e 9539
00000200: b6e6 e1be cd4a 8836 c6a4 16be 29d2 8a3d
00000210: 22dd 0ec0 7f24 9ebc bb86 da3d 31b1 70bd
00000220: 22ef 8ebe 7c03 b6bd d12f 2cbe e1a1 a9be
00000230: 30c3 0bbe 3006 68bc 7ba4 3cbd ce8c 99bd
00000240: bc93 423c f31b 213d f333 b5ba 69c2 2abc
00000250: 87c2 ad3d f527 7c3d 62a5 c5bc 6a4c 06be
00000260: a2d0 cebf e756 09be 1187 bc3d be68 52bd
00000270: e372 f9be 959a dc3c 9237 c63d 94ab 3bbe
00000280: 5b3a 043e 4d3f 93be 56c7 c1bc 25f4 1ec0
00000290: 4aa8 4abe 7004 67be db5e 38be 9fe5 3c3e
000002a0: 7391 783d feed 5a3c 75d7 90bd 3b92 52c0
000002b0: ccad 60bc a7cb d634 1a76 dbbb 6687 29bf
000002c0: c6c9 023d 5a8a e9bd c095 96bf 28bd 21be
000002d0: 65b1 833c 6ee2 0ebc b7f2 d9bb a390 b0bc
000002e0: ff85 b2be 39fd de3d 6330 e03c 6356 fbbd
000002f0: 2fa3 e03c b4d5 0dbd 6c32 88be d56e e93d
00000300: 4df4 ccbe 46ce 9a37 3d24 1e3f e6b4 b43e
00000310: 8778 48c0 2456 2dbf 4ecf 35bf e0c1 793f
00000320: f235 a33d bf3b 71bf 68dc 293f 3cf6 663f
00000330: ba1d debc 165d 853e 6f30 62be a79c 05bd
00000340: 43ad 883e 7c92 d83e 3654 9fbe 4ee5 48bd
00000350: 1fa8 cd3e 1d02 ed3e ab51 9d3e 52e7 053f
00000360: 4b68 a3c0 050c 5a3e 8cae 973e 6cc2 713d
00000370: 9db9 113f 4e7f 6a3e de85 83bf b668 16bf
00000380: 10a6 febe dce5 6bbf 2137 c83e cb59 46c0
00000390: 6fbf 85bf 918e f2be e458 51bf ec3a 1e3e
000003a0: 24f7 c53e af9b 473e 04c1 09be 031e 37c0
000003b0: 03bc 1f3f 8c08 72b7 edd4 5ebf 48ff 3dbf
000003c0: a836 c43e 9d25 96be f1c3 22c0 67b8 fabe
000003d0: 5eda 2f3d 69e6 4cbe ba65 d43e aa2b 803e
000003e0: 0c0c fc3e 5917 023e fc11 3b3e 6805 00bf
000003f0: f23e 823e 7c8f 11bf d324 1a3f 2567 27bf

bias f4 [16]
7.4807796 -0.07026483 7.4939837 6.8542233 6.534705 -0.028967222 5.885359 6.1935453
6.3990364 -0.052401394 6.9788337 -0.105892636 5.249338 -0.15610525 7.573639 5.3982444
00000000: 8c62 ef40 02e7 8fbd b7ce ef40 cc55 db40
00000010: 4e1c d140 ab4c edbc dc54 bc40 8631 c640
00000020: e8c4 cc40 d8a2 56bd 9b52 df40 3dde d8bd
00000030: 94fa a740 0eda 1fbe 405b f240 6bbe ac40

weight f4 [512, 26]
0.26239154 -2.7715418 -0.024208425 -2.5114467 -2.753133 -2.7248251 -1.7886212 -3.071045
-1.4345113 -3.0276616 2.5038462 9.90577e-05 -0.16487359 -0.86476153 -0.35113198 -0.0005686497
0.46643898 -0.4529164 -0.8544204 -0.0008836628 -0.11330822 0.0012573921 1.321549 -0.00049753964
-0.41049758 -0.43847778 -0.68717694 -5.6767693 -0.060883746 -3.8116467 -5.911937 -4.9962645
-4.2262745 -7.188829 -0.022045517 -5.759103 0.35428795 -0.00038961502 0.32166836 0.5517434
0.22430418 0.00021676204 0.591412 0.34474143 0.34031138 -0.00013359406 0.5344845 -0.00049753895
-0.07724384 0.00056866475 0.40533125 -3.8895452 -2.014624 -6.4434896 -1.301301 -1.9774643
-8.076046 -5.823971 -3.0553029 -6.6335 -0.22836673 -6.539169 1.7566391 -0.00021682854
-0.1129902 0.7041352 -0.8183072 0.0008553674 -0.37707925 0.8952186 -0.34613416 0.00032568333
-0.19171697 0.0002656607 0.21092695 0.0002937604 -0.57396674 0.40118128 -1.5218108 -4.9913945
-1.4801301 -3.6964388 -4.9002314 -6.070617 -3.8079195 -7.7031436 -1.6765361 -5.8722606
0.21188417 0.00029376658 0.29636797 0.542058 0.027266907 -0.0006394087 0.19386713 0.24963506
0.051315643 -0.00020141767 1.1180952 0.0003982272 -0.7385483 -3.4773504e-05 0.3376992 -0.68661577
-0.58549166 -6.010252 0.4301271 -5.4211326 -7.0795026 -6.8722496 -5.393152 -8.822475
0.70435923 -6.8153133 0.20942168 0.00095045264 0.075739495 0.4259968 0.33091828 0.0018391741
0.3587309 -0.18378499 0.100603074 0.00029377206 0.18969056 0.0014520768 0.487721 -0.00038961173
0.08937689 0.36529285 -0.0018819084 0.00029375975 -0.00057163584 0.00056866475 -0.0014520948 5.146035e-05
-0.00056866626 0.00056866405 0.0005715599 -0.00021679247 0.001062837 0.0005490402 -0.00058466295 0.00038961554
0.00056864775 0.00029377098 -0.0006872329 -0.00029377104 9.9056655e-05 0.00024573255 0.00047060073 -9.905761e-05
0.00026566494 -0.00013359838 -0.00038961007 -0.00033375624 -1.9021783 -7.4051313 -1.6272025 -4.277558
-5.804734 -7.358613 -3.6265168 -7.1471753 -2.769623 -5.9364395 0.17960443 0.00056865584
0.94455194 0.23121472 0.6546449 -0.0010873752 0.19360948 0.5196509 -0.62777704 5.145866e-05
-0.2356817 0.0003896136 -0.43833962 0.00013359674 0.8154777 -0.43314087 0.65571946 -7.582328
0.8860773 -2.9413147 -9.535252 -6.4284883 -2.5055401 -6.8452606 1.6897666 -7.2756763
0.31382835 -0.00085534324 0.48578662 -0.29729927 0.3351573 -0.00020141716 -0.53666174 0.19495353
3.3023682 0.001452084 -0.66592824 0.0001627535 -2.13578 -0.0002656639 -4.39421 0.115455315
0.0018819023 -0.00024573252 0.0009504532 0.00033375536 0.0001225334 -0.0010886068 -0.00024088877 -0.0012573933
-2.7695998e-05 0.00028465557 -0.00057159696 -0.00056865264 -0.0003896105 -0.00045368407 -0.0002593758 5.1461047e-05
-0.000497538 0.0003896069 0.000100178775 0.0004823342 -0.00057159894 -0.00077732635 5.146306e-05 -0.0002014163
0.00063940516 -0.0002593758 -3.1503026 -5.464937 -2.4091837 -3.1935518 -7.127993 -6.2506504
-3.9787202 -8.221663 -2.1679492 -6.537486 0.64594257 -0.00029375232 0.56659037 0.4310246
-0.25180522 -0.0007968853 0.08670049 -0.059999056 -0.00077704265 -0.0010873781 0.38756365 0.00056864566
00000000: 2f58 863e f160 31c0 bf50 c6bc 8bbb 20c0
00000010: 5533 30c0 8963 2ec0 8af1 e4bf 008c 44c0
00000020: 119e b7bf 35c5 41c0 043f 2040 33bd cf38
00000030: 9fd4 28be 0361 5dbf 92c7 b3be 6f11 15ba
00000040: 17d1 ee3e a9e4 e7be 4cbb 5abf 9ba5 67ba
00000050: 240e e8bd 14cf a43a 8528 a93f 526d 02ba
00000060: bd2c d2be 2980 e0be d4ea 2fbf 18a8 b5c0
00000070: 3c61 79bd 05f2 73c0 972e bdc0 66e1 9fc0
00000080: a43d 87c0 e30a e6c0 cd98 b4bc 924a b8c0
00000090: 3b65 b53e 3e45 ccb9 b7b1 a43e 0e3f 0d3f
000000a0: ffaf 653e 9e4a 6339 c766 173f f381 b03e
000000b0: 4b3d ae3e 6215 0cb9 fad3 083f 466d 02ba
000000c0: 0532 9ebd 7212 153a 9487 cf3e 4fee 78c0
000000d0: 9aef 00c0 1131 cec0 0891 a6bf 8d1d fdbf
000000e0: 7c37 01c1 f85d bac0 158a 43c0 a245 d4c0
000000f0: f8d8 69be df40 d1c0 8dd9 e03f 785c 63b9
00000100: 6867 e7bd 3442 343f 957c 51bf bc3a 603a
00000110: 8810 c1be 0c2d 653f 7f38 b1be 7ac0 aa39
00000120: 7451 44be 6048 8b39 3cfd 573e da03 9a39
00000130: 7cef 12bf a267 cd3e b2ca c2bf 81b9 9fc0
00000140: e774 bdbf 7492 6cc0 b2ce 9cc0 7f42 c2c0
00000150: f4b4 73c0 2780 f6c0 bc98 d6bf 8fe9 bbc0
00000160: 2af8 583e af04 9a39 8bbd 973e 50c4 0a3f
00000170: d95e df3c fe9d 27ba 1b85 463e 55a0 7f3e
00000180: 5a30 523d a533 53b9 be1d 8f3f 26c9 d039
00000190: 8011 3dbf c4d9 11b8 e9e6 ac3e 0dc6 2fbf
000001a0: c8e2 15bf fc53 c0c0 9f39 dc3e eb79 adc0
000001b0: 498b e2c0 78e9 dbc0 b494 acc0 dc28 0dc1
000001c0: e350 343f 0c17 dac0 a372 563e cc27 793a
000001d0: 4f1d 9b3d 411c da3e 1f6e a93e 7110 f13a
000001e0: 94ab b73e 2232 3cbe fc08 ce3d 6b05 9a39
000001f0: 3e3e 423e 9d53 be3a 91b6 f93e cd44 ccb9
00000200: 3b0b b73d aa07 bb3e 5eaa f6ba c403 9a39
00000210: d5d9 15ba 7212 153a 3754 beba 21d7 5738
00000220: 8c12 15ba 6612 153a bcd4 153a c952 63b9
00000230: e44e 8b3a 77ed 0f3a 1144 19ba 5045 cc39
00000240: 4e11 153a 4605 9a39 6b27 34ba 4805 9ab9
00000250: a3bc cf38 aad5 8039 f6ba f639 26bd cfb8
00000260: f248 8b39 8b16 0cb9 9444 ccb9 01fc aeb9
00000270: 947a f3bf d6f6 ecc0 2c48 d0bf c1e1 88c0
00000280: 62c0 b9c0 c279 ebc0 da18 68c0 a9b5 e4c0
00000290: 8141 31c0 50f7 bdc0 39ea 373e d911 153a
000002a0: 28ce 713f 8dc3 6c3e cf96 273f 4286 8eba
000002b0: 9041 463e d707 053f ffb5 20bf 51d5 5738
000002c0: 8b56 71be 0d45 cc39 0d6e e0be 1a16 0c39
000002d0: 26c3 503f a4c4 ddbe 3bdd 273f 6ea2 f2c0
000002e0: f6d5 623f 803e 3cc0 6490 18c1 2db6 cdc0
000002f0: c55a 20c0 600c dbc0 464a d83f 57d2 e8c0
00000300: 1cae a03e 1d39 60ba 06b9 f83e 9c37 98be
00000310: bd99 ab3e 8233 53b9 aa62 09bf e6a1 473e
00000320: 005a 5340 db53 be3a 467a 2abf cfa8 2a39
00000330: 9fb0 08c0 ce48 8bb9 5e9d 8cc0 d673 ec3d
00000340: 2aaa f63a a9d5 80b9 d627 793a e3fb ae39
00000350: 4f7c 0039 95af 8eba 1697 7cb9 1ecf a4ba
00000360: b454 e8b7 d33d 9539 39d7 15ba a211 15ba
00000370: a344 ccb9 72dc edb9 d5fc 87b9 e1d7 5738
00000380: 366d 02ba 2744 cc39 1217 d238 cde1 fc39
00000390: 5bd7 15ba 7dc5 4bba 0ada 5738 4733 53b9
000003a0: c19d 273a d5fc 87b9 8f9e 49c0 c4e0 aec0
000003b0: 1130 1ac0 2763 4cc0 8518 e4c0 5405 c8c0
000003c0: 5aa3 7ec0 ef8b 03c1 aebf 0ac0 1633 d1c0
000003d0: 7e5c 253f c502 9ab9 110c 113f 42af dc3e
000003e0: 9dec 80be 11e6 50ba 0790 b13d 92c1 75bd
000003f0: 73b2 4bba 5b86 8eba be6e c63e 2a11 153a

bias f4 [512]
3.5778136 11.864262 14.11811 11.302817 15.543143 -0.05872066 11.755152 10.105331
-0.12508439 12.277043 10.308302 10.915146 10.15429 -0.12069282 11.2229185 -0.3068391
10.588797 14.750002 9.150137 -0.10282834 11.378192 10.878014 11.315705 10.399101
11.176312 10.449619 10.60889 12.511674 9.597697 -0.12328031 12.060837 -0.14511545
11.842504 -0.08935492 10.9606 10.410361 11.368591 9.499775 10.8152685 13.017179
11.608539 12.809793 10.599854 14.125385 13.659145 -0.0814481 14.458471 10.216599
10.812086 -0.18075265 11.225675 14.696172 15.495301 12.940303 7.657716 15.757874
-0.15815838 10.097062 -0.26185474 -0.059024367 10.341747 11.075161 14.465252 10.265919
10.769338 10.419936 14.9453 12.310145 9.488363 12.256817 7.908351 13.956059
13.259183 -0.117367595 -0.3792969 11.65513 4.527 -0.19660248 15.680259 8.728285
15.035312 14.573 7.339263 12.078686 14.994663 -0.25546238 -0.079923116 -0.09651821
-0.07746811 11.454314 3.6813152 12.229753 14.358568 7.314917 10.15058 -0.23695186
10.426152 12.850706 14.96724 11.577605 11.399241 10.33965 10.380369 14.256495
15.494077 10.548101 10.798446 11.310946 10.739172 9.9906845 -0.13944708 8.533554
-0.13605477 11.367486 13.297496 10.561588 -0.14693786 -0.055000056 14.55459 12.308058
-11.554997 15.017801 10.680837 14.523243 11.126836 8.425107 -12.461292 5.2015247
12.313891 -0.058712136 13.646221 11.572309 11.699627 7.2476 3.219379 13.988718
9.015086 9.913738 11.57937 10.562243 13.174421 4.540135 7.4982653 10.808665
-8.360082 15.260034 -0.09368595 -0.1207573 14.058738 12.680082 11.314255 12.877136
-12.149212 15.464561 10.560136 6.2251124 15.607135 10.737007 12.296057 10.563866
11.217759 12.366319 15.492223 10.08726 -0.20227054 10.666291 13.665926 11.377451
11.598875 10.834135 10.084938 9.127503 11.03176 14.90029 -0.122727014 6.327533
10.852318 10.979451 13.850101 -0.052257035 10.631556 11.288328 10.671198 -0.21442144
15.3362465 -0.26598498 11.03745 -0.22139013 14.243143 -0.115428604 10.641775 -0.08701019
15.484758 -0.066999584 9.980174 9.874359 15.18035 10.705176 14.677602 10.054051
10.405273 11.125995 11.79017 12.8629265 13.061386 11.659424 -0.04980113 10.557619
14.078891 12.212422 14.817061 10.420445 -0.22496945 -0.096403465 11.060509 11.37758
4.522504 -0.030249214 11.510108 -0.03813523 11.585921 12.057088 -0.096967205 10.965783
13.758837 11.975507 10.893465 10.142031 -0.078137465 2.4782038 9.816763 14.722653
-0.17129931 -0.1902548 12.033815 11.140361 -0.051515777 10.455105 15.085664 15.270186
-0.12118516 15.672756 13.917632 7.908339 4.9993963 11.226308 11.289264 14.734935
-0.066254616 8.395123 11.158378 10.973762 11.21669 10.302495 15.168861 10.172696
00000000: e6fa 6440 04d4 3d41 c7e3 6141 57d8 3441
00000010: b7b0 7841 1385 70bd 1a15 3c41 70af 2141
00000020: 1f16 00be c56e 4441 ceee 2441 70a4 2e41
00000030: f977 2241 cc2d f7bd 1391 3341 041a 9dbe
00000040: b66b 2941 0200 6c41 f666 1241 aa97 d2bd
00000050: 130d 3641 580c 2e41 210d 3541 b862 2641
00000060: 2dd2 3241 a431 2741 03be 2941 d12f 4841
00000070: 2b90 1941 637a fcbd 30f9 4041 2599 14be
00000080: e57a 3d41 b6ff b6bd 9e5e 2f41 d790 2641
00000090: c0e5 3541 14ff 1741 570b 2d41 5d46 5041
000000a0: 93bc 3941 eaf4 4c41 0199 2941 9401 6241
000000b0: dc8b 5a41 43ce a6bd e655 6741 3177 2341
000000c0: 4efe 2c41 3917 39be 5d9c 3341 8523 6b41
000000d0: c1ec 7741 7b0b 4f41 020c f540 4020 7c41
000000e0: 45f4 21be 918d 2141 d311 86be 89c3 71bd
000000f0: cc77 2541 dc33 3141 ac71 6741 3441 2441
00000100: 354f 2c41 0fb8 2641 f31f 6f41 5bf6 4441
00000110: 56d0 1741 ec1b 4441 3611 fd40 054c 5f41
00000120: 9d25 5441 6c5e f0bd 3433 c2be 6a7b 3a41
00000130: 2fdd 9040 2952 49be 57e2 7a41 0ea7 0b41
00000140: a390 7041 022b 6941 3edb ea40 4c42 4141
00000150: 24ea 6f41 f7cb 82be bbae a3bd 57ab c5bd
00000160: 9aa7 9ebd df44 3741 ab9a 6b40 11ad 4341
00000170: b2bc 6541 cd13 ea40 c768 2241 82a3 72be
00000180: 85d1 2641 7e9c 4d41 d179 6f41 df3d 3941
00000190: 4b63 3641 356f 2541 fe15 2641 9b1a 6441
000001a0: bde7 7741 06c5 2841 6fc6 2c41 a3f9 3441
000001b0: a6d3 2b41 d8d9 1f41 37cb 0ebe 7089 0841
000001c0: f151 0bbe 39e1 3541 8bc2 5441 44fc 2841
000001d0: e176 16be bd47 61bd 9adf 6841 ceed 4441
000001e0: 45e1 38c1 ea48 7041 b5e4 2a41 345f 6841
000001f0: 8507 3241 3dcd 0641 7461 47c1 e472 a640
00000200: b305 4541 237c 70bd ec56 5a41 2d28 3941
00000210: ac31 3b41 57ec e740 4e0a 4e40 cad1 5f41
00000220: cb3d 1041 ac9e 1e41 1945 3941 f3fe 2841
00000230: 6eca 5241 c948 9140 caf1 ef40 4bf0 2c41
00000240: e5c2 05c1 1929 7441 6bde bfbd 9a4f f7bd
00000250: 97f0 6041 9ee1 4a41 3007 3541 c008 4e41
00000260: 2c63 42c1 d86e 7741 51f6 2841 1f34 c740
00000270: d3b6 7941 c8ca 2b41 a6bc 4441 9805 2941
00000280: f17b 3341 71dc 4541 25e0 7741 6b65 2141
00000290: 0220 4fbe 21a9 2a41 a2a7 5a41 0a0a 3641
000002a0: fe94 3941 9e58 2d41 e85b 2141 410a 1241
000002b0: 1782 3041 9667 6e41 4d58 fbbd 267b ca40
000002c0: 18a3 2d41 d5ab 2f41 049a 5d41 790b 56bd
000002d0: da1a 2a41 fe9c 3441 3abd 2a41 4b91 5bbe
000002e0: 4461 7541 2f2f 88be 6599 3041 18b4 62be
000002f0: eae3 6341 d565 ecbd b644 2a41 6632 b2bd
00000300: 92c1 7741 1437 89bd cbae 1f41 60fd 1d41
00000310: b7e2 7241 6748 2b41 75d7 6a41 65dd 2041
00000320: 007c 2641 1304 3241 89a4 3c41 8cce 4d41
00000330: 70fb 5041 008d 3a41 45fc 4bbd 02ec 2841
00000340: 2343 6141 1566 4341 af12 6d41 25ba 2641
00000350: 645e 66be 2e6f c5bd d8f7 3041 910a 3641
00000360: 5ab8 9040 33cd f7bc 6729 3841 b033 1cbd
00000370: ef5f 3941 d5e9 4041 be96 c6bd d973 2f41
00000380: 3224 5c41 ad9b 3f41 a24b 2e41 c245 2241
00000390: 8906 a0bd e49a 1e40 7611 1d41 fd8f 6b41
000003a0: 1669 2fbe 27d2 42be 828a 4041 eb3e 3241
000003b0: 3502 53bd 1c48 2741 e15e 7141 af52 7441
000003c0: ed2f f8bd 9cc3 7a41 9fae 5e41 1d11 fd40
000003d0: 0efb 9f40 f59e 3341 d3a0 3441 4bc2 6b41
000003e0: 80b0 87bd 6c52 0641 b788 3241 8794 2f41
000003f0: 9077 3341 05d7 2441 a8b3 7241 5dc3 2241

weight f4 [1, 512]
11.728492 1.9913695 4.2284846 2.4271421 2.5808263 -0.0009504525 2.7046623 15.611464
-0.00039822812 2.2133193 7.1270947 2.5404992 3.5260584 0.0014520793 4.7017946 0.001257394
7.0817184 3.7656338 8.204738 -0.0010873774 2.3440073 3.9139473 2.3750274 7.118472
4.2910757 4.665187 3.5960672 2.1492016 5.4974995 -0.000855366 2.2081625 0.0004309534
2.5406091 -0.0005715988 8.439674 3.7912648 3.0072546 1.4633893 2.974083 4.4096327
2.3894036 2.6678317 6.667482 2.0632885 3.29184 -0.0010873766 4.201745 5.829335
3.6814597 0.0005715977 5.079344 3.5019138 2.7649407 2.8791747 12.911408 3.2365806
0.00058466307 4.2722588 -9.9058554e-05 -0.0008553664 4.788939 4.559555 3.982306 6.043905
8.41104 3.5650845 3.261855 2.433346 1.3657265 2.9326706 1.3858505 2.0971372
3.3313632 0.0002937525 -3.5875026e-05 2.7125895 1.4862114 -0.0013712374 2.9668102 1.3252647
3.7024667 3.4341364 1.5634153 2.7368865 3.2749128 0.00038961496 -0.00039823254 -0.00029375177
-0.00024093021 2.519537 12.816156 2.8648334 4.5631742 1.558522 4.1093187 0.00095045427
6.683102 4.6629243 3.5360298 2.045607 5.939186 5.2785225 5.051429 2.0965044
3.1880207 4.787014 2.8064392 7.559518 6.5326633 4.1629186 0.00016276001 15.771866
-0.00033375414 4.3805175 2.216137 11.036359 -0.000284658 0.00024573194 3.2944477 4.3553557
3.4136958 3.660916 6.5331717 4.2968097 6.5691814 12.180946 5.825311 18.670841
4.3821435 -0.0003470768 2.4562054 3.2007241 2.5158005 13.379319 5.771239 2.116231
4.5366273 9.992295 4.1068683 3.7607963 3.513305 9.03263 19.187447 6.1844544
3.8040924 3.8563657 -0.00085536554 -0.00029375582 4.8981323 3.0305936 4.7347927 2.4634633
4.6936445 3.2918518 6.1670036 11.637793 3.1065512 6.3614078 2.3472042 5.940058
2.3247187 2.1156962 2.4622777 3.981653 -0.0002167945 5.5223145 2.3595426 7.3789673
2.4648306 7.761329 4.637359 21.26121 4.378854 4.0317736 0.0008553668 10.4849
5.2403975 1.6231261 2.4283543 0.00021682809 4.2154765 3.0794487 3.4263687 0.00021682726
2.9317067 -0.0005715989 7.977765 -0.00057159696 4.2021627 0.00038961272 5.4698343 -0.00029376647
3.2939453 -0.00029376545 5.2041 9.655516 3.6208067 6.029318 3.2310019 5.5680065
4.5468864 6.609524 2.4833076 2.2762942 2.7099545 2.2735825 0.00043095363 3.2129495
2.299425 2.0915937 3.2321913 4.959946 -0.00024572696 -0.00021683036 8.217785 6.3583856
10.831593 0.0013712322 3.8184168 -0.00056866684 2.0366774 3.298964 -0.0003337556 9.786668
2.0756211 1.7458953 5.1350584 8.894991 -0.00028466093 9.515485 4.9853907 4.164188
-0.00057159766 -0.0013712414 2.3748307 8.792985 0.0007968817 4.2463512 3.228698 2.5892668
0.00029376874 2.5633633 2.3522036 1.6789337 12.378857 5.5867186 2.1493473 2.9284146
-0.00038962142 1.3733687 3.2916176 4.295194 2.3090012 4.282673 3.608679 5.756664
00000000: e7a7 3b41 32e5 fe3f bf4f 8740 4c56 1b40
00000010: 422c 2540 ca27 79ba 3019 2d40 8ec8 7941
00000020: 46c9 d0b9 06a7 0d40 2911 e440 8a97 2240
00000030: f1aa 6140 b253 be3a 1a75 9640 24cf a43a
00000040: 709d e240 2500 7140 9b46 0341 5586 8eba
00000050: 3704 1640 1d7e 7a40 7300 1840 86ca e340
00000060: 7e50 8940 3649 9540 f725 6640 858c 0940
00000070: 84eb af40 a43a 60ba 8952 0d40 96f1 e139
00000080: 5799 2240 59d7 15ba e808 0741 15a4 7240
00000090: dc76 4040 5750 bb3f 6057 3e40 b61b 8d40
000000a0: fdeb 1840 c1bd 2a40 035c d540 eb0c 0440
000000b0: 82ad 5240 4e86 8eba b274 8640 ea89 ba40
000000c0: 099d 6b40 46d7 153a fc89 a240 5b1f 6040
000000d0: caf4 3040 6644 3840 2195 4e41 2324 4f40
000000e0: 1344 193a 58b6 8840 a8bd cfb8 ab3a 60ba
000000f0: fd3e 9940 e0e7 9140 1ade 7e40 ab67 c140
00000100: 9f93 0641 582a 6440 3bc2 5040 f1bb 1b40
00000110: 20d0 ae3f e0b0 3b40 8d63 b13f 7f37 0640
00000120: 0e35 5540 cb02 9a39 8478 16b8 119b 2d40
00000130: 2d3c be3f 18bb b3ba 38e0 3d40 46a2 a93f
00000140: 37f5 6c40 e4c8 5b40 fe1d c83f 2629 2f40
00000150: 2c98 5140 3c45 cc39 dec9 d0b9 b202 9ab9
00000160: 36a2 7cb9 1840 2140 fa0e 4d41 6e59 3740
00000170: 8605 9240 a67d c73f 8a7f 8340 e827 793a
00000180: f9db d540 ad36 9540 504e 6240 3aeb 0240
00000190: d00d be40 a8e9 a840 4ea5 a140 212d 0640
000001a0: 8808 4c40 382f 9940 b39c 3340 92e7 f140
000001b0: 940b d140 a136 8540 8faa 2a39 9059 7c41
000001c0: b9fb aeb9 332d 8c40 30d5 0d40 ed94 3041
000001d0: 263e 95b9 95d5 8039 3bd8 5240 135f 8b40
000001e0: fe79 5a40 734c 6a40 be0f d140 777f 8940
000001f0: bc36 d240 28e5 4241 f368 ba40 e25d 9541
00000200: 853a 8c40 dcf7 b5b9 7832 1d40 aad8 4c40
00000210: e002 2140 b111 5641 fdad b840 5470 0740
00000220: 0d2c 9140 71e0 1f41 776b 8340 e3b0 7040
00000230: fdd9 6040 a785 1041 e47f 9941 0de7 c540
00000240: 4076 7340 b2ce 7640 9c3a 60ba 3d03 9ab9
00000250: 80bd 9c40 3ff5 4140 6c83 9740 62a9 1d40
00000260: 5632 9640 b3ad 5240 1858 c540 6634 3a41
00000270: bcd1 4640 a790 cb40 9838 1640 f514 be40
00000280: 31c8 1440 9167 0740 f595 1d40 67d3 7e40
00000290: 5553 63b9 cdb6 b040 bf02 1740 8020 ec40
000002a0: c9bf 1d40 cf5c f840 3f65 9440 f516 aa41
000002b0: 921f 8c40 4a04 8140 b23a 603a 27c2 2741
000002c0: 56b1 a740 99c2 cf3f 286a 1b40 595c 6339
000002d0: 2fe5 8640 b015 4540 a049 5b40 205c 6339
000002e0: 15a1 3b40 5ad7 15ba da49 ff40 39d7 15ba
000002f0: 1e78 8640 ef44 cc39 e208 af40 ab04 9ab9
00000300: 00d0 5240 8804 9ab9 fd87 a640 fe7c 1a41
00000310: 4cbb 6740 2cf0 c040 bcc8 4e40 1c2d b240
00000320: 1880 9140 3881 d340 83ee 1e40 ceae 1140
00000330: e56f 2d40 6082 1140 9ef1 e139 f7a0 4d40
00000340: c729 1340 acdc 0540 39dc 4e40 e1b7 9e40
00000350: ead4 80b9 f55c 63b9 0c7c 0341 e577 cb40
00000360: 344e 2d41 ebba b33a f160 7440 9612 15ba
00000370: ec58 0240 3a22 5340 ebfb aeb9 3196 1c41
00000380: fad6 0440 7f79 df3f 6652 a440 e251 0e41
00000390: 8b3e 95b9 6d3f 1841 5288 9f40 0741 8540
000003a0: 45d7 15ba 3abb b3ba 3afd 1740 11b0 0c41
000003b0: d3e5 503a 1ce2 8740 fda2 4e40 8cb6 2540
000003c0: f904 9a39 250e 2440 818a 1640 4de7 d63f
000003d0: cc0f 4641 66c6 b240 e88e 0940 256b 3b40
000003e0: 1a46 ccb9 8cca af3f dda9 5240 3b72 8940
000003f0: adc6 1340 a80b 8940 99f4 6640 9736 b840
