data/cflp/nn_p_f50_c50_r2.0_iss1_bt1_nsp10000_nse5000_sd7.pt (torch, 28639 bytes, 3 tensors)

weight f4 [64, 100]
000000 e3 d7 0c c0 26 45 b3 c1 df d7 6b c2 b2 90 f0 c0
       -2.2006767 -22.408764 -58.96081 -7.517663
000010 a6 b6 dd c1 ae 0c d1 c0 ca 02 74 c2 1d 3e 78 c2
       -27.714184 -6.532798 -61.002724 -62.060658
000020 c2 b9 9d c1 ef 1d 39 c2 1b 5e 9c c1 da fd 80 c2
       -19.715702 -46.279232 -19.54595 -64.495804
000030 93 8c 36 c2 89 66 a8 c1 0f 35 6a c0 af 26 4e c2
       -45.63728 -21.050066 -3.6594884 -51.537777
000040 ca 60 50 c1 0f 20 50 c2 11 dc 64 c2 c4 57 4b c2
       -13.02363 -52.031307 -57.21491 -50.83571
000050 f3 29 1a c2 fd 48 7b c2 a6 26 fe 3e c2 21 45 c2
       -38.540966 -62.821278 0.4963886 -49.282967
000060 2b a9 10 c2 99 98 26 c2 eb 60 40 c2 dc 37 9e c1
       -36.165203 -41.64902 -48.094646 -19.777275
000070 33 53 8b c1 54 a7 23 c2 ee 31 0d c2 b0 9b 20 c2
       -17.415625 -40.913406 -35.29876 -40.15204
000080 31 9f 35 c2 7e 7c 6a c2 5e a9 e6 c1 90 ff 0f c2
       -45.40546 -58.621574 -28.832699 -35.999573
000090 3d 19 2a c2 01 b6 4e c2 74 3a 6c c2 8e 12 08 c2
       -42.524647 -51.67774 -59.057083 -34.01812
0000a0 35 33 73 c2 da d1 6c c2 ae 40 87 c1 98 27 2a c2
       -60.800007 -59.204933 -16.906582 -42.538666
0000b0 54 78 15 c2 f3 bc 02 c2 ce 04 04 c2 46 62 9c c1
       -37.367508 -32.68452 -33.004692 -19.547985
0000c0 9b 7d 8c c1 1b d3 e7 c0 69 b2 49 3f 4b 4b db 3e
       -17.56133 -7.2445197 0.7878786 0.4283088
0000d0 95 0a 3c 3f 1c 45 84 3f 30 10 66 3f 6e 92 41 3f
       0.73453647 1.033359 0.8986845 0.7561406
0000e0 4a 9c 4d 3e 18 0e 31 3f 32 2d 10 3f 0e 79 70 3f
       0.20079151 0.6916213 0.5631896 0.93934715
0000f0 d6 ee 61 be 50 85 9b 3f 67 1a 33 3e 6e cf 41 3f
       -0.22063765 1.2150059 0.1749054 0.7570714
000100 49 e1 46 3f 9c 09 0d bf 9b b9 a8 be ea fa fc 3d
       0.7768751 -0.5509279 -0.32954106 0.123525456
000110 ac 11 b0 3f bc a7 8e 3f 9c e1 64 3f cc 62 66 3f
       1.3755393 1.1144938 0.8940675 0.899945
000120 fa 54 62 3f 3c 0d 45 bc a3 92 cf 3e 32 dd 33 3f
       0.88410914 -0.012027081 0.40541562 0.7025939
000130 eb dc 6a 3f bd 4f 48 3f e0 55 db 3e 48 cb 37 3f
       0.91743344 0.7824667 0.42838955 0.7179456
000140 a8 60 8d 3e 71 bd 66 be dc da a3 3f 6f cc 7f 3f
       0.27612805 -0.22533204 1.2801166 0.99921316
000150 ea d9 e4 be d4 e6 1c 3e bc eb 88 3e da 5f a5 3f
       -0.44697505 0.15322429 0.2674235 1.2919877
000160 98 d4 3a be e8 98 5e 3f bf 76 49 3f 02 d9 29 3e
       -0.1824516 0.86952066 0.7869682 0.16586688
000170 bf 41 5d 3f b4 b9 80 3f 6b 91 d4 3e 10 d5 15 3f
       0.86428446 1.0056672 0.41517195 0.5852823
000180 3c 9a ad 3e ca b5 8f 3f 43 dc af 3f 78 a1 4c 3f
       0.33906734 1.1227353 1.3739094 0.7993388
000190 a1 f5 ce 3b 81 27 c8 3b f2 e1 90 ba 9b e6 14 ba
       0.0063159023 0.006108225 -0.0011053665 -0.0005680115
0001a0 4b 69 55 3b 2d ae 72 3b 74 f5 ce 3b 9b 67 be 3c
       0.003256398 0.0037030086 0.0063158814 0.023242762
0001b0 bd db ce 3b 2e 8b ab bb 97 ab 72 3b 7a f5 ce bb
       0.006312816 -0.0052350974 0.0037028545 -0.006315884
0001c0 8f f6 ce bb c6 25 11 3c 89 92 ab bb a5 c8 8d 3b
       -0.006316013 0.008859104 -0.005235974 0.004326897
0001d0 89 82 31 bb dc 24 a5 3b 42 0a 41 bb c3 26 41 3b
       -0.0027085862 0.0050397944 -0.0029455577 0.0029472567
0001e0 70 2c 90 3b c3 cc 8d bb 54 1f 11 3c cf ca 0d 3c
       0.0043998286 -0.004327388 0.008857567 0.00865431
0001f0 f4 01 2d bc 75 98 64 3c 51 c1 8d bb d6 c2 8d bb
       -0.010559548 0.013952364 -0.0043260236 -0.004326205
000200 3a 43 c1 3a 5d d7 0d 3c 65 e6 43 3c 9e e4 43 bc
       0.0014744767 0.008657304 0.011956786 -0.011956362
000210 8d e2 ce 3b 6d dd 90 ba b9 44 90 3a 5d e8 11 3b
       0.006313628 -0.0011052318 0.0011006809 0.0022263743
000220 8c 5b 55 bb 75 c9 4e bb d5 41 c1 ba 80 37 90 3b
       -0.0032555787 -0.0031553183 -0.0014744351 0.0044011474
000230 b0 9d 72 3b c3 b4 66 3b d2 0c 46 bc 39 24 41 bb
       0.0037020259 0.0035202957 -0.012088018 -0.0029471053
000240 e4 24 c8 3b 2a b3 55 bb 65 ad 72 3b e1 98 64 bc
       0.0061079133 -0.003260801 0.003702962 -0.013952465
000250 35 c5 cf bb 10 ce 8d bb 6a ae a2 bb 88 f8 35 bb
       -0.0063406476 -0.004327543 -0.0049646394 -0.0027766544
000260 ea 01 61 3a c6 04 9d 3b 77 ab f9 3a 50 b3 23 bb
       0.0008583354 0.004791829 0.0019048293 -0.0024978705
000270 d1 ee a2 bb ff ae 87 ba 28 97 10 bb 55 2b df 39
       -0.004972317 -0.0010351836 -0.0022062752 0.0004256616
000280 d3 72 36 bb 04 87 01 bc 12 84 fa bb 23 6c 60 ba
       -0.0027839437 -0.007905725 -0.0076451385 -0.00085610355
000290 8b a0 d5 b9 c7 de 3c bb dc d3 a6 ba f5 5a d1 3b
       -0.0004074614 -0.002881931 -0.0012727934 0.0063890168
0002a0 2d 22 40 bb fd e1 95 3c 8e 61 39 bb 1c 3d e8 bb
       -0.0029317245 0.018296236 -0.0028286907 -0.007087363
0002b0 e2 b8 0d 3c 42 33 65 bb 66 39 55 bb bc 3c aa 3b
       0.0086500365 -0.003497318 -0.0032535433 0.0051952284
0002c0 e9 79 96 3b 03 d2 2a bc b1 4b 2d 3c d8 ad 8d bb
       0.0045921695 -0.010426047 0.010577128 -0.0043237023
0002d0 48 19 7d 3b cc 8e 57 3b 23 8c 65 3b 46 0e 1b bc
       0.0038619805 0.003289151 0.0035026155 -0.009463852
0002e0 b4 68 4e b9 ac 3a b2 3a a8 eb 89 3b f7 fc f4 bb
       -0.00019684696 0.0013597808 0.0042090006 -0.007476445
0002f0 5b c9 74 3b 70 0e 19 bc af 1c 9a 3b 62 d0 43 bc
       0.0037351463 -0.009341821 0.0047031264 -0.011951538
000300 cd 0f 6a bb 37 72 d1 3b c5 26 c9 bb c7 37 a6 3a
       -0.0035714984 0.0063917893 -0.006138655 0.0012681418
000310 0c fe a6 bb 9d 36 c1 3a 6b 5d 7c bb 17 02 51 3b
       -0.0050962027 0.0014741007 -0.003850783 0.0031892115
000320 c5 a0 d6 c0 2c b0 cb c1 63 7e 77 c2 c8 b2 92 c1
       -6.707125 -25.461021 -61.873425 -18.337296
000330 e3 7b d4 c1 59 fa b3 c0 fa 4b 81 c2 2b 43 65 c2
       -26.560492 -5.62431 -64.64839 -57.315594
000340 1f 97 20 c1 a2 85 17 c2 ea e3 a2 c1 20 d5 5a c2
       -10.036895 -37.8805 -20.361286 -54.70813
000350 b1 66 1b c2 d9 d4 68 c1 59 56 d9 c0 85 79 44 c2
       -38.850285 -14.551965 -6.7917905 -49.11867
000360 85 07 24 c1 88 a1 05 c2 42 7a 3a c2 70 2f 61 c2
       -10.251836 -33.407745 -46.619392 -56.296326
000370 fd 0f e8 c1 03 31 78 c2 39 c2 b9 c0 5c 8d 68 c2
       -29.007807 -62.047863 -5.804959 -58.138046
000380 f1 ec 2e c2 0d 7f 20 c2 0e cd 5a c2 4c 61 9e c1
       -43.731388 -40.124073 -54.70025 -19.797508
000390 0e ec a0 c1 a2 ae 17 c2 e1 eb 83 c1 46 9a 11 c2
       -20.115261 -37.92054 -16.490175 -36.400658
0003a0 6b 3e 3d c2 1a 1a 76 c2 07 b8 eb c1 3b 2c 16 c2
       -47.310955 -61.52549 -29.464857 -37.543194
0003b0 57 d6 d4 c1 7d 81 60 c2 ea 7a 56 c2 4b 03 f0 c1
       -26.604658 -56.126453 -53.620033 -30.001608
0003c0 fd 5b 83 c2 85 c9 55 c2 c9 11 84 c1 63 c8 09 c2
       -65.679665 -53.446796 -16.508684 -34.44569
0003d0 df 83 2e c2 d1 48 f9 c1 04 3e 40 c2 df f4 8a c1
       -43.62878 -31.160555 -48.060562 -17.369566
0003e0 af 23 94 c1 ae ed 90 c0 2b ba 9b 3f 73 86 69 3f
       -18.517424 -4.5290136 1.2166189 0.9122078
0003f0 cd 68 88 3f 9a d3 1f 3f dd 8f 58 3f 41 42 32 3f
       1.0656983 0.62432253 0.8459452 0.69632345

bias f4 [64]
000000 10 18 eb 42 94 84 b6 c0 f1 54 af 42 5d 93 af 42
       117.547 -5.703684 87.6659 87.78782
000010 70 65 b1 42 ef c9 00 c1 3f d0 77 c0 7c 0c 87 c0
       88.69812 -8.0493 -3.8720853 -4.220274
000020 ac 5a a8 c0 dc aa bf c0 4a b0 b7 c0 e6 5e fa 42
       -5.2610683 -5.989607 -5.7402697 125.18535
000030 57 72 ae 42 6f be ae 42 d5 26 b2 42 97 0c af 42
       87.22332 87.37194 89.07584 87.52459
000040 ba 45 b7 42 61 9c 86 c0 a2 5e b0 42 b9 07 68 c0
       91.636185 -4.206589 88.18483 -3.6254714
000050 97 a4 b0 42 a0 d2 8a c0 6f 98 d1 41 e8 22 f5 42
       88.321465 -4.338211 26.19943 122.56818
000060 18 f0 8f c0 f7 3d b0 42 dd e3 af 42 30 29 91 c0
       -4.4980583 88.121025 87.945045 -4.536278
000070 ba 14 f8 42 10 64 68 c0 1d 45 eb 42 60 56 a2 c0
       124.04048 -3.6311073 117.63499 -5.073044
000080 9b be ae 42 4c 21 af 42 e4 a1 b0 42 84 24 b0 42
       87.37228 87.56503 88.31619 88.07132
000090 c1 cc 1c 42 03 16 b1 42 96 9b 04 43 65 aa af 42
       39.199955 88.54299 132.60776 87.8328
0000a0 55 72 8d c0 65 94 af 42 a8 3f a9 42 8e 4f af 42
       -4.4202065 87.78983 84.62433 87.65538
0000b0 4a c3 01 43 71 20 98 c0 bc de f7 42 10 b3 af 42
       129.76285 -4.75396 123.93503 87.84973
0000c0 56 7f af 42 ec 22 97 c0 97 ac 8b 42 3e b8 af 42
       87.7487 -4.723013 69.83709 87.85985
0000d0 9f 10 bd c0 e4 a4 ae 42 3e e0 a9 c0 e6 d6 ae 42
       -5.908279 87.32205 -5.3086233 87.41972
0000e0 10 10 82 c0 fe 68 af 42 f0 8c b8 c0 dd c4 b8 c0
       -4.0644608 87.70506 -5.7672043 -5.774031
0000f0 7f 57 d4 bf c8 15 af 42 e9 dd 71 c0 5f 76 49 40
       -1.6589202 87.54254 -3.7791693 3.1478498

weight f4 [1, 64]
000000 b7 31 ab 40 06 bc 12 3a 81 42 4f 40 09 10 55 40
       5.3498187 0.00055974757 3.238434 3.3291037
000010 b8 c9 43 40 40 20 ed 3b 53 c6 1d 3b 12 7e ee b8
       3.059187 0.0072365105 0.002407451 -0.00011372207
000020 29 df 9d b9 0b ce 8d 3b 6f 72 9e bf 83 2b ca 40
       -0.0003011164 0.0043275408 -1.2378672 6.3178115
000030 32 57 45 40 b9 cf 3b 40 0c fb 4e 40 f7 25 43 40
       3.083447 2.9345534 3.2340727 3.0491922
000040 fc 8f 5c 40 a3 4a fa 3e db 08 48 40 4a 1c c8 3b
       3.446288 0.48885068 3.1255405 0.006106888
000050 cc 18 48 40 7a e3 5c 3f 27 f1 90 3f 54 6e 87 41
       3.1265135 0.862846 1.1323594 16.928871
000060 92 ca b9 bf c4 03 4e 40 ae 28 48 40 2a cd 60 3f
       -1.4514945 3.2189798 3.127483 0.87813056
000070 15 38 c3 40 c5 b3 b2 bf 03 e9 9d 41 89 a9 d3 3f
       6.100596 -1.3961111 19.738775 1.6536113
000080 e1 8d 4f 40 43 72 48 40 a1 b1 4e 40 ff 12 48 40
       3.2430346 3.131974 3.2295916 3.1261594
000090 72 4c 2e 40 62 84 4c 40 5f 13 8b 41 35 6e 4d 40
       2.7234159 3.19558 17.384459 3.2098515
0000a0 75 29 c2 3f d1 6b 4b 40 a0 17 0e 42 5a f3 3d 40
       1.5168902 3.1784556 35.52307 2.967978
0000b0 99 bb e5 40 a8 6e b6 bf 4c a9 b2 41 d0 cb 51 40
       7.17915 -1.425252 22.332664 3.2780647
0000c0 2c d1 41 40 1f 1b 9b 3b d6 00 4c 40 8f 12 61 40
       3.0283918 0.0047334577 3.187551 3.5167577
0000d0 9a 71 c8 3f 38 04 51 40 94 8e ce bb e1 1e 47 40
       1.5659668 3.2658825 -0.0063036177 3.1112597
0000e0 50 f8 ce 3b b1 ed 52 40 31 a9 54 3b f8 7f 8b ba
       0.0063162223 3.2957575 0.0032449479 -0.0010642996
0000f0 7f 43 a4 37 8a 7b 4a 40 6a e4 d6 3b c4 41 87 3f
       1.9581754e-05 3.1637902 0.006557991 1.0566945
