data/cflp/nn_p_f10_c10_r2.0_iss1_bt1_nsp10000_nse5000_sd7.pt (torch, 8159 bytes, 3 tensors)

weight f4 [64, 20]
-4.114111 -27.042898 -3.4564373 -19.304045 -29.843227 -31.263773 -21.650208 -35.913166
-0.79560786 -28.126516 0.61285913 0.71451694 0.8858121 0.76936954 0.6499897 0.8784828
0.7260801 0.7162448 0.61021376 0.6899953 -2.2552989 -13.44271 -7.706765 -20.378386
-14.2584505 -9.424594 -10.774752 -9.729538 -8.109636 -15.964096 0.13380793 -0.04772254
-0.27604663 -0.277977 -0.01514005 -0.3768893 0.2046238 0.14453322 -0.19269718 -0.14440775
-0.11668658 -0.29977527 -0.05827641 -0.015498401 -0.16731754 0.01345059 -0.11304867 -0.27111158
0.09487032 0.061067753 0.029693734 0.09616603 -0.0009623602 0.035043877 0.09944394 -0.1231163
-0.2526869 -0.18906796 -0.10820352 -0.10767491 -0.0015155006 0.12814276 0.071731046 -0.16533303
-0.067172684 -0.052603416 0.13609014 -0.08111988 -0.09355363 -0.035951596 -0.13367909 -0.1318556
-0.29558608 0.1224308 0.04220876 -0.18260774 -0.2163156 -0.069020815 0.050605293 -0.23726949
-0.16125186 0.016729323 -0.22102965 -0.10169863 -0.24542142 0.13059941 0.043733083 -0.28348535
-0.20025639 0.0024646278 -0.06454522 -0.017542122 -0.25972804 -0.19652809 0.024658782 -0.24730064
-0.12370311 0.021532146 0.039255694 -0.06289673 -3.4706311 -26.287313 -3.4423826 -18.537731
-28.664375 -29.758633 -19.844622 -34.626087 -1.1433938 -27.082197 0.62271047 0.5872376
0.8091346 0.5896267 0.77309763 0.73700094 0.6406047 0.55640095 0.685673 0.78163975
-0.2895641 -0.0039114375 0.13727096 -0.25404704 -0.12509319 -0.028307443 -0.2588851 -0.26824334
0.090129964 -0.15597814 0.053635977 -0.056810074 -0.022242801 -0.22582558 -0.124556445 0.070702456
0.025760187 -0.14145039 -0.049292147 0.09439743 -0.27493912 0.07890151 -0.15343149 -0.1300533
0.026763106 -0.24349299 -0.13561337 0.15048286 -0.038816154 -0.15225641 -0.14514612 0.056341987
-0.025193162 0.04259041 -0.24168567 -0.04608989 -0.06835611 -0.06799993 0.08841838 0.0064359317
-4.712685 -26.660736 -2.6657615 -17.872868 -28.716179 -29.537542 -20.78048 -33.89854
-1.2263762 -26.570774 0.5611731 0.7008662 0.78557605 0.7442895 0.6159841 0.8205833
0.7426369 0.6769513 0.47937635 0.60467535 -5.101375 -26.763126 -3.4585602 -18.47266
-30.035204 -29.919468 -20.88818 -35.50914 -1.5703044 -27.301334 0.70070237 0.5882585
0.73259825 0.5713129 0.79093647 0.73674977 0.6148592 0.7055357 0.66908574 0.6412905
-2.1358256 -11.965305 -20.180542 -10.384752 -8.593426 0.8838609 -3.98611 -13.241124
-4.800018 -13.06085 -0.15271136 -0.11307839 -0.11901092 -0.38133287 -0.19628352 -0.07945212
-0.24028139 -0.162653 -0.18421037 -0.23981847 -13.089268 -25.791191 -7.692084 -5.078013
-16.39504 -20.55837 -13.548599 -21.429264 -4.1018634 -13.243602 0.019860033 -0.094747916
0.14487681 0.041110694 0.118240625 0.03267123 -0.028139606 -0.1135524 0.12480638 0.053571347
-0.29308143 -0.22299607 -0.14291571 -0.30297047 -0.11419817 -0.18997598 -0.124265224 -0.07909156
-0.08612917 -0.29441696 0.028271852 -0.2183513 0.04436461 0.116408594 -0.15771756 -0.055480104
00000000: cca6 83c0 db57 d8c1 4536 5dc0 af6e 9ac1
00000010: eebe eec1 351c fac1 a033 adc1 15a7 0fc2
00000020: f5ac 4bbf 1b03 e1c1 56e4 1c3f 95ea 363f
00000030: 95c4 623f 67f5 443f ba65 263f 40e4 603f
00000040: 63e0 393f d25b 373f f836 1c3f 88a3 303f
00000050: d156 10c0 5715 57c1 d29d f6c0 ef06 a3c1
00000060: 9d22 64c1 23cb 16c1 6265 2cc1 30ac 1bc1
00000070: 12c1 01c1 f06c 7fc1 f204 093e b678 43bd
00000080: fc55 8dbe 0053 8ebe f90d 78bc a2f7 c0be
00000090: e788 513e 8400 143e 6952 45be a0df 13be
000000a0: 60f9 eebd 257c 99be 3fb3 6ebd 01ed 7dbc
000000b0: 4a55 2bbe dd5f 5c3c 1086 e7bd 23cf 8abe
000000c0: 5f4b c23d 2e22 7a3d 4640 f33c b2f2 c43d
000000d0: e646 7cba 2b8a 0f3d 44a9 cb3d 6624 fcbd
000000e0: 2d60 81be 089b 41be cf99 ddbd aa84 dcbd
000000f0: c3a3 c6ba db37 033e bae7 923d 104d 29be
00000100: d591 89bd ae76 57bd 375b 0b3e 2e22 a6bd
00000110: 0c99 bfbd fb41 13bd 2ce3 08be 2805 07be
00000120: 0f57 97be 00bd fa3d 18e3 2c3d 86fd 3abe
00000130: d681 5dbe c95a 8dbd 7f47 4f3d c6f6 72be
00000140: 351f 25be ef0b 893c 9955 62be 5f47 d0bd
00000150: c14f 7bbe dabb 053e 7621 333d fe24 91be
00000160: 0310 4dbe 9885 213b 4930 84bd 7fb4 8fbc
00000170: 13fb 84be a93e 49be 3701 ca3c 613c 7dbe
00000180: 0e58 fdbd 2f64 b03c 94ca 203d 00d0 80bd
00000190: d21e 5ec0 6b4c d2c1 ff4f 5cc0 464d 94c1
000001a0: a450 e5c1 ae11 eec1 c9c1 9ec1 1d81 0ac2
000001b0: ba5a 92bf 57a8 d8c1 f469 1f3f 3455 163f
000001c0: 7223 4f3f c7f1 163f bae9 453f 18ac 3c3f
000001d0: abfe 233f 4b70 0e3f 4488 2f3f 8b19 483f
000001e0: bf41 94be 842b 80bb c290 0c3e 7412 82be
000001f0: 6e18 00be 03e5 e7bc 968c 84be 3157 89be
00000200: 0f96 b83d bcb8 1fbe 66b1 5b3d aeb1 68bd
00000210: 8936 b6bc d23e 67be 7317 ffbd 73cc 903d
00000220: 0707 d33c 5fd8 10be 90e6 49bd 7153 c13d
00000230: d2c4 8cbe 1d97 a13d 251d 1dbe b12c 05be
00000240: 4d3e db3c 3a56 79be 3bde 0abe 2e18 1a3e
00000250: b0fd 1ebd 1be9 1bbe 2fa1 14be dbc6 663d
00000260: e461 cebc 4873 2e3d 737c 77be c1c8 3cbd
00000270: 4afe 8bbd 8c43 8bbd b214 b53d 82e4 d23b
00000280: 51ce 96c0 3049 d5c1 d69b 2ac0 a2fb 8ec1
00000290: bcba e5c1 e34c ecc1 6c3e a6c1 1b98 07c2
000002a0: e5f9 9cbf f290 d4c1 0aa9 0f3f f86b 333f
000002b0: 831b 493f c289 3e3f 22b1 1d3f bf11 523f
000002c0: 741d 3e3f ae4c 2d3f d170 f53e 01cc 1a3f
000002d0: 773e a3c0 e21a d6c1 0d59 5dc0 02c8 93c1
000002e0: 1948 f0c1 125b efc1 fe1a a7c1 5c09 0ec2
000002f0: bcff c8bf 2269 dac1 3b61 333f 1c98 163f
00000300: 8f8b 3b3f 9041 123f d07a 4a3f a29b 3c3f
00000310: 6a67 1d3f fd9d 343f 3449 2b3f 9d2b 243f
00000320: 5eb1 08c0 e471 3fc1 c071 a1c1 f227 26c1
00000330: ac7e 09c1 b544 623f 6d1c 7fc0 a5db 53c1
00000340: bf99 99c0 3ef9 50c1 5e60 1cbe a595 e7bd
00000350: ffbb f3bd 103e c3be 8cfe 48be cbb7 a2bd
00000360: 530c 76be 828e 26be a5a1 3cbe f992 75be
00000370: a46d 51c1 5c54 cec1 8d25 f6c0 157f a2c0
00000380: 0b29 83c1 8b77 a4c1 10c7 58c1 226f abc1
00000390: 7742 83c0 cbe5 53c1 82b1 a23c 320b c2bd
000003a0: 965a 143e b063 283d 2428 f23d 45d2 053d
000003b0: 0885 e6bc 298e e8bd 7d9a ff3d a16d 5b3d
000003c0: c50e 96be 1559 64be 7f58 12be f21e 9bbe
000003d0: bbe0 e9bd 1089 42be c47e febd c1fa a1bd
000003e0: 7e64 b0bd d2bd 96be 5f9a e73c 7c97 5fbe
000003f0: aab7 353d a167 ee3d b680 21be 1b3f 63bd

bias f4 [64]
-8.640397 52.92042 0.015772188 -0.040033847 -0.20199235 -7.413217 -0.15103635 0.07269461
-7.617971 -6.514896 56.065804 46.79826 -0.06900618 -9.012045 -1.4260947 -7.6587396
-0.28255445 -6.3117285 54.147865 58.259438 -8.590922 51.26895 -0.098558865 -1.1397208
-8.630323 -3.852582 -0.18309443 0.43996182 0.09323617 -1.2688978 18.016136 -4.648098
0.017533176 49.516644 -13.958918 -0.20343949 0.10619412 0.053618077 -0.20254326 -0.043957263
-0.0070506576 -0.099107556 49.378117 2.037491 -0.17289366 53.775528 -0.030689089 4.9246054
-0.04660443 -3.096506 51.473732 27.703527 -0.018983012 -8.985644 51.9016 -8.267008
-0.21926346 -0.25631335 49.84067 -0.0107415635 -5.1992207 -0.19179423 0.14153218 29.532774
00000000: 113f 0ac1 83ae 5342 ad34 813c 88fa 23bd
00000010: 15d7 4ebe 1339 edc0 46a9 1abe e9e0 943d
00000020: 6bc6 f3c0 077a d0c0 6243 6042 6b31 3b42
00000030: 1d53 8dbd 5631 10c1 458a b6bf 6514 f5c0
00000040: faaa 90be aef9 c9c0 6a97 5842 aa09 6942
00000050: 6b74 09c1 6813 4d42 3bd9 c9bd 5fe2 91bf
00000060: ce15 0ac1 b490 76c0 1b7d 3bbe ad42 e13e
00000070: 9bf2 be3d 3e6b a2bf 0c21 9041 38bd 94c0
00000080: bca1 8f3c 0b11 4642 ba57 5fc1 7152 50be
00000090: 4e7c d93d a19e 5b3d 8067 4fbe 880c 34bd
000000a0: 3409 e7bb e7f8 cabd 3183 4542 4166 0240
000000b0: 090b 31be 241a 5742 af67 fbbc 5e96 9d40
000000c0: 49e4 3ebd 282d 46c0 1ae5 4d42 d3a0 dd41
000000d0: 4382 9bbc 33c5 0fc1 3d9b 4f42 aa45 04c1
000000e0: 9a86 60be 813b 83be d95c 4742 62fd 2fbc
000000f0: 0460 a6c0 b565 44be d0ed 103e 1f43 ec41

weight f4 [1, 64]
5.56774 24.854286 -0.00986641 0.035104863 -0.022869831 5.942116 0.048005838 -0.038585614
5.8554916 5.810107 41.751793 15.408821 -0.009533494 5.823801 5.8178473 5.881491
0.024559116 5.9119325 49.93265 41.431572 5.237056 58.568996 0.033636816 5.9534974
5.6643276 5.980514 0.010452414 6.067117 0.028426046 6.098212 6.784448 5.848511
0.06420812 21.12666 1.9470335 0.05937008 -0.1112141 0.07260777 0.057297 -0.0060276147
0.039872967 -0.033002697 43.40509 5.966633 0.049179427 48.927677 0.008742571 6.3505015
0.0046471837 5.8474145 47.52732 8.223955 0.052584864 5.6595783 65.27762 5.7120953
0.0023188833 0.004896827 51.291286 -0.025382137 5.8787293 -0.044857375 0.056920104 9.170337
00000000: ed2a b240 94d5 c641 b9a6 21bc 1eca 0f3d
00000010: 8359 bbbc d025 be40 c5a1 443d f30b 1ebd
00000020: 3060 bb40 66ec b940 d601 2742 888a 7641
00000030: 5f32 1cbc 945c ba40 ce2b ba40 2d35 bc40
00000040: 3330 c93c 8d2e bd40 09bb 4742 eeb9 2542
00000050: f695 a740 a746 6a42 c2c6 093d 0d83 be40
00000060: 2c42 b540 5f60 bf40 9a40 2b3c d325 c240
00000070: bddd e83c 8d24 c340 331a d940 0127 bb40
00000080: 8c7f 833d 6603 a941 6538 f93f 0a2e 733d
00000090: 38c4 e3bd 62b3 943d 42b0 6a3d 4c83 c5bb
000000a0: d651 233d d62d 07bd d09e 2d42 a8ee be40
000000b0: 5e70 493d f1b5 4342 003d 0f3c 4f37 cb40
000000c0: 6747 983b 051e bb40 fa1b 3e42 5295 0341
000000d0: 3a63 573d 441b b540 248e 8242 7cc9 b640
000000e0: 68f8 173b 9075 a03b 472a 4d42 33ee cfbc
000000f0: 8d1e bc40 5ebc 37bd 0e25 693d b3b9 1241
