data/cflp/nn_p_f25_c25_r2.0_iss1_bt1_nsp10000_nse5000_sd7.pt (torch, 15839 bytes, 3 tensors)

weight f4 [64, 50]
-0.0037973782 0.0019875707 0.0024727483 0.002989577 -0.003328365 0.0033283592 -0.004360988 -0.0010234575
0.0010234538 0.0033283592 0.003797371 0.0010234528 -0.00084115856 -0.00067679636 0.00012143162 -0.0020030465
0.0028051767 0.0020030423 -0.0028051706 -0.0019875763 -0.0065869903 -0.00075653894 0.0048147165 -0.004814716
0.0019875849 -0.0019876708 -0.0013618075 0.0013618766 0.0012170285 0.00027345278 0.0010234519 0.0019875683
-0.0022300642 0.001361879 0.0010938531 0.0010235066 0.0013618151 0.0019876717 0.002003046 0.0022300642
-0.003756722 -0.0020030458 0.0019875725 -0.0010235071 0.0029895832 -2.629753e-05 -0.0010235078 -0.0010554347
0.0013618114 -0.0010554347 -0.0025287555 -0.0065869717 -0.005088491 -0.0019875688 -0.0017684523 0.0029895743
0.0073509724 0.0010234594 -0.0011107267 -0.0009204634 0.001361813 -0.001987574 -0.0011107267 0.0008410832
-0.0016669593 0.002989572 -0.0010234575 0.0027762025 -0.00075654074 -0.0013618096 0.0013618077 0.002247628
-0.0010072315 -0.0010234566 0.0027762025 -0.0011564977 0.001156496 0.0014365981 -0.0013618075 -0.0019875707
9.265506e-05 -0.0020202196 -0.0008410832 0.0029895743 0.0033283585 0.0040324875 -0.003797371 -0.0013618075
-0.0006767967 0.0024727483 0.0073509724 0.0020030376 -0.00048420334 0.0019875683 0.0038918622 0.00079006696
0.0009204626 0.001156504 0.00035991365 -0.0020030376 -26.408627 -32.030563 -36.741905 -36.025284
-73.063416 -63.895348 -22.726856 -37.015553 -20.518858 -61.056477 -19.208765 -52.346146
-66.42792 -22.940556 -51.62603 -19.232342 -42.637226 -13.429744 -43.20088 -55.922142
-68.97647 -10.2998705 -6.4647145 -44.037132 -8.260386 0.83633554 0.8357857 1.0360787
0.90302795 0.5616064 0.8841502 0.8289807 0.49631682 0.70850915 1.0600612 0.95399183
0.87582237 0.54359084 1.0926541 0.7324428 0.7441907 1.2683415 0.8771938 0.8173173
0.6938302 0.68318325 0.6622378 0.7043429 0.9240901 1.0823959 0.0018734067 -0.0020030332
-0.0006767959 0.001987574 0.0033283639 -0.0011565024 0.0073509715 0.001156496 -0.0009874911 -0.0007565399
-0.0013618128 -0.00012143162 -0.0019875707 -0.0020030334 -0.0014365981 0.0033283608 -0.0033283648 -0.0004440243
0.0048147175 -0.006482107 0.0043609757 0.0009874906 -0.0003193406 0.0025287552 -0.00075654685 -0.0009874904
9.265483e-05 -0.0020030332 0.0009874909 0.0019443544 0.0020030334 -0.0010234528 -0.0020202196 0.0038084441
-0.0019875725 -0.001156504 9.265483e-05 0.0013618114 -0.001987574 0.0033283615 -0.001987572 0.0013618151
-0.00102346 0.0025287557 0.0028051706 -0.0029895697 -0.002003039 -0.0013618075 -0.0019875702 0.006482106
0.0050884923 0.0013618133 -0.0004440256 -0.0013618075 -0.0012170286 0.0037026487 2.629753e-05 -0.0020030418
-0.002358056 0.0010270358 2.6297064e-05 -0.0037164367 0.0020013663 -0.0029895757 -0.0043609766 -0.0033283571
2.6297763e-05 0.0013618151 0.0012170287 -0.0026737184 -0.0011107267 -0.00021169042 0.0013618096 -0.0011107267
-0.0010234566 0.0064821066 -0.001987574 9.265495e-05 -0.0023953426 -0.0016669582 0.0026737184 -0.00084115757
-0.0019875683 -0.0016669582 0.0010234575 -0.0006767967 0.0043609757 0.0022223713 -0.0020030332 0.0027762025
0.0020030402 -0.0013618128 0.001987572 0.0008062591 -0.0010234538 0.0020030343 0.0004440256 -0.0026887543
0.00084115664 -0.00075654563 0.0010234594 0.001361813 0.0022223713 -0.0029895674 -0.0011565019 -0.0073509715
00000000: 6fdd 78bb e741 023b d50d 223b c7ec 433b
00000010: b320 5abb 9a20 5a3b 9ee6 8ebb 8925 86ba
00000020: 6925 863a 9a20 5a3b 50dd 783b 6125 863a
00000030: 3281 5cba 096b 31ba 1ba9 fe38 8b45 03bb
00000040: 0ed7 373b 7945 033b f4d6 37bb ff41 02bb
00000050: aed7 d7bb 7852 46ba c5c4 9d3b c4c4 9dbb
00000060: 2442 023b 9543 02bb ad7e b2ba ff80 b23a
00000070: b384 9f3a 365e 8f39 5925 863a dd41 023b
00000080: 4526 12bb 1481 b23a 9f5f 8f3a 2f27 863a
00000090: ef7e b23a 9943 023b 8945 033b 4526 123b
000000a0: 5633 76bb 8845 03bb ef41 023b 3327 86ba
000000b0: e2ec 433b 8499 dcb7 3927 86ba 8356 8aba
000000c0: cf7e b23a 8356 8aba 7ab9 25bb 86d7 d7bb
000000d0: 5bbd a6bb df41 02bb 6acb e7ba bcec 433b
000000e0: 6de0 f03b 9925 863a ce95 91ba 414b 71ba
000000f0: dd7e b23a f541 02bb ce95 91ba 237c 5c3a
00000100: df7d daba b2ec 433b 8925 86ba f3f0 353b
00000110: 9752 46ba bf7e b2ba af7e b23a f14c 133b
00000120: 1505 84ba 8125 86ba f3f0 353b a095 97ba
00000130: 9195 973a 3c4c bc3a ad7e b2ba e741 02bb
00000140: ce4f c238 a965 04bb 237c 5cba bcec 433b
00000150: 9720 5a3b f522 843b 50dd 78bb ad7e b2ba
00000160: 0f6b 31ba d50d 223b 6de0 f03b 6545 033b
00000170: acdc fdb9 dd41 023b 9d0e 7f3b 7f1c 4f3a
00000180: 334b 713a d695 973a cbb2 bc39 6545 03bb
00000190: de44 d3c1 4c1f 00c2 b6f7 12c2 e419 10c2
000001a0: 7820 92c2 d694 7fc2 9ad0 b5c1 ed0f 14c2
000001b0: 9f26 a4c1 d539 74c2 8dab 99c1 7462 51c2
000001c0: 18db 84c2 4286 b7c1 0e81 4ec2 d6db 99c1
000001d0: 858c 2ac2 3be0 56c1 b3cd 2cc2 46b0 5fc2
000001e0: f4f3 89c2 45cc 24c1 f1de cec0 0626 30c2
000001f0: 8b2a 04c1 161a 563f 0df6 553f 3a9e 843f
00000200: d72c 673f 70c5 0f3f ab57 623f 1438 543f
00000210: 3d1d fe3e db60 353f 16b0 873f cf38 743f
00000220: e535 603f c528 0b3f 17dc 8b3f 5f81 3b3f
00000230: 4883 3e3f 0459 a23f c68f 603f b53b 513f
00000240: db9e 313f 19e5 2e3f 6b88 293f d14f 343f
00000250: 2b91 6c3f f38b 8a3f 198d f53a 5245 03bb
00000260: 016b 31ba f541 023b ae20 5a3b c895 97ba
00000270: 6be0 f03b 9195 973a b46e 81ba 8952 46ba
00000280: db7e b2ba 1ba9 feb8 e741 02bb 5345 03bb
00000290: 3c4c bcba a120 5a3b b220 5abb efcb e8b9
000002a0: c7c4 9d3b db67 d4bb 84e6 8e3b b06e 813a
000002b0: 2b6d a7b9 79b9 253b 0053 46ba ae6e 81ba
000002c0: af4f c238 5245 03bb b26e 813a b5d9 fe3a
000002d0: 5345 033b 6125 86ba a965 04bb 1797 793b
000002e0: ef41 02bb d695 97ba af4f c238 cf7e b23a
000002f0: f541 02bb a420 5a3b ed41 02bb ef7e b23a
00000300: 9e25 86ba 7bb9 253b f4d6 373b a8ec 43bb
00000310: 6b45 03bb ad7e b2ba e541 02bb d967 d43b
00000320: 5ebd a63b df7e b23a 1bcc e8b9 ad7e b2ba
00000330: b484 9fba 23a8 723b 8499 dc37 7745 03bb
00000340: 9d89 1abb 9a9d 863a 8498 dc37 768f 73bb
00000350: 5b29 033b c2ec 43bb 86e6 8ebb 9120 5abb
00000360: 049a dc37 ef7e b23a b584 9f3a 8d39 2fbb
00000370: ce95 91ba 37f9 5db9 bf7e b23a ce95 91ba
00000380: 8125 86ba da67 d43b f541 02bb bf4f c238
00000390: 2efb 1cbb d67d daba 8d39 2f3b 2181 5cba
000003a0: dd41 02bb d67d daba 8925 863a 0f6b 31ba
000003b0: 84e6 8e3b 34a5 113b 5245 03bb f3f0 353b
000003c0: 7045 033b db7e b2ba ed41 023b 225b 533a
000003d0: 6925 86ba 5745 033b 1bcc e839 d035 30bb
000003e0: 1181 5c3a eb52 46ba 9925 863a dd7e b23a
000003f0: 34a5 113b 9eec 43bb c495 97ba 6be0 f0bb

bias f4 [64]
-1.5075016 -1.1389972 63.15457 -1.1856956 -1.327675 -1.0163633 69.42236 -1.4114518
-1.0533378 68.363625 -1.9095232 68.3054 -1.2430973 132.27916 -0.9905007 68.71103
123.40944 69.007324 112.364525 69.19284 -1.3926017 69.11834 68.452446 144.62079
-1.9336853 68.53544 82.02951 129.5466 -1.6963999 86.92367 -1.7109886 133.25429
69.58319 69.645874 -1.4359094 67.41134 -0.75586814 -1.3673584 119.61062 -1.5313221
-1.0276222 69.1848 70.31493 69.94607 67.93787 68.302284 68.22963 -1.8948306
68.92611 69.38075 -1.1612833 -0.84690845 -1.1799825 69.03461 -1.046207 -1.1493174
68.812256 69.37285 117.72131 -1.2858256 -1.0194422 149.2034 -1.5108895 68.800514
00000000: d0f5 c0bf a9ca 91bf 489e 7c42 e0c4 97bf
00000010: 41f1 a9bf 3118 82bf 40d8 8a42 74aa b4bf
00000020: c6d3 86bf 2dba 8842 426b f4bf 5d9c 8842
00000030: d01d 9fbf 7747 0443 7491 7dbf 0c6c 8942
00000040: a2d1 f642 c003 8a42 a3ba e042 bc62 8a42
00000050: c640 b2bf 973c 8a42 a7e7 8842 ec9e 1043
00000060: 0083 f7bf 2512 8942 1c0f a442 ee8b 0143
00000070: a223 d9bf ebd8 ad42 ad01 dbbf 1941 0543
00000080: 982a 8b42 b04a 8b42 e1cb b7bf 9bd2 8642
00000090: 9380 41bf 9a05 afbf a338 ef42 5d02 c4bf
000000a0: 2089 83bf 9e5e 8a42 3fa1 8c42 63e4 8b42
000000b0: 30e0 8742 c59a 8842 9275 8842 cf89 f2bf
000000c0: 2bda 8942 f2c2 8a42 eea4 94bf fece 58bf
000000d0: ab09 97bf b811 8a42 1cea 85bf d51c 93bf
000000e0: e09f 8942 e6be 8a42 5071 eb42 ef95 a4bf
000000f0: 157d 82bf 1234 1543 d464 c1bf dd99 8942

weight f4 [1, 64]
0.0029895832 0.00046615364 3.6995873 -0.0037973714 -0.0026887502 -0.006482106 3.5080729 0.00029873732
0.00046615364 3.5609252 0.0029895757 3.4681764 0.005088491 26.943422 -0.0030901127 3.6766129
40.4648 3.468001 26.330376 3.5022066 -0.0017684523 3.4010594 3.492577 19.981611
0.0038918622 3.5282679 4.2708197 11.274999 0.0011107267 32.273712 -0.00067679636 22.519646
3.6408157 3.8091905 -0.0019875688 2.2899916 -0.0029895697 0.0025287562 34.406826 -0.00044402454
-0.0011564984 3.6228273 3.5852215 3.689811 3.5500598 3.5526562 3.679122 0.00017037039
3.678988 3.568153 -0.0033283585 -0.00084107625 0.0033283632 3.5494456 -0.0010234538 0.0008410822
3.5495336 3.82105 7.716476 -0.0019875683 0.0011107267 27.12432 -0.0038918622 3.8344774
00000000: e2ec 433b 1566 f439 0ac6 6c40 52dd 78bb
00000010: be35 30bb d967 d4bb 4484 6040 d89f 9c39
00000020: 1566 f439 33e6 6340 c2ec 433b 9af6 5d40
00000030: 5bbd a63b 218c d741 7d83 4abb a04d 6b40
00000040: f5db 2142 baf3 5d40 9ca4 d241 2724 6040
00000050: 6acb e7ba f5aa 5940 6286 5f40 57da 9f41
00000060: 9d0e 7f3b 24cf 6140 8eaa 8840 6566 3441
00000070: ce95 913a 4818 0142 096b 31ba 3c28 b441
00000080: 2003 6940 c7c9 7340 df41 02bb 398f 1240
00000090: a8ec 43bb 7db9 253b 97a0 0942 f7cb e8b9
000000a0: a695 97ba 67dc 6740 4574 6540 dd25 6c40
000000b0: 2e34 6340 b85e 6340 bc76 6b40 74a5 3239
000000c0: 8a74 6b40 9e5c 6440 9720 5abb ac7b 5cba
000000d0: ab20 5a3b 1e2a 6340 6925 86ba 127c 5c3a
000000e0: 8f2b 6340 158c 7440 5fed f640 dd41 02bb
000000f0: ce95 913a 9bfe d841 9d0e 7fbb 1468 7540
